lightning_logs/version_8/checkpoints/epoch=2-step=705.ckpt (torch, 99467 bytes, 6 tensors)

l1.weight f4 [10, 784]
00000000: f2df 41bc 5e9c df3c f8b9 51bc 7235 23bc
00000010: 3893 033c a0ee 99ba fd2a 123d c078 b63c
00000020: 709e c93c 90f9 ca3c 28d7 1e3c 72f0 f33c
00000030: 9cf5 3a3c 3383 fbbc 21d3 f5bc 0647 973c
00000040: 33d7 dbbc 7885 53bc f023 5f3c 2ea3 d63c
00000050: a0ed 683c 58f7 c83c ca12 863c bc66 a6bc
00000060: fc6a abbc 40db 3b3a 5066 9d3c 921c 04bd
00000070: 8624 e53c ea9d e73c 12cd f53c 1c37 ddbc
00000080: 4e70 96bc 08f4 373c c047 8c3c 82f1 e53c
00000090: e864 233c 7245 cc3a 6bfc 0cbe d127 b53e
000000a0: a9b9 823e 2f3f de3e 12e8 84be 8071 6abe
000000b0: b0de 64be 247e 68be 9870 e4bc 00b8 5139
000000c0: a63c fd3c 587d 3d3c c4b2 10bd 862a b73c
000000d0: dc55 323c 8410 7d3c 6e23 c1bc 63ab 8cbc
000000e0: 10f6 d3bc 2f61 013d 607c 373c 516c 2d3f
000000f0: b5d3 7b3f be28 4cbc 30b4 a7be b535 dcbe
00000100: 520a 3ebf 36e9 fabe 53e8 e6be 65db 3cbf
00000110: 8cca 3dbf 5f39 e6be 597b 81bf c30f a0bf
00000120: ce6c 3ebf d5ac b6bf 1d8c 91bf ac43 3cbf
00000130: 62bb c8bf f74b 8dbf 09a3 67bf 5359 dbbc
00000140: d4c6 6e3c 70a5 3a3c 1cf2 e4bc 14d8 93bb
00000150: 9c40 34bc 63e1 93bc bc5c 12bc aced 043f
00000160: 9d4f 843c 669a 7dbe 1c2c 80bf 262b 98bf
00000170: 3fde 37bf 44d2 2cbf 9683 03bf bb89 f1be
00000180: 9d0b a5be 0318 6c3d 1cef 9e3d 074d 88be
00000190: 60c1 273e d6db 63bd 8616 39bf 5362 1ebf
000001a0: 5961 fc3d c274 c0be 9d3b 97bf a7cf 12be
000001b0: 2138 91be 1685 cabd 83f3 96be 8632 48bc
000001c0: e056 06bb 30f0 903c 62e9 9a3c faa4 f7be
000001d0: 7d6a 83be 20c8 70bf f7a0 74bf 57d5 b9be
000001e0: 1200 243e d9c4 8c3e 7c90 9abe d42a cb3e
000001f0: bbbc c03d 6977 bbbd 574d bdbd 34a3 2fbe
00000200: f9af 25be 817b 16be 0fbc 943d f2be 46be
00000210: a264 d2bc 736b 02bf 2c55 3fbe 6d36 4ebe
00000220: 99b7 49bf 299f 6bbe 6c75 b7be 8c21 a03c
00000230: 8e79 9f3c 73a6 a8bc 2b0c 00bf aa0d 3abf
00000240: 50af 03bf 19dc 8ebf 48f1 6cbe 642f bebe
00000250: 7635 19be b8a8 85be 92a7 91bd 2ac2 81bd
00000260: 5c2e 23be 287f 323d 0662 7b3e 48e8 ed3d
00000270: 5708 bf3d 7afe a6bc 4c01 063d 1a88 5bbe
00000280: 9c90 b8be 9dad 93be d1cc c43d 3ee7 8bbe
00000290: e56e 86bf 8890 b6bf 7c94 64bf 3671 0fbf
000002a0: 201b 033b da4b 0ebd 4d22 b7be 7470 d4bd
000002b0: 105e 79be c362 e2be d66f b3bd 9b34 15be
000002c0: 518f 93be 6dde 04bf e6a4 8ebe 1018 00be
000002d0: 16ab fbbd b3e6 043e bae5 453e b6e2 da3c
000002e0: e413 a6bc 021f 3a3e 6528 b73e 7f76 483e
000002f0: 8c22 4abe e093 db3d 3cb4 893e c70f b1be
00000300: 9ab0 8dbf 138b afbf 7d9c cebf 63c2 57bf
00000310: 8c69 83bc c0ca 893c d599 a3be 80c0 95be
00000320: 966e 98be 1375 903e de49 7fbd eab3 263e
00000330: 9606 aebe a358 07be 3ded 42bc 7269 303e
00000340: 5329 07bd e913 243e 0ba5 8b3c 3580 873d
00000350: 6149 e53d 5e03 b83e 8152 c23e 7a2f 933e
00000360: dbaa d63c d553 a9bd 8c6d b7bc a653 84be
00000370: 0e3b 9abf a20b cfbf 3067 93bf ef2e 86be
00000380: 5b30 283f 50ef c73c 0b87 db3e ed1b 3b3e
00000390: fa67 98be d6bc 983e daad 003d db7a 0ebc
000003a0: 7744 a63c 0fa4 043e 82d9 303e 708a 413b
000003b0: 36a0 313e cb71 fb3c dc16 ab3e 7dab f33e
000003c0: ccee 3e3f 4cfb 0c3f 8154 b93e b2b6 383e
000003d0: 4bc8 c93d 7fb2 5a3b f0d3 ab3c 5246 053d
000003e0: 6bc9 49bf ef95 05c0 3731 7bbf 630c a7bc
000003f0: d07f 04bd a83e 5b3c 7110 6f3e 1777 863e
-0.011833178 0.027296241 -0.012800686 -0.009961473 0.008030705 -0.001174409 0.035685528 0.022274375
0.024611682 0.024777204 0.009694852 0.02977774 0.011411097 -0.03070221 -0.0300079 0.018466484
-0.026836013 -0.012910239 0.013619408 0.026200857 0.01421681 0.024532005 0.016366381 -0.02031266
-0.020925038 0.00071661547 0.019213825 -0.03225381 0.027971517 0.028273541 0.030005012 -0.027003817
-0.018364098 0.011227615 0.017124057 0.028069261 0.009972788 0.0015584661 -0.13768165 0.3538194
0.25532272 0.4340758 -0.25958306 -0.2289486 -0.22350574 -0.22704369 -0.02788572 0.00020000339
0.030912708 0.011565529 -0.035326734 0.022359144 0.010884728 0.015445832 -0.023576465 -0.017171567
-0.025874168 0.031586822 0.011199087 0.677434 0.98369914 -0.012460886 -0.3275466 -0.43009725
-0.742345 -0.4900605 -0.45099124 -0.7377227 -0.74137187 -0.44965646 -1.0115768 -1.250481
-0.7438477 -1.4271494 -1.1370884 -0.7354076 -1.5682185 -1.1038808 -0.90483147 -0.026775992
0.0145737715 0.011391982 -0.027947478 -0.0045118425 -0.011001732 -0.018051809 -0.008933242 0.5192516
0.016151244 -0.2476593 -1.0013461 -1.1888168 -0.71823496 -0.6750834 -0.5137266 -0.47175393
-0.32235423 0.057640087 0.0776045 -0.26621267 0.1638236 -0.055629574 -0.72299993 -0.6186878
0.12323255 -0.3758908 -1.1815068 -0.14337026 -0.28363135 -0.098886654 -0.2948266 -0.012219077
-0.002049856 0.017692655 0.018910114 -0.48368055 -0.25667182 -0.94055367 -0.9555811 -0.36295578
0.16015652 0.27493933 -0.30188358 0.39681113 0.094109975 -0.09153635 -0.09243267 -0.17152101
-0.1618041 -0.1469555 0.07262432 -0.19408777 -0.025682751 -0.50945204 -0.18684834 -0.2013795
-0.7879577 -0.23009934 -0.35831773 0.019547246 0.019467141 -0.020587182 -0.50018567 -0.726771
-0.5143938 -1.1160918 -0.23138916 -0.3714553 -0.149618 -0.26105285 -0.071120396 -0.06335862
-0.15935653 0.043578297 0.24549112 0.1161657 0.093277626 -0.020385016 0.03271608 -0.21438637
-0.36047828 -0.28843394 0.09609378 -0.2732486 -1.0502592 -1.4262857 -0.8928907 -0.5603212
0.0020005181 -0.034740306 -0.35768357 -0.10373011 -0.24352288 -0.44215974 -0.087615654 -0.14570849
-0.2882028 -0.51901895 -0.27860183 -0.12509179 -0.122884914 0.1297863 0.19325915 0.026719432
-0.020273156 0.18175891 0.35773006 0.19576453 -0.19739741 0.10721564 0.2689532 -0.3458235
-1.106952 -1.3714317 -1.6141506 -0.84280986 -0.01604154 0.016820312 -0.31953302 -0.29248428
-0.2977187 0.2821432 -0.062326305 0.1627957 -0.339894 -0.13217406 -0.011897382 0.17227724
-0.032998394 0.1602322 0.017046472 0.066162504 0.111956365 0.3594007 0.3795357 0.2874716
0.026204517 -0.08267943 -0.022391103 -0.2584507 -1.2049272 -1.6175425 -1.1515865 -0.26207682
0.65698785 0.024406105 0.42876467 0.18272372 -0.29766828 0.2983157 0.031415798 -0.008696283
0.020296318 0.12953208 0.17270473 0.0029531978 0.17346272 0.03069391 0.33415878 0.47591773
0.74583125 0.5507095 0.36197284 0.18038443 0.09852656 0.0033370552 0.020975083 0.032537766
-0.78822964 -2.0872762 -0.9812197 -0.020391649 -0.032348454 0.013381638 0.23346116 0.26262733

l1.bias f4 [10]
00000000: d745 29bf 2bd9 373f 3782 223f fe97 d7be
00000010: 8f2e be3e f2fe e3bd 4a33 49be b4a9 733f
00000020: bd8a c5bd d5aa b7bd
-0.6612219 0.7181575 0.6347994 -0.42108148 0.37144896 -0.11132611 -0.19648471 0.9518082
-0.09645603 -0.089681305

exp_avg f4 [10, 784]
00000000: 0000 0000 0000 0000 0000 0000 0000 0000
00000010: 0000 0000 0000 0000 0000 0000 0000 0000
00000020: 0000 0000 0000 0000 0000 0000 0000 0000
00000030: 0000 0000 0000 0000 0000 0000 0000 0000
00000040: 0000 0000 0000 0000 0000 0000 0000 0000
00000050: 0000 0000 0000 0000 0000 0000 0000 0000
00000060: 0000 0000 0000 0000 0000 0000 0000 0000
00000070: 0000 0000 0000 0000 0000 0000 0000 0000
00000080: 0000 0000 0000 0000 0000 0000 0000 0000
00000090: 0000 0000 7c6f bd2b 1afa ce2d 053c c332
000000a0: aaa0 1f33 ad3b 01b2 71f6 202b d244 082d
000000b0: 4258 b031 e140 2b31 0000 0000 0000 0000
000000c0: 0000 0000 0000 0000 0000 0000 0000 0000
000000d0: 0000 0000 0000 0000 0000 0000 0000 0000
000000e0: 0000 0000 0000 0000 0000 0000 6c0f 4035
000000f0: e84a 20b1 51cd 4e1d 0551 d132 ed69 ea32
00000100: a4b4 1b32 b9ce a52d fe0a c42e dc5c 1933
00000110: 0607 8333 6ee9 b0b7 5435 4cb7 ac72 2337
00000120: 75f9 8b37 474a be36 479c a934 e2d6 32b3
00000130: f4ce 0d35 ea5d c835 e058 0f34 0000 0000
00000140: 0000 0000 0000 0000 0000 0000 0000 0000
00000150: 0000 0000 0000 0000 0000 0000 b72c f936
00000160: 2009 0438 42d0 5bb1 7fd5 c032 d0da 6bb4
00000170: fa8c 8137 fba7 1f38 463d e0b5 96fd 1138
00000180: 5735 cd37 31a8 aeb8 6ba6 0eb9 5189 05b9
00000190: 9a29 07b9 9d38 f0b8 db53 81b8 18a6 b2b8
000001a0: feb2 47b8 6784 99b8 3c73 cbb8 90cb 8cb6
000001b0: 11b7 9033 dc85 8832 d4c5 8831 0000 0000
000001c0: 0000 0000 0000 0000 0000 0000 db8b 5736
000001d0: eb74 cb30 1077 f133 48a6 8835 a7f4 9637
000001e0: 1865 6138 f21c 7037 0ec3 74b7 bab5 b938
000001f0: a0c8 bc38 1c46 c9b8 d09d bab9 0b5d 05ba
00000200: 5738 8cb9 716b 4139 f57e 9a39 a6a5 1e38
00000210: 503d c4b8 b926 d0b7 a89a 63b9 ca5b fdb8
00000220: 410f 9d35 1f99 c134 829a ae30 0000 0000
00000230: 0000 0000 0000 0000 7be1 a331 329d d337
00000240: 5070 06b2 1714 9b36 0a4a ca36 73ea 4138
00000250: 6a4c c638 8ee3 3838 eac7 0a38 8e63 02b9
00000260: f296 99b9 c296 02ba 080a 06ba 4218 51ba
00000270: f4cd 33ba 0e10 bab9 e248 83b9 aad1 8938
00000280: 81e1 6c38 85d6 4139 1c65 3139 bcb6 c238
00000290: d0a4 a135 4e64 d631 af55 112d ab41 af2d
000002a0: 0000 0000 0000 0000 6d0b ea2a cf53 4523
000002b0: d5fd 8536 d443 d337 5c04 3838 0a2c a538
000002c0: de45 d638 1a09 ad37 a428 26b9 ffae 8eb9
000002d0: bcb5 e0b9 7daa 41ba d7a6 58ba b48d 1cba
000002e0: 0b22 41b9 d712 a8b8 62b0 8337 5c58 f7b8
000002f0: 5fa7 4c38 2172 3939 59f4 9f39 0e31 9a39
00000300: 7463 8938 1f85 6938 29ab 8e35 f65f 3c2e
00000310: 0000 0000 0000 0000 1f9b 2a24 061b 912a
00000320: 3689 df37 aa87 cf37 113a aa37 2eb4 7238
00000330: 70e8 a2b7 e06e fdb9 28b6 f2b9 16cb 18ba
00000340: a623 59ba 83e6 41ba c03e d1b9 336c 0fb9
00000350: 1b1e 70b7 befc 33b8 f2d8 fb38 c0c3 9138
00000360: 5038 1139 aa2b 0f39 4c05 dd39 8f66 d639
00000370: c498 0f39 1f20 1b37 0f3a 6431 5469 c1ac
00000380: 4843 bfb7 0000 0000 1384 fbb6 ed67 98b8
00000390: 64b4 24b8 4934 48b9 7790 48b9 ba48 a5b9
000003a0: d457 beb9 59ac 6aba 7e8f 6aba eb90 80ba
000003b0: d5aa 80ba 8109 b4b9 208d 81b9 a43c e8b9
000003c0: 70ae 16ba 2264 2eba 1063 97b9 b4b9 9fb9
000003d0: 3631 f038 afe6 57b7 eee0 6eb8 b457 d338
000003e0: d1db 2139 6753 0339 7312 ea31 0000 0000
000003f0: 0000 0000 0000 0000 3e5f 4eb6 8105 61b9
0.0 0.0 0.0 0.0 0.0 0.0 0.0 0.0
0.0 0.0 0.0 0.0 0.0 0.0 0.0 0.0
0.0 0.0 0.0 0.0 0.0 0.0 0.0 0.0
0.0 0.0 0.0 0.0 0.0 0.0 0.0 0.0
0.0 0.0 0.0 0.0 0.0 1.3460201e-12 2.3530556e-11 2.2728281e-08
3.7166195e-08 -7.522357e-09 5.7185425e-13 7.745986e-12 5.132308e-09 2.4920654e-09 0.0 0.0
0.0 0.0 0.0 0.0 0.0 0.0 0.0 0.0
0.0 0.0 0.0 7.1548016e-07 -2.3325644e-09 2.737002e-21 2.4367646e-08 2.7289355e-08
9.06326e-09 1.8850132e-11 8.915001e-11 3.5707544e-08 6.1014404e-08 -2.1089534e-05 -1.2171764e-05 9.742256e-06
1.6686254e-05 5.6710883e-06 3.159241e-07 -4.163929e-08 5.282775e-07 1.4928494e-06 1.3350245e-07 0.0
0.0 0.0 0.0 0.0 0.0 0.0 0.0 7.4259838e-06
3.147975e-05 -3.1987075e-09 2.2448829e-08 -2.1965684e-07 1.5443646e-05 3.8064998e-05 -1.6707133e-06 3.4806864e-05
2.4462743e-05 -8.328295e-05 -0.00013604171 -0.00012735023 -0.00012890101 -0.00011454637 -6.166819e-05 -8.518639e-05
-4.7611997e-05 -7.3202704e-05 -9.7012584e-05 -4.196023e-06 6.738822e-08 1.5893356e-08 3.9806114e-09 0.0
0.0 0.0 0.0 3.2118903e-06 1.4803424e-09 1.12440944e-07 1.0181184e-06 1.7995319e-05
5.373833e-05 1.4311854e-05 -1.4588948e-05 8.855337e-05 9.001908e-05 -9.597486e-05 -0.00035594264 -0.0005087412
-0.00026744857 0.0001844594 0.0002946776 3.7824408e-05 -9.357429e-05 -2.4813564e-05 -0.00021706021 -0.00012081077
1.1701851e-06 3.6060462e-07 1.270408e-09 0.0 0.0 0.0 4.7695585e-09 2.522636e-05
-7.8253635e-09 4.6216987e-06 6.0286884e-06 4.6233134e-05 9.455609e-05 4.4080945e-05 3.308795e-05 -0.00012434853
-0.00029294897 -0.0004981571 -0.0005113189 -0.0007976332 -0.00068589975 -0.00035488646 -0.0002504057 6.571722e-05
5.64768e-05 0.00018485829 0.00016917702 9.284678e-05 1.2043402e-06 6.239623e-09 8.261321e-12 1.9924359e-11
0.0 0.0 4.1574678e-13 1.06971386e-17 3.993259e-06 2.5184745e-05 4.387308e-05 7.876016e-05
0.00010217329 2.0627445e-05 -0.00015846133 -0.00027214733 -0.00042860012 -0.00073877705 -0.0008264607 -0.0005972043
-0.00018418596 -8.0143735e-05 1.5698552e-05 -0.00011794336 4.8793267e-05 0.00017685491 0.00030508896 0.00029409718
6.551194e-05 5.5675508e-05 1.0629639e-06 4.283148e-11 0.0 0.0 3.6994267e-17 2.5775925e-13
2.6647565e-05 2.4739496e-05 2.0292619e-05 5.78651e-05 -1.9420142e-05 -0.0004833853 -0.00046293554 -0.0005828602
-0.0008283205 -0.00073967146 -0.0003991034 -0.0001367785 -1.4312124e-05 -4.291231e-05 0.00012009022 6.9506e-05
0.00013849256 0.00013653809 0.0004215635 0.00040893673 0.00013694452 9.246199e-06 3.321137e-09 -5.4970837e-12
-2.2800305e-05 0.0 -7.4957584e-06 -7.2672825e-05 -3.926865e-05 -0.00019092964 -0.00019127304 -0.00031525438
-0.0003630506 -0.00089520734 -0.00089477736 -0.0009808814 -0.0009816537 -0.00034339356 -0.00024709944 -0.0004429567
-0.0005748039 -0.0006652494 -0.00028874772 -0.00030465203 0.00011453258 -1.2868709e-05 -5.6953104e-05 0.000100776
0.00015436044 0.00012524203 6.8123938e-09 0.0 0.0 0.0 -3.075183e-06 -0.00021459722

exp_avg_sq f4 [10, 784]
00000000: 0000 0000 0000 0000 0000 0000 0000 0000
00000010: 0000 0000 0000 0000 0000 0000 0000 0000
00000020: 0000 0000 0000 0000 0000 0000 0000 0000
00000030: 0000 0000 0000 0000 0000 0000 0000 0000
00000040: 0000 0000 0000 0000 0000 0000 0000 0000
00000050: 0000 0000 0000 0000 0000 0000 0000 0000
00000060: 0000 0000 0000 0000 0000 0000 0000 0000
00000070: 0000 0000 0000 0000 0000 0000 0000 0000
00000080: 0000 0000 0000 0000 0000 0000 0000 0000
00000090: 0000 0000 20b7 811e 6bd8 9a22 791f c331
000000a0: 9793 be32 c7cf 8031 ab6c 002c 24d5 b72f
000000b0: 3a81 8430 2fb1 9d2e 0000 0000 0000 0000
000000c0: 0000 0000 0000 0000 0000 0000 0000 0000
000000d0: 0000 0000 0000 0000 0000 0000 0000 0000
000000e0: 0000 0000 0000 0000 0000 0000 4aa1 1a2f
000000f0: 6f07 902d c900 a01f 7b23 9b2f 5fe1 c42f
00000100: 348d 892e dc42 cf2e 2300 e82f 8153 1f32
00000110: 5d30 f032 1566 d131 3067 ac31 afc0 8e31
00000120: 1ae0 4d32 a2ef 6231 059c 1431 bdbe 0230
00000130: 7c8e 932d dd7e 1f2d adc7 f92b 0000 0000
00000140: 0000 0000 0000 0000 0000 0000 0000 0000
00000150: 0000 0000 0000 0000 0000 0000 e62a b730
00000160: 46fd d62f 3dbb 8932 760d 8b32 5e61 9532
00000170: d26a 0933 d822 4f33 7e22 6833 7cca 3534
00000180: 67cd 5634 ee67 7834 6a12 8a34 1248 8c34
00000190: 69c9 a634 7ded 8334 0837 5434 5e70 3734
000001a0: 6295 9f33 c245 5d33 8cfc 4b32 bd0d 9b30
000001b0: 69f0 0530 4878 6a31 70c3 622f 0000 0000
000001c0: 0000 0000 0000 0000 0000 0000 171a 092c
000001d0: e62d a42c 9702 8932 eebf b832 debf d633
000001e0: 07d0 8d34 2271 b634 c73c ec34 7c7f 2835
000001f0: 95e9 6935 9219 8f35 8892 b835 b3f2 d935
00000200: 070b de35 55b6 b935 3015 8b35 5934 6735
00000210: 7675 0335 7ab6 9134 8557 2e34 3b35 d133
00000220: 793e 3633 c41e 0732 12c7 b82d 0000 0000
00000230: 0000 0000 0000 0000 e1c1 8b28 8266 002f
00000240: af1d 932e a255 bd32 53f5 e633 6d1b a434
00000250: 401c 0135 f0c7 3e35 2eb0 a735 f464 0536
00000260: ee7e 3436 bffc 5936 3ccc 8136 0dff 8c36
00000270: 8d44 8836 95b5 6b36 5798 3f36 d2c2 0a36
00000280: 991b c435 068e 6835 c26a f434 03f2 5634
00000290: 7d8b c433 594d 2732 1b47 cc2f 0e45 8830
000002a0: 0000 0000 0000 0000 3543 2028 b817 d52e
000002b0: 1c88 8630 47cc 0f33 6e75 8534 f324 1535
000002c0: 437a 7035 edef ce35 db89 1e36 146b 5936
000002d0: 4f5d 8736 782e a136 d27e bf36 f9cd cc36
000002e0: 09cb c336 5c15 ac36 7fa2 9636 a7d4 7c36
000002f0: bc56 3f36 db06 f335 d519 8035 36ca c734
00000300: b2b6 a033 005f e532 a0fb 3532 17d0 b531
00000310: 0000 0000 0000 0000 abf8 542c 8d51 1c30
00000320: 0dc6 9031 3eec 9733 6f49 e834 54cb 6835
00000330: caed d635 02de 2336 617a 5936 13ee 8836
00000340: 2600 a036 e46c c936 c2e4 cf36 410e c336
00000350: 8ac2 cd36 d9b4 cb36 5a5d be36 63ee a936
00000360: ce2e 8636 f233 3836 b47d eb35 c2a5 3435
00000370: c393 1a34 d57a 1633 1297 2432 4292 a12f
00000380: 68ac 9e30 0000 0000 de7f 162f 8728 6431
00000390: d42f 8d32 6e1a 1834 a864 3935 2b08 c735
000003a0: 9565 1936 447b 5036 0c5c 7c36 30ba 9836
000003b0: 4d5f b536 a90f c236 8df1 bb36 6265 b636
000003c0: b45d b936 b418 c436 5893 b936 4083 aa36
000003d0: 4efe 9936 5e0c 6d36 928f 2136 0d69 9535
000003e0: 648b 3b34 98e8 2233 0c71 3932 0000 0000
000003f0: 0000 0000 0000 0000 a2bb f02d 559f c332
0.0 0.0 0.0 0.0 0.0 0.0 0.0 0.0
0.0 0.0 0.0 0.0 0.0 0.0 0.0 0.0
0.0 0.0 0.0 0.0 0.0 0.0 0.0 0.0
0.0 0.0 0.0 0.0 0.0 0.0 0.0 0.0
0.0 0.0 0.0 0.0 0.0 1.3734145e-20 4.1970925e-18 5.678825e-09
2.2186027e-08 3.748912e-09 1.8250217e-12 3.3438952e-10 9.640992e-10 7.1710075e-11 0.0 0.0
0.0 0.0 0.0 0.0 0.0 0.0 0.0 0.0
0.0 0.0 0.0 1.406352e-10 1.6374206e-11 6.7763935e-20 2.8219546e-10 3.5812328e-10
6.2551214e-11 9.425147e-11 4.220065e-10 9.274005e-09 2.796167e-08 6.094306e-09 5.01759e-09 4.1546495e-09
1.1983525e-08 3.3023544e-09 2.1625521e-09 4.756478e-10 1.6775241e-11 9.066273e-12 1.7747935e-12 0.0
0.0 0.0 0.0 0.0 0.0 0.0 0.0 1.3327195e-09
3.9106335e-10 1.6034045e-08 1.6187851e-08 1.739016e-08 3.199495e-08 4.8227633e-08 5.404808e-08 1.6930602e-07
2.0005028e-07 2.3134609e-07 2.57179e-07 2.612947e-07 3.1066455e-07 2.4573447e-07 1.9764059e-07 1.7084082e-07
7.431187e-08 5.1519017e-08 1.1873578e-08 1.1281639e-09 4.872676e-10 3.4119854e-09 2.0624014e-10 0.0
0.0 0.0 0.0 1.9483354e-12 4.666256e-12 1.5950077e-08 2.1507699e-08 1.0000052e-07
2.6414656e-07 3.3982457e-07 4.4002647e-07 6.277039e-07 8.713917e-07 1.0661772e-06 1.3751715e-06 1.6238395e-06
1.6543498e-06 1.383664e-06 1.0362473e-06 8.613038e-07 4.897223e-07 2.7141124e-07 1.6236852e-07 9.7420035e-08
4.2431996e-08 7.8650295e-09 2.1006783e-11 0.0 0.0 0.0 1.5516182e-14 1.167795e-10
6.690059e-11 2.2041437e-08 1.0754834e-07 3.0567335e-07 4.8097354e-07 7.1071463e-07 1.2493745e-06 1.9877307e-06
2.6895973e-06 3.2482637e-06 3.8682756e-06 4.202017e-06 4.061096e-06 3.5123423e-06 2.8549891e-06 2.0677003e-06
1.461117e-06 8.6633406e-07 4.5526218e-07 2.0018346e-07 9.152334e-08 9.738266e-09 3.7157907e-10 9.914929e-10
0.0 0.0 8.896357e-15 9.690332e-11 9.788468e-10 3.348057e-08 2.4858622e-07 5.5560594e-07
8.958488e-07 1.5418024e-06 2.3624077e-06 3.2397847e-06 4.034176e-06 4.8035836e-06 5.7070074e-06 6.103652e-06
5.8350893e-06 5.128486e-06 4.4892654e-06 3.7674706e-06 2.8511704e-06 1.8106906e-06 9.544261e-07 3.7213766e-07
7.483813e-08 2.670231e-08 1.05927995e-08 5.2914504e-09 0.0 0.0 3.026505e-12 5.686836e-10
4.2134674e-09 7.0744576e-08 4.3266797e-07 8.6722616e-07 1.6013448e-06 2.4418118e-06 3.2406754e-06 4.0808313e-06
4.768389e-06 6.0029433e-06 6.1957116e-06 5.8131122e-06 6.1321234e-06 6.070925e-06 5.673309e-06 5.0643444e-06
3.99896e-06 2.7448373e-06 1.7545449e-06 6.7296435e-07 1.4396123e-07 3.503631e-08 9.580406e-09 2.9389652e-10
1.1545014e-09 0.0 1.3687848e-10 3.3201404e-09 1.643631e-08 1.4165718e-07 6.9064345e-07 1.4829033e-06
2.2857905e-06 3.1066165e-06 3.7604505e-06 4.551628e-06 5.405315e-06 5.7834736e-06 5.6011545e-06 5.435825e-06
5.524338e-06 5.844131e-06 5.5305827e-06 5.0816743e-06 4.5893603e-06 3.532295e-06 2.4074438e-06 1.1131939e-06
1.7466442e-07 3.7930107e-08 1.0794121e-08 0.0 0.0 0.0 2.7368167e-11 2.2773444e-08

exp_avg f4 [10]
00000000: 79cd 4cba b511 a4ba 3df0 2f3b 7065 01ba
00000010: 008c b4ba ff5b b105 6f78 0c3a b853 823b
00000020: c2fe de04 5f41 0dbb
-0.00078126 -0.0012517484 0.0026846074 -0.0004936075 -0.0013774633 1.6678794e-35 0.0005358522 0.003977265
5.2425907e-36 -0.0021553857

exp_avg_sq f4 [10]
00000000: a39c 7f37 3003 bc37 74bc 3a38 7e39 8038
00000010: 5fd1 8038 ca2e c534 5dcc c537 a7bb 3f38
00000020: fada 1b33 3189 d038
1.5235654e-05 2.241283e-05 4.4521366e-05 6.1142244e-05 6.142514e-05 3.6728153e-07 2.3579394e-05 4.5712713e-05
3.6287908e-08 9.943767e-05
