lightning_logs/version_4/checkpoints/epoch=4-step=9375.ckpt (torch, 225107 bytes, 6 tensors)

l1.weight f4 [64, 784]
00000000: 3e43 b8bc 9450 bfbb 247c 0abd 38bc 16bc
00000010: 10b8 5e3b 3054 21bb 50be 173c 46de e83c
00000020: 438a 073d 2359 b3bc 00e6 ecb8 00a1 61b9
00000030: 3b32 093c 9a33 483c 6dee d6bc 61f2 02bc
00000040: e87d c83c 4123 043d cef8 6cbc 42af 0dbd
00000050: 667d dc3c 6a40 d7bc e323 b8bc 0c68 c43c
00000060: c427 07bd 2063 2f3b e087 29bb 8e8c f2bc
00000070: 7541 adbc 4887 6e3c 889e 2c3c 405d fb3a
00000080: d0ac dc3c b0d0 58bc 4394 eebc 23c0 803a
00000090: 4d37 02bd 3322 5dbc 24c3 8bbb 7495 083d
000000a0: 1207 b63c e54c 063c 3754 6f3c ad3e bbb9
000000b0: b12c f1bc 6c4c dbbc 6883 debc 54ea c5bc
000000c0: b568 973c f116 14bc a923 c93c 27ef 8a3c
000000d0: 0409 683c 5ca7 d0bc 0c27 d53c 9885 65bc
000000e0: 44ef 783c 0e9f efbc cc45 833c 907c c7bc
000000f0: 571b a1bc 95bf 813c 1b1a 2b3b 178a 803c
00000100: cc71 0e3b 0e30 5e3c 80fd b4bc d139 cc3c
00000110: 2ba6 e5ba 7916 adbc 4294 923c b31b dabc
00000120: 62a7 163d 97da 40bb 1154 973b 1944 cc39
00000130: c731 e23c 1ef2 c83b 0c5b f2bb 7b09 e73c
00000140: 6d7c ebba d40f 883c 4244 a23c 40a3 73bc
00000150: 88e8 203c 7738 0e3d b938 a5bc c64f 0c3d
00000160: 01a8 63bc 2f8a 8f3c d951 0cbd d4c8 4dbb
00000170: 793d 003d 946b 3b3c 712a c73c 743e 0bbd
00000180: c75c b1ba b2db 48bc eb3b ff3b c9bf 263d
00000190: e764 f1bb cd15 4abc f65e 78bc d01f 95bc
000001a0: 5776 003d a4e2 aabc aa75 2cbc 15e3 103d
000001b0: d0c8 d8bc d88a babb a46c 923b f817 c4bc
000001c0: 6e86 01bd 741b 7e3c dcb5 e23c c214 033c
000001d0: f685 51bc b3d8 013b 5e01 a439 a1c6 133a
000001e0: ff58 e93a ded2 873c 6640 05bd 8cfa 383b
000001f0: 82cb f0bc 131c eebc acd6 d2bc b3df 46bc
00000200: 21bc 0c3d ebae b7bc 4481 efba 09b6 febb
00000210: e250 103d 8d28 67bc 2d64 81bc 1dfa 0d3c
00000220: fddd efb9 e5fa d83c 93a9 ffbc 4dbb ab3c
00000230: 7cb8 b5bc b064 89bb 9e86 a23c 8c15 f93b
00000240: 7296 cb3c 4bf5 503c 4956 033d 3287 0fbc
00000250: 3af6 8b3c 21d3 23bd 6476 943a f083 c6bc
00000260: 532c b4bc 5363 04bc 8eb2 a13b 0a65 2cbb
00000270: 9a24 4ebd 5998 223c 5e65 17bd 425d 3e3c
00000280: 453f 9abc 8a52 16bd e362 73bc 672f f93c
00000290: 5c93 7cbc 05ac ad3c 5b60 ee3c 99de e33b
000002a0: 60a6 cb3a 8c5e 6b3c 24ab 0d3c 5708 73bc
000002b0: f166 c33c 3346 55bc 691a 0dbb 4532 8e3c
000002c0: ac0e e1b9 2f7f 673c 3a35 cd3b 6c93 ccbc
000002d0: a8b0 1fbd 615d b8bc 1a93 59bd 14d0 8ebb
000002e0: 9343 98bc 7953 01bd fd2d b7bc 19a0 5e3b
000002f0: 1c3a 313c 0db3 ffbc 39bf ddbb 5a5f d8bc
00000300: 4450 07bd 64fa f3ba 10d1 903c ac89 67bc
00000310: f842 06bc 448b 813c 4ca6 f73a 9bbe 953b
00000320: d9b0 92bc ef04 e43b 4329 9abc 4d4f b93c
00000330: eef6 c1bc 1f90 8d3b 6f6c db3c a082 f33c
00000340: 8216 42bc c8ab dbbc 6520 9e3c 3070 35bc
00000350: 9257 c63c f028 e53a 1ef2 fdbc bf73 cebb
00000360: 98a9 0ebd d652 3cbd 0f57 943c 70fe f8bc
00000370: d11e abbb 2cd5 25bd ec3c 0bbd 5e66 9dbb
00000380: 8f7d 0cbd 5c50 87bb 51e3 b1bc c591 103c
00000390: 800e 8c3b b15b e23c 0f3e 0ebb 9dba 7b3a
000003a0: 9737 043c 171b 6b3c 9322 87bc 0f6e 173d
000003b0: 375f 653b 0054 9bba 5639 8bbb 5962 e6ba
000003c0: 0049 c43c e52d b93c 7151 b7bc ed0d c7bc
000003d0: 6c40 69bc e503 623c 7e2f a9bc a27d 683c
000003e0: dbc8 35bc 8589 0a3b da29 e8bc ae55 b9bc
000003f0: fe34 dd3c 6394 6d3b c4fb c83c 326f 00bd
-0.022493001 -0.005838463 -0.033809796 -0.009200148 0.0033984222 -0.002461683 0.009261683 0.0284263
0.03309084 -0.02189309 -0.00011296198 -0.0002151765 0.008373792 0.012219334 -0.026236737 -0.007992358
0.0244741 0.032260183 -0.014463617 -0.034590967 0.026915263 -0.026275832 -0.02247805 0.023975395
-0.032996908 0.0026761964 -0.0025868341 -0.029608037 -0.021149376 0.014558621 0.010535844 0.0019177571
0.026937872 -0.013233349 -0.029123431 0.0009822886 -0.03179102 -0.013496923 -0.004265206 0.033345655
0.022220168 0.008197044 0.014607481 -0.00035714117 -0.029440256 -0.02676984 -0.027162269 -0.024159588
0.018482545 -0.009038673 0.024553137 0.01695974 0.014162306 -0.025470428 0.026019596 -0.014008902
0.015193764 -0.029250648 0.016024493 -0.024351388 -0.019666357 0.015838424 0.002610809 0.015690846
0.0021735309 0.013561262 -0.022093534 0.024929913 -0.0017520835 -0.02112888 0.01789296 -0.026624536
0.036780722 -0.0029427165 0.004618176 0.0003896065 0.027611626 0.0061323782 -0.0073961075 0.028202763
-0.0017966159 0.01660911 0.019807938 -0.014870465 0.009821065 0.034721818 -0.020168649 0.034255765
-0.013895036 0.017521946 -0.034257744 -0.003140022 0.031308625 0.011439223 0.02431223 -0.033995107
-0.0013531678 -0.012259411 0.007789125 0.040710244 -0.007366765 -0.012334299 -0.015159359 -0.018203646
0.031362858 -0.020860024 -0.0105261 0.035372812 -0.026462942 -0.005692821 0.0044685174 -0.02393721
-0.031622343 0.015509475 0.027674608 0.0080005545 -0.012788286 0.0019813 0.00031281536 0.0005637203
0.0017803012 0.016580041 -0.03253212 0.002822551 -0.029393915 -0.029066121 -0.02573713 -0.012138295
0.0343591 -0.022422275 -0.0018272777 -0.007773165 0.035233386 -0.014108789 -0.015794838 0.008665589
-0.00045751026 0.026486823 -0.031208789 0.020963335 -0.022182696 -0.004192911 0.019839581 0.0076014455
0.024852011 0.012753795 0.03206471 -0.00876026 0.017085183 -0.03999627 0.0011326787 -0.024232835
-0.021993792 -0.008080321 0.0049346155 -0.002630534 -0.050327875 0.009924018 -0.036961906 0.011618914
-0.018828997 -0.03669981 -0.014855119 0.030418111 -0.015415993 0.02120019 0.02909868 0.006954026
0.0015537255 0.014365803 0.00864676 -0.014833531 0.023852797 -0.013017225 -0.0021530634 0.017357955
-0.00042926276 0.014129444 0.0062624486 -0.02497264 -0.038986832 -0.022505464 -0.053118803 -0.004358301
-0.01858691 -0.031573746 -0.022360796 0.0033969937 0.010817077 -0.031213308 -0.0067671803 -0.026412655
-0.03303553 -0.0018614051 0.017677814 -0.014131945 -0.0081946775 0.015813477 0.0018894165 0.004569841
-0.017906593 0.006958596 -0.018818503 0.022620821 -0.023677316 0.004320159 0.026785104 0.029725373
-0.011846187 -0.02681531 0.019302556 -0.011074111 0.024211679 0.0017483514 -0.03099924 -0.006300419
-0.034829706 -0.045977436 0.018107919 -0.030394763 -0.0052221795 -0.0404865 -0.033993647 -0.004803463
-0.03429943 -0.0041294526 -0.021714838 0.008823817 0.0042741895 0.027631612 -0.002170447 0.00096026977
0.008069894 0.01434972 -0.016495978 0.036970194 0.003499938 -0.0011850595 -0.0042487783 -0.0017576917
0.02396059 0.022604892 -0.022377701 -0.024298633 -0.014236551 0.013794874 -0.020652529 0.014190109
-0.011095251 0.0021139097 -0.028340269 -0.022623863 0.027002808 0.0036251775 0.024534114 -0.031356044

l1.bias f4 [64]
00000000: d6a4 6e3c f1d1 643d f658 853d 4244 913c
00000010: ef7a f73b 7e96 ec3b aefd 673d 255e c4bc
00000020: 27ad a0bc 1a9e 4dbc a66e 513d a833 eabc
00000030: b5bd f03c eaa9 be3c 5d8d 933c 7b89 423d
00000040: 9472 453d 7135 e6bc f530 b23c 7e11 7c3d
00000050: 7087 87bb 9854 dc3d 49a5 953d 04a8 f639
00000060: 5070 1a3c 265f 603c 7b89 883c 4ef8 ccbc
00000070: b669 8b3c 7040 d53c f810 6b3d 053d 633d
00000080: a43f 223d 5f32 7a3c 42ab 2d3d 9b99 77bc
00000090: 38ac 1ebd c003 033d 3b2c 4f3d 5168 613d
000000a0: c773 dc3c 436c bc3c ceb5 903d a7e2 be3c
000000b0: 694b d33c d41d d23b d157 843d 6b5c 473d
000000c0: fe6d 443d cce4 153b 7953 873d d3c0 9e3c
000000d0: 0b0d 5e3d ddda 203c db29 8bbc 4c1a 9ebc
000000e0: 6881 5dbc c391 523d 78c4 85bb 8aa2 5b3c
000000f0: a1ba 863c 7e93 b33b 6628 8d3d d548 ce3c
0.014565667 0.05586428 0.065111086 0.017732743 0.0075524966 0.0072200885 0.056638412 -0.023970673
-0.019613815 -0.012549901 0.051130913 -0.028589085 0.029387334 0.02327438 0.018011743 0.047494393
0.048204973 -0.028101655 0.02175186 0.06154012 -0.0041360185 0.107583225 0.07306916 0.00047045958
0.009426191 0.01369456 0.016667118 -0.025020745 0.01701818 0.026031703 0.05738923 0.055478115
0.039611474 0.0152707985 0.042399652 -0.015112306 -0.03873846 0.031986 0.05057929 0.055031125
0.026910676 0.023000842 0.070659265 0.023301436 0.025792794 0.006412247 0.06462062 0.04867212
0.04795646 0.002287197 0.06607718 0.019379055 0.054211657 0.009817806 -0.016987732 -0.019299649
-0.013519622 0.05140854 -0.004082259 0.013405452 0.016446413 0.005480229 0.06892471 0.025181213

l2.weight f4 [64, 64]
00000000: ef47 67bd 4fd8 d23d 1719 09be aa38 38bd
00000010: a6fe fc3d ce0c 6fbc a638 9e3c 22f6 c33d
00000020: 2647 66bd 215d b6bd 6964 b0bd d6fc aebd
00000030: fd2c 963d cece 853d 1589 1ebd a769 be3d
00000040: 60bd 0abd 16b3 ccbd 3673 703c 6eb1 973d
00000050: 3678 bebd 51f0 c93c 3317 133d df48 ecbc
00000060: 9956 3a3d 3009 6d3d 0ecf a53d 39d9 80bc
00000070: 3439 0ebd 663f 6bbd 135b 793d 65bc e53d
00000080: 59de ff3d 1005 79ba ec6e 3ebb a6ac 1f3d
00000090: ca32 90bb 3a17 d13d d258 883d 92bf d53d
000000a0: da56 86bd 6fab 8cbd 2e91 483d db8c bf3d
000000b0: 8e66 febc 546b 853c 0cd9 3c3d 6f78 d63d
000000c0: 0b29 88bc 1aa4 9cbd 40a4 49bc 8f6e b3bd
000000d0: 532c 8e3b 32df a83d 702e 4ebd ca64 f93d
000000e0: a97e 7f3d f1cf c6bd 3048 223d e9cb b2bd
000000f0: 94c0 693d c634 f73d 0dab d7bd ad21 723c
00000100: 9e3a 9dbd e346 493d 8631 383d 43ef b2bd
00000110: d927 7ebd 086e a1bc a236 5cbc 8f0a 063e
00000120: 2d85 94bd 37dc 06bb 8a83 683d a632 86bd
00000130: 573a 38bc 5f7b 75bd 9363 eebd e451 e9bd
00000140: bc82 023e 17e9 36bd 63e7 fcbc d964 e03d
00000150: 9d08 073e 182c d6bc 285a 193e 31db f5bd
00000160: 0ef5 ae3d 7bca febd 3e22 cf3c acda 6f3d
00000170: 292d 9bbd cd4e 80bd 47ee 833b 0649 823b
00000180: 6608 83bd 3b35 413c dabf 283d 5886 d4bd
00000190: acdc 16bd 15c4 0dbd fe83 9fbd 34dd 54bd
000001a0: 3d98 c33d 1b7d bfbc cb04 76bb 4d4e 00ba
000001b0: 9e98 d73d be23 d5bd 4b1a 8d3d 02d4 c23c
000001c0: 2783 853d c3b0 c9bd 3577 083e 8159 adbd
000001d0: e7be b5bd c98f 9d3d cc9b 553b 0bf5 a3bd
000001e0: 5307 b1bd 069c c7bd fe78 71bd a44f 893b
000001f0: 58cb 0a3e f9e5 ef3d a6e2 043e 69e2 cbbd
00000200: eb9f 83bd 1a8d 5abb 4bd0 ab3d 8309 a6bd
00000210: c6d9 3a3d 01b3 3ebd da5c c0bc bb53 04be
00000220: 187e 993d cadb d0bd 4dac 39bd b911 2e3d
00000230: af69 dabd feb3 f9bc 5e6f 903d 8ce1 2bbd
00000240: 3a63 053e 3f81 68bd 23b8 c9bd a817 f13c
00000250: 5001 51bc 7700 073d 2349 ee3d fe13 003d
00000260: f1b5 9fbc e81c 1d3d 3248 d4bc 854e efbd
00000270: 70af 7c3d f689 e53d 92b2 18bd 1926 883c
00000280: f7a0 993d 75f1 31bd 8147 f43d 23e5 ed3d
00000290: 8639 dcbd c3a3 c63d 1590 14bb cfeb 3abd
000002a0: 7b7c d83d a3c3 d9bd 820a c43d 1202 c43d
000002b0: 2deb 86ba 3f20 a93d 9fbb 8fbd 4694 c3bd
000002c0: 899e 323c b259 88bd fb8e 2cbd 278a 673d
000002d0: 38ac 8cbd 8620 1dbd fff8 95bd 7c22 03be
000002e0: 431c e33d aa4b f23b c326 0e3e c359 46bd
000002f0: 59ee 193e db2a 73bd 8b85 b4bc 5a96 fa3c
00000300: 3d98 963d 3cb8 82bd 8992 183d 69e0 0bbd
00000310: b62e 96bd 4f2d ba3d a35b de3c 1322 50bd
00000320: 623f 8bbd 2669 ef3d 5bf6 c0bd 91f3 b53c
00000330: 2e36 2e3c aa4d 1dbd da26 983d 7643 b93c
00000340: 2892 bebd 1a33 94bd aa86 24bb 7c19 b63d
00000350: d328 a43c 6218 6cbd 0f68 c7bd 70a6 8c3c
00000360: c458 293c 3929 a7bd 2fc9 47bd b350 7a3d
00000370: bfcd b0bb 39f2 6f3d 8185 ae3c 05ec bfbc
00000380: 868c 553d 0644 d83c c6f1 bf3d df4e b6bd
00000390: b9dd e63d 64f9 95bd 87a1 483d 9490 acbd
000003a0: 9fe3 ac3c 080a 8d3d 0ebb f0bd ae12 b1bd
000003b0: 2076 7b3d 7e7c 61bc 3fad 923d def3 09bc
000003c0: 08cd 1f3d 9a89 bc3d 90ee 2ebd 0612 94bc
000003d0: 9143 2f3c 1278 833d 738e b3bd 3451 e7bd
000003e0: 8ee8 eabd 291e 83bd 7713 acbd c784 88bd
000003f0: abfd 8d3c 3357 e9bd 8ddc e4bd c36d 58bd
-0.056465086 0.10295164 -0.13388477 -0.044975914 0.12353258 -0.014590455 0.019314121 0.095684305
-0.056220196 -0.08904482 -0.08612902 -0.085443184 0.073327996 0.065335855 -0.03870495 0.09297495
-0.03387201 -0.099950954 0.014675906 0.07406889 -0.09300272 0.024650725 0.035910796 -0.028843341
0.045492742 0.05787009 0.08096133 -0.01572858 -0.034722522 -0.05743351 0.06087787 0.11217574
0.12493581 -0.00094993506 -0.0029057814 0.03898301 -0.004400586 0.10209508 0.06657566 0.1043693
-0.06559534 -0.06868636 0.04896658 0.09353038 -0.031054761 0.01628653 0.04610543 0.1047219
-0.016621133 -0.076484874 -0.012307227 -0.08761322 0.00433878 0.08245696 -0.050337255 0.12177427
0.062376652 -0.097076304 0.039619625 -0.08730299 0.057068422 0.120706126 -0.10530672 0.014778537
-0.07677196 0.04913987 0.044969104 -0.08737042 -0.06204972 -0.019705787 -0.01344076 0.13089965
-0.07251964 -0.0020578036 0.05676607 -0.06552629 -0.011244378 -0.05993211 -0.11640086 -0.113925725
0.12745184 -0.044655886 -0.030872053 0.10956735 0.1318688 -0.026144072 0.14975798 -0.12004698
0.08542834 -0.12440964 0.025284883 0.05855815 -0.07576973 -0.0626503 0.0040262076 0.00397599
-0.06398086 0.011792476 0.04119859 -0.103771865 -0.036831543 -0.034610827 -0.077888474 -0.05196877
0.095505215 -0.023375085 -0.0037539478 -0.000489448 0.10527156 -0.10407208 0.068897806 0.023782734
0.06519156 -0.09848168 0.13326724 -0.08464337 -0.08874302 0.076934405 0.0032594083 -0.080057226
-0.08643975 -0.09746556 -0.058953278 0.004190402 0.13554132 0.11713786 0.12977085 -0.09955294
-0.06426986 -0.0033348263 0.08389338 -0.08107283 0.04561784 -0.04655743 -0.023481775 -0.12922566
0.074947536 -0.101981714 -0.045330334 0.04249737 -0.10664689 -0.030481335 0.070524916 -0.041963145
0.13026133 -0.056763884 -0.098495744 0.029430225 -0.012756661 0.032959428 0.116350435 0.031269066
-0.019495936 0.038357645 -0.025913332 -0.11684898 0.061690748 0.112079546 -0.037279673 0.016619729
0.07501405 -0.043443162 0.11927701 0.1161597 -0.10753159 0.09699204 -0.0022668887 -0.04563504
0.10570618 -0.10633018 0.09572317 0.095707074 -0.0010293477 0.082581036 -0.07018208 -0.09549765
0.010902056 -0.06657733 -0.042128544 0.056528237 -0.068687856 -0.038361095 -0.07322883 -0.12806123
0.11089375 0.0073942738 0.13881974 -0.048425447 0.15032329 -0.059367042 -0.022036334 0.030589271
0.07353256 -0.06382796 0.03724912 -0.03414956 -0.07333128 0.09090673 0.027143305 -0.050813746
-0.06799199 0.11689977 -0.094219886 0.022210868 0.010633035 -0.038404144 0.07429285 0.022615176
-0.09305221 -0.07236309 -0.002510468 0.088915795 0.020038998 -0.05764044 -0.097366445 0.017169207
0.010336105 -0.081621595 -0.048775848 0.061112117 -0.0053956206 0.05858061 0.021303894 -0.023427973
0.052135967 0.026399624 0.093722865 -0.08901762 0.11272759 -0.07322958 0.04898217 -0.084260136
0.021104632 0.06886679 -0.11754428 -0.08646141 0.06139195 -0.013762591 0.0716195 -0.008419959
0.039013892 0.09205933 -0.04270798 -0.018075 0.010697261 0.06419386 -0.087674044 -0.11294785
-0.114701375 -0.06402237 -0.0840215 -0.0666595 0.017332872 -0.11393585 -0.11174879 -0.052839052

l2.bias f4 [64]
00000000: 7157 63bd a5c6 2b3d b0ca 38bd ef8d f0bd
00000010: 96ff cd3b 8cb4 ec3c 151e a53c 7d8a fcbd
00000020: b68d 1f3c 72da 943c 51d7 513d 3e27 b9bd
00000030: 38eb 9dbc abd7 a43c a69d e73b 16b0 52bc
00000040: 7e77 023e 0930 1a3d d5ac c9bd 6bad e93b
00000050: 5c9a e33d 2f2c 1f3e dabf 2bbd 388b 8f3d
00000060: bab0 07bd 1c82 46bd 2d24 81bd 8e65 b7bd
00000070: b274 a83d 89f9 903c be87 1b3c 13f9 96bb
00000080: e110 533d 70ef 6ebd c860 23bc da4e 6cbd
00000090: 91dc a3bd b629 74bd ea1b e33d 3b5a d53c
000000a0: 4dcd a0bd 983b 273d 9f4b e83d c4fd a5bd
000000b0: 9efd 383c e45e 693d 3e57 d93d 8d59 903c
000000c0: 1e02 b8bb ac75 b6bd 51bf eebd 79ce d7bc
000000d0: ef38 5e3c 29eb 74bd 745d 723c d8a4 aa3d
000000e0: cd79 c73d b27d f33d 6f25 c33d 3c39 803d
000000f0: b77a 9abd becd c43c f248 b6bd 771d c0bc
-0.055503312 0.04193749 -0.045115173 -0.11745822 0.0062865717 0.028894685 0.020155946 -0.12331102
0.009738376 0.01817057 0.051230732 -0.09040688 -0.0192772 0.02012237 0.0070683537 -0.012859365
0.12740895 0.037643466 -0.09847418 0.0071312687 0.11113426 0.15544198 -0.04193101 0.07008976
-0.033127524 -0.048463926 -0.06305728 -0.08954917 0.08225383 0.017697113 0.009492813 -0.0046073287
0.05152977 -0.058333814 -0.009971805 -0.057692386 -0.08001054 -0.05961009 0.110893086 0.026044002
-0.07851658 0.040828317 0.113425486 -0.081050426 0.011290936 0.05697526 0.10612343 0.017620826
-0.0056154868 -0.08909163 -0.116575845 -0.026343571 0.013563379 -0.05979458 0.014792789 0.08332223
0.097400285 0.11889209 0.09528624 0.062609166 -0.07542937 0.024023887 -0.08900632 -0.02345155

l3.weight f4 [10, 64]
00000000: 5147 febb 6c9b 6b3e ae4a c73d d957 853d
00000010: c4fc 0c3e 2454 c03d e70a dfbd cc34 50be
00000020: b81a a83d f738 edbd dd3f 0abe 5ef6 823e
00000030: 8c9e 1dbe 59e6 f53d a80d 09be a662 e5bd
00000040: c87f 873e f21f 01be 0661 b03d fdae d3bd
00000050: 2f2b f6bd c5eb 80be 3301 08bd 71bb 30be
00000060: 5d79 b93c c618 1b3e 04d8 30bd a29c 00bd
00000070: a7bf 7bbe d998 18be 96f8 40be bfca 7f3e
00000080: b0c3 a1bd b2b4 95bd 8799 19bd c6af 0d3e
00000090: ef3d 4a3e 4154 5c3e 8d96 0e3d 1336 0c3e
000000a0: a4f5 40be 0c5a 5a3c 0ac1 a0bd 20e2 85bb
000000b0: c22c 2a3e 0cef 1fbe 70da b03c a906 febd
000000c0: 761d 853d 4f92 2d3e a7d9 873c c243 5b3e
000000d0: 7fb9 d03d fe84 243e 8394 19be 6305 ffbd
000000e0: 072c b13d 8d6b 2e3e 3cba 2f3b 1399 31bd
000000f0: d4c8 443d 2ab7 b2bb 6237 27be 0e50 eabd
00000100: 7f78 38be 7038 4bbd 3926 973e f024 943e
00000110: bf5a a03d cc3d 443b 87d9 9a3d d4c1 4cbc
00000120: 573d 55bc f8e7 06bd c396 5f3d c94c 20bd
00000130: 3997 303d 92cc 2b3c 6272 603d e276 5b3e
00000140: 146b 51be 3ce8 89bd b7f9 4abd 470f 913e
00000150: 159b 4d3a a354 813e aad1 943e 9c66 563c
00000160: 1e7e 23be 020f 32be c518 4b3c 47c2 a3bd
00000170: 6346 4abe ce7d d93d 5271 0abe a92f 05be
00000180: c20e 80be 7ce0 b23d 3be5 113c 182f 34be
00000190: 3c9f cebd 2e22 15be f72b 81be efc7 813a
000001a0: 422d 14bd 2259 90bc 6ab1 d23d e7ec fbbc
000001b0: 2c11 96be 90cd c93b 0b69 9f3c 11c8 4fbd
000001c0: 66ee 0abd 5378 37be c3f4 a0bd 9208 24be
000001d0: 6409 413e 8242 cfbc 493e c33d ea1b 953c
000001e0: 14a7 9ebb 4d72 babd 3147 4b3e 169d fdbd
000001f0: e557 923e 0b20 5dbe 30e5 d5bc c857 383e
00000200: f436 d9bd 8c6f bdbd 8ba0 6dbd 318e f13d
00000210: 1cb7 f4bd fd71 e0bc 897e d73d 8a60 a3bd
00000220: fdc6 85bc 7f20 be3d c805 dd3c 4b28 413d
00000230: ca1a 523e 30e9 14be ce05 873d c192 943d
00000240: 4d50 0a3e f481 06be 2779 c9bd 0e0a 28be
00000250: 93a7 37be e0d7 043e f2e4 f53d 8852 a73d
00000260: 611c 16be 8d37 2cbe b1f4 abbd dbce dabd
00000270: 561a 4b3e 0e6b 233d cee5 e0bc 47ac 22be
00000280: e473 48be 567c 00be 1df8 463e d865 7b3c
00000290: 3c0e fa3c bdcf f53c d4c2 1abe eaf5 a23e
000002a0: 3e7f 4a3c 2bd3 96bc 538d c6bd 45d6 c13d
000002b0: fa87 683e 802e 5e3e 2361 4fbe 5de9 293e
000002c0: 68ee 51be 27a6 fe3c e07d 383c 9485 0abe
000002d0: 84b8 31bd 289d 0cbc eafc 0d3e 3c49 453d
000002e0: 5ec5 643e c834 783e a392 02be 946f 2abd
000002f0: 57a2 2cbe 3139 ea3d 9727 dfbd cb62 c3bc
00000300: 3e13 28be bd03 ab3d 184e 5c3d d989 153b
00000310: ffc7 4dbc 378e 93bd 7c76 28be 19b5 8a3e
00000320: 8c28 9d3d a81e 793e 3d60 933e 6b96 e9bd
00000330: 4b1b df3d ab17 08be 29d8 7f3d 9642 e33c
00000340: 0fb7 403e 0d60 0d3e ddc8 ba3d 9719 39be
00000350: f9ef 0bbe 4edd dfbd ec8e bb3d 6b06 323e
00000360: 25d1 c0bc 397c a6bd 9843 433e bd4b c2bc
00000370: 2e09 7d3d ade3 d6bd 1582 31be e5a7 613d
00000380: 3d35 4abe d04b 17be 5b55 b8bd 8a4e 9bbd
00000390: 1045 023e 1a83 c83d dd98 1bbe d274 e1bd
000003a0: c95f 79bc b277 2fbe 8c3f edbd 9c3e 093e
000003b0: 5172 65be f837 2d3e a321 05bd e994 fd3d
000003c0: 735c 873d 5e73 1a3d 4c6a 443e 759a 54be
000003d0: 2eea a1bd 38a0 abbd f404 3fbe 00af e3bd
000003e0: 685a 0c3e ce64 9f3d 9ea5 f7bd d33c 4f3e
000003f0: 58f0 b83d 1101 803d da4b 3c3e edb7 1a3e
-0.0077599664 0.23008507 0.09731041 0.06510896 0.13768297 0.093910486 -0.10890751 -0.2033264
0.08208221 -0.11583131 -0.13500924 0.25578588 -0.15392512 0.12006826 -0.13384116 -0.11200456
0.26464677 -0.12609842 0.08612256 -0.10336111 -0.12019955 -0.25179878 -0.03320427 -0.17259003
0.022640878 0.15146169 -0.04317476 -0.031399377 -0.24584828 -0.14902057 -0.18844828 0.24979685
-0.078986526 -0.073098555 -0.03749993 0.13836583 0.19750188 0.21516515 0.034811545 0.13692503
-0.18843704 0.013327133 -0.07849319 -0.004085794 0.16618636 -0.15618533 0.021588534 -0.12403614
0.0649976 0.16950344 0.016583277 0.21412566 0.101916306 0.16066357 -0.14998059 -0.12452199
0.08650976 0.17033215 0.0026813885 -0.043358874 0.048043087 -0.0054539638 -0.1632972 -0.114410505
-0.18014716 -0.04961437 0.2952135 0.2893443 0.078298084 0.002994406 0.07561021 -0.012497384
-0.013015113 -0.032936066 0.054587137 -0.039135728 0.043112967 0.010485785 0.054796584 0.21432069
-0.20451003 -0.06733748 -0.049554553 0.28331968 0.00078432384 0.25259885 0.2906621 0.013085987
-0.15966079 -0.17388538 0.012396042 -0.0799604 -0.19753413 0.106196985 -0.13519791 -0.13006462
-0.2501126 0.08734223 0.00890475 -0.1759609 -0.10088965 -0.1456382 -0.25228855 0.0009901504
-0.036175974 -0.017620627 0.10287745 -0.030752612 -0.29309976 0.006158538 0.019459268 -0.050727908
-0.03391876 -0.17916994 -0.078591846 -0.16018894 0.18851238 -0.025300268 0.09533364 0.018201787
-0.0048416946 -0.091038324 0.19851376 -0.123834774 0.28582683 -0.21594255 -0.026110262 0.18002236
-0.106061846 -0.092497915 -0.058014434 0.11794699 -0.11948988 -0.027398104 0.105221815 -0.07977398
-0.016330237 0.09283542 0.026980296 0.047157567 0.20518032 -0.14542079 0.06592904 0.072545536
0.13507195 -0.1313551 -0.09837561 -0.16410086 -0.17935018 0.12972975 0.120065585 0.081700385
-0.14659263 -0.16818066 -0.083962806 -0.10683986 0.19834265 0.039897017 -0.02745333 -0.15886031
-0.19575459 -0.1254743 0.19430585 0.015344106 0.030524366 0.030006284 -0.15113384 0.31828243
0.012359438 -0.01841124 -0.09694924 0.09464697 0.22708121 0.21697426 -0.20251898 0.16592927
-0.20501101 0.031085087 0.01126048 -0.13527519 -0.04338886 -0.008582391 0.1386601 0.048165545
0.22340915 0.24238884 -0.1275125 -0.041610315 -0.16858803 0.1143669 -0.10896223 -0.02385082
-0.1641359 0.083503224 0.053785414 0.002281776 -0.01255989 -0.0720486 -0.16451448 0.27091292
0.07673749 0.243281 0.2878436 -0.11405643 0.108938776 -0.13290279 0.062462006 0.027741712
0.18819831 0.13806172 0.09120343 -0.18076168 -0.13665761 -0.109308824 0.091581196 0.17385261
-0.023537228 -0.08129162 0.19068754 -0.023717755 0.061776333 -0.104926445 -0.17334779 0.055091757
-0.19746871 -0.14775014 -0.09000655 -0.075833395 0.12721658 0.09790631 -0.15195031 -0.1100861
-0.015220591 -0.17135504 -0.11584386 0.1340279 -0.2240689 0.16915882 -0.03250278 0.12381918
0.0660943 0.03770768 0.19181174 -0.20762046 -0.07905994 -0.08380169 -0.18654233 -0.11117363
0.13706362 0.07782899 -0.12092136 0.20238046 0.09030217 0.062502034 0.1838831 0.15109225

l3.bias f4 [10]
00000000: 8a52 09be 26f0 243e 0db6 18bc f123 9a3d
00000010: ac11 413d acf3 ab3d 8b2e 673d 634c e4bd
00000020: adf0 1a3d 70f7 5c3d
-0.13410392 0.16107234 -0.009320748 0.075263865 0.047135994 0.08396086 0.05644087 -0.11147382
0.037827183 0.053946912
