lightning_logs/version_0/checkpoints/epoch=2-step=5625.ckpt (torch, 225043 bytes, 6 tensors)

l1.weight f4 [64, 784]
-0.019835362 -0.0021371432 -0.024557728 0.025961597 -0.023303876 -0.002750896 0.0019268319 0.02916367
-0.03524835 -0.03246182 0.0017390363 -0.018959422 -0.030191055 -0.011594595 0.0009840503 0.03513922
0.022721972 0.026272476 -0.022656003 0.033123005 0.010050021 0.0077692233 0.016635016 0.008805476
-0.026426325 0.035418253 -0.008708417 -0.015307581 -0.017653823 0.023642931 0.026733432 -0.022764692
-0.012757117 0.01924707 0.013767936 -0.029994566 -0.025570633 -0.027116392 0.019455047 0.0124386735
0.019433092 0.012938951 -0.0023565532 0.029505342 -0.007938414 0.002059636 -0.0029770094 0.02505417
-0.0031033382 -0.004954445 -0.010394617 -0.033234913 0.021426097 -0.017676814 0.016613275 0.01541923
-0.0007109903 0.012979541 0.010224855 -0.0027651482 0.0066052484 0.018940287 0.023255814 0.0005135325
-0.014795146 -0.03233565 -0.008887306 0.02305175 0.021422502 0.00069294206 0.011245721 0.015901173
0.0013470991 -0.026887154 0.017884796 0.012352968 0.00067145046 0.026928151 0.008761594 -0.023567773
-0.005567574 -0.031030057 -0.010725958 0.009916998 -0.005875822 0.0045274235 0.009157806 0.03511625
0.026695408 -0.006982503 -0.0074411444 -0.003911279 0.029216526 -0.01679416 -0.00041016238 0.0073294532
-0.0029885604 -0.00995336 -0.024935877 -0.01323341 -0.041373257 -0.044245224 0.003593268 -0.0074267364
-0.023624925 0.02415313 0.016325897 -0.028811185 -0.016769368 0.015616545 -0.029105024 0.01345155
-0.0038067363 0.02960923 0.03352825 0.01568058 0.010173382 -0.008771842 0.015185233 -0.022076428
0.011087803 0.001976458 0.0058428603 0.010830392 0.01673841 -0.0024209914 -0.016632874 -0.049613502
0.0032636425 -0.016929701 -0.026190363 0.0057803234 0.027888842 0.00013466847 -0.034118246 0.029737912
-0.031381894 0.016876314 0.019703975 0.019994255 -0.0045384727 0.008981481 -0.02331132 0.016169524
0.0325772 -0.029170932 -0.009596498 0.018627185 -0.0002822586 -0.030692775 -0.029967165 0.003004809
0.016592007 -0.011689111 0.0036001927 0.02312646 -0.011718977 0.035889886 0.0027307211 0.033331998
0.034667823 0.031859644 -0.018412221 -0.01027934 0.025368763 0.027970746 0.033894118 0.0151790995
-0.0024060793 0.018233221 -0.03283729 -0.03379029 -0.017678691 -0.024729693 -0.008862242 0.02215151
-0.04153946 0.02311482 -0.0064873397 -0.009208247 -0.0053544124 0.05706838 0.027848281 0.04547314
0.02452846 0.06449971 0.03656892 0.010966863 0.02997421 0.006574 0.041613873 0.025558565
-0.0147274835 0.001630915 -0.010275203 0.0072622863 0.008721405 0.007333385 -0.009780864 -0.01297554
0.021946428 -0.032626737 0.015816286 -0.022158138 -0.0085499585 0.0007510979 0.00040486222 -0.002941627
0.04635729 0.037273616 0.08335657 0.063877806 0.074327655 0.06829272 0.06328823 0.03305895
0.02578109 0.04543353 0.016286558 -0.017725032 0.04512135 0.029869664 -0.0019267646 0.011109803
-0.0041484646 0.015934324 -0.005155934 -0.0111938855 -0.0015989947 -0.020780226 -0.011326604 -0.022059798
0.026988132 0.008922149 0.024680031 0.06384216 0.04635848 0.025777522 0.0474611 0.012756414
0.044754043 0.0049444134 0.007254305 -0.0003365339 0.036696203 0.031949 0.008485366 -0.015296434
0.01065939 0.019081302 -0.024977634 -0.025672674 0.02234617 0.0019100263 0.017808253 -0.017093392
00000000: c57d a2bc 500f 0cbb 4a2d c9bc 6aad d43c
00000010: c5e7 bebc 6048 34bb c08d fc3a a6e8 ee3c
00000020: 9360 10bd aff6 04bd 60f0 e33a ca50 9bbc
00000030: 3b53 f7bc 42f7 3dbc 40fb 803a 25ee 0f3d
00000040: 6e23 ba3c 6039 d73c 1599 b9bc fdab 073d
00000050: d8a8 243c f894 fe3b 2846 883c d844 103c
00000060: 057c d8bc bb12 113d c0ad 0ebc a6cc 7abc
00000070: c09e 90bc d2ae c13c 1200 db3c 057d babc
00000080: 3a03 51bc 08ac 9d3c e992 613c 2ab7 f5bc
00000090: 8179 d1bc 3223 debc 3160 9f3c 94cb 4b3c
000000a0: 2632 9f3c e5fd 533c 6770 1abb 30b5 f13c
000000b0: 1f10 02bc f5fa 063b ee19 43bb 673e cd3c
000000c0: 6061 4bbb e658 a2bb 2f4e 2abc 5521 08bd
000000d0: c885 af3c f7ce 90bc 9018 883c f0a0 7c3c
000000e0: c061 3aba 24a8 543c 2686 273c 7d37 35bb
000000f0: d770 d83b a928 9b3c fa82 be3c 959e 063a
00000100: 5767 72bc 6372 04bd 109c 11bc 06d7 bc3c
00000110: 3e7e af3c 8ea6 353a f93f 383c 2d43 823c
00000120: 2591 b03a 7342 dcbc 2383 923c 1a64 4a3c
00000130: 4704 303a 6d98 dc3c ca8c 0f3c 3411 c1bc
00000140: 3270 b6bb bf32 febc eebb 2fbc e87a 223c
00000150: f889 c0bb c85a 943b 9f0a 163c 0fd6 0f3d
00000160: 54b0 da3c 7bcd e4bb d8d4 f3bb 302a 80bb
00000170: 7f57 ef3c e893 89bc 100b d7b9 e92b f03b
00000180: b9db 43bb 6b13 23bc 5346 ccbc f2d0 58bc
00000190: 0177 29bd 7b3a 35bd 097d 6b3b fb5b f3bb
000001a0: 0f89 c1bc c9dc c53c e3bd 853c 6f05 ecbc
000001b0: ea5f 89bc 8adc 7f3c a96d eebc e463 5c3c
000001c0: 707a 79bb 0e8f f23c eb54 093d 8f74 803c
000001d0: 42ae 263c c6b7 0fbc 7ccb 783c a0d9 b4bc
000001e0: 9ea9 353c 7687 013b 7775 bf3b f571 313c
000001f0: fd1e 893c 7fa9 1ebb aa41 88bc 8737 4bbd
00000200: d6e2 553b 28b0 8abc 2c8d d6bc de68 bd3b
00000210: 2477 e43c cb35 0d39 93bf 0bbd ec9c f33c
00000220: 4d8a 00bd 3240 8a3c 3b6a a13c feca a33c
00000230: 78b7 94bb 1027 133c 62f7 bebc f375 843c
00000240: ac6f 053d e1f7 eebc a13a 1dbc 0a98 983c
00000250: 1cfc 93b9 6a6f fbbc b37d f5bc 54ec 443b
00000260: f6eb 873c af83 3fbc 36f1 6b3b b473 bd3c
00000270: f400 40bc 4601 133d e6f5 323b 2287 083d
00000280: d9ff 0d3d 427f 023d 3ad5 96bc ad6a 28bc
00000290: 27d2 cf3c e822 e53c 8fd4 0a3d c2b1 783c
000002a0: 50af 1dbb d65d 953c 6580 06bd b067 0abd
000002b0: e7d2 90bc ed95 cabc f032 11bc 1577 b53c
000002c0: 4825 2abd 4a5b bd3c c093 d4bb 30de 16bc
000002d0: 1174 afbb 89c0 693d 1422 e43c 0b42 3a3d
000002e0: e9ef c83c 6d18 843d 4bc9 153d 5bae 333c
000002f0: 798c f53c b66a d73b 4f73 2a3d 3260 d13c
00000300: 8b4b 71bc 6dc4 d53a 5359 28bc 79f8 ed3b
00000310: 39e4 0e3c e44c f03b eb3f 20bc 5c97 54bc
00000320: ffc8 b33c 9da3 05bd 2891 813c fc84 b5bc
00000330: 2015 0cbc 54e5 443a b043 d439 50c8 40bb
00000340: 24e1 3d3d 38ac 183d d9b6 aa3d 5ed2 823d
00000350: 1939 983d 0edd 8b3d 429d 813d d268 073d
00000360: dd32 d33c 8218 3a3d 636b 853c 1634 91bc
00000370: 2ad1 383d 3ab1 f43c 7e8b fcba e405 363c
00000380: d8ef 87bb b388 823c 1cf3 a8bb 8f66 37bc
00000390: 5c95 d1ba 4b3b aabc 3893 39bc c0b6 b4bc
000003a0: 3716 dd3c 352e 123c c72d ca3c aebf 823d
000003b0: 64e2 3d3d 622b d33c 9266 423d 4700 513c
000003c0: 0450 373d bf04 a23b 85b5 ed3b d170 b0b9
000003d0: c24e 163d f4dc 023d 3406 0b3c e59d 7abc
000003e0: b9a4 2e3c 6450 9c3c e59d ccbc 804f d2bc
000003f0: 510f b73c d959 fa3a 9de2 913c 7107 8cbc

l1.bias f4 [64]
0.02862495 0.03301382 0.009591952 0.027790777 0.03764445 -0.03780356 0.026656112 0.003950461
0.06199201 -0.008391953 -0.011488828 0.01629732 0.016874854 -0.031089263 0.034695785 -0.0017446332
-0.0061276937 0.048767015 -0.004054687 0.023668524 0.028489353 0.0033871925 0.06540303 0.021631926
0.018566385 0.0009773531 -0.016229942 0.023543071 0.0052370722 0.0034415137 -0.023886599 -0.010819979
0.03602082 0.022388855 -0.022066925 -0.020409819 0.07362208 -0.01682375 -0.0026877304 -0.034490872
-0.027030202 0.00010404983 0.046726227 0.04567288 0.0006286224 0.046318255 -0.004026678 -0.020115873
0.023407256 -0.0042188424 0.020600714 -0.031434383 0.00053318933 0.029935136 0.025535643 -0.005234401
-0.00808389 0.03208361 0.0019358263 0.030175453 0.00847923 -0.0083305705 0.030328097 0.04876059
00000000: df7e ea3c 8039 073d 9027 1d3c 7ca9 e33c
00000010: 1131 1a3d e8d7 1abd eb5d da3c de72 813b
00000020: 55eb 7d3d 677e 09bc a33b 3cbc f581 853c
00000030: 223d 8a3c e9ae febc 2b1d 0e3d 2dac e4ba
00000040: d2ca c8bb ecbf 473d 2edd 84bb 7ee4 c13c
00000050: 8162 e93c a9fb 5d3b 06f2 853d 7035 b13c
00000060: 8818 983c 871a 803a a8f4 84bc 66dd c03c
00000070: bf9b ab3b 058b 613b d4ad c3bc 4846 31bc
00000080: 918a 133d d568 b73c b2c5 b4bc 7e32 a7bc
00000090: 2cc7 963d f6d1 89bc a224 30bb 4d46 0dbd
000000a0: 716e ddbc 5435 da38 0064 3f3d 7c13 3b3d
000000b0: 23ca 243a 36b8 3d3d 39f2 83bb 0bca a4bc
000000c0: 93c0 bf3c 373e 8abb d4c2 a83c 57c1 00bd
000000d0: bbc5 0b3a 883a f53c 2030 d13c 5785 abbb
000000e0: 4b72 04bc 1a6a 033d 8dbb fd3a 8332 f73c
000000f0: 78ec 0a3c f27c 08bc a172 f83c 2fb9 473d

l2.weight f4 [64, 64]
0.13681383 0.0024232112 0.0041929414 -0.05940512 0.08598292 -0.1147335 -0.06430327 0.11040066
0.034697056 -0.05094595 0.10699551 0.010786878 -0.08783227 -0.0011595674 -0.110712774 -0.017954167
0.031183112 -0.06483444 0.037390064 0.023863956 -0.11191508 0.07985343 -0.07293085 0.054567546
0.0066691153 0.09912637 -0.045867696 -0.036596246 0.075685255 -0.033063784 -0.0802681 0.041876692
0.022642 0.04835963 -0.08475156 -0.09155396 0.12428085 -0.038518406 -0.09064555 -0.106686
-0.09072207 0.021426588 0.025014246 0.05379431 -0.10060051 -0.10853815 -0.017301418 -0.08981909
-0.03336558 -0.010749229 -0.06544733 -0.07519208 0.053862806 0.002743629 -0.051400658 -0.024769457
0.025023742 -0.08058979 0.019417059 0.061745718 -0.08533948 0.105838336 0.0664669 0.10564574
-0.09534149 0.07744771 0.07193798 -0.05903989 -0.0696191 -0.036734592 -0.07307865 0.102359615
0.15387414 0.105227396 0.093005985 -0.06339536 -0.11747692 0.09849608 -0.06921924 0.05289703
0.019367026 0.12025979 0.08360902 -0.037745483 0.006524131 0.07312913 0.10895256 0.025768029
0.101485014 -0.025930343 -0.019394623 -0.022001365 -0.06678689 -0.13600892 -0.021087112 0.07570862
0.11405406 -0.093930654 -0.049364686 0.09814463 -0.10485736 0.03747502 0.07123804 0.04954754
0.12073329 -0.009185913 -0.031434637 0.08935616 0.002265535 -0.006819777 0.07737673 0.023318317
-0.08801959 0.032625504 -0.073745035 0.0972537 -0.014636115 0.03555899 -0.006374764 -0.0048140073
0.049533784 -0.033144467 0.06520445 -0.073185444 0.07993168 -0.077808835 0.06613156 0.10074187
0.061066184 -0.07022397 0.014789506 -0.00055895915 0.0336373 0.10969245 -0.09108802 0.11285509
0.090533584 0.0841402 -0.08474278 -0.043766443 0.047400907 -0.10761933 -0.054156467 0.038423825
0.015740156 -0.08143781 -0.079072244 -0.11891294 -0.12362447 0.004222731 0.019543825 -0.07610486
0.1345354 0.0182197 -0.108250655 0.079312 -0.12876238 0.01483913 -0.1196407 -0.047305666
0.1101022 -0.0042885314 0.047657512 0.06885316 0.061179064 0.061335362 -0.021035146 -0.048555296
0.11180492 -0.045787778 -0.075468644 0.08229446 0.05144065 0.10469207 -0.08963028 -0.120124206
0.060534496 -0.12035824 -0.11055249 0.004496484 0.017958073 0.103314124 0.022548955 -0.034692675
0.127667 0.05034483 0.03665813 0.050611716 -0.11109082 -0.020822916 -0.010975017 -0.021097694
0.007318338 -0.054997083 0.10140923 0.083796956 -0.0832051 -0.07303349 -0.08609178 0.012155471
-0.068768136 0.06741137 0.011956334 0.10165171 -0.11128932 0.013083491 0.0792821 -0.03420977
0.024994973 0.100389615 -0.03234645 0.040435627 0.1034697 0.07762606 0.07974132 -0.09399278
-0.1262622 0.05060872 0.10685225 -0.034646854 0.048440747 -0.039143298 -0.0051987176 -0.022151371
0.02131225 0.07669647 -0.004559244 0.045274682 0.07278721 -0.11598072 0.118955806 0.016904326
0.06259223 -0.103293456 0.1101603 -0.015822671 0.09891507 0.03409107 0.108738236 -0.011914458
0.052105557 0.008971709 0.048205275 -0.088156946 0.08860321 -0.07798143 -0.068298526 0.07075612
0.018584998 -0.059065 0.04057167 -0.04111461 -0.08524241 0.052299097 -0.08704373 0.017835788
00000000: ed18 0c3e bdce 1e3b f164 893b c852 73bd
00000010: d017 b03d 66f9 eabd 6fb1 83bd be19 e23d
00000020: 801e 0e3d b3ac 50bd 7620 db3d 72bb 303c
00000030: 68e1 b3bd a0fc 97ba 61bd e2bd 9e14 93bc
00000040: ba73 ff3c ebc7 84bd 5326 193d 587e c33c
00000050: bc33 e5bd 328a a33d c55c 95bd 3882 5f3d
00000060: 9888 da3b c402 cb3d c4df 3bbd f2e5 15bd
00000070: df00 9b3d e46d 07bd 9a63 a4bd e586 2b3d
00000080: b77b b93c bf14 463d 3a92 adbd a580 bbbd
00000090: f586 fe3d 7ac5 1dbd 60a4 b9bd 317e dabd
000000a0: 7ecc b9bd d086 af3c adea cc3c 6c57 5c3d
000000b0: a407 cebd 4049 debd b4bb 8dbc 12f3 b7bd
000000c0: 59aa 08bd 891d 30bc 4009 86bd 4efe 99bd
000000d0: 3f9f 5c3d 75ce 333b 7f89 52bd 51e9 cabc
000000e0: 97fe cc3c 430c a5bd 8610 9f3c 14e9 7c3d
000000f0: 77c6 aebd c5c1 d83d cc1f 883d cb5c d83d
00000100: 6642 c3bd e89c 9e3d 3854 933d d0d3 71bd
00000110: 7594 8ebd 0377 16bd 42aa 95bd eba1 d13d
00000120: 2f91 1d3e 7681 d73d ec79 be3d 6dd5 81bd
00000130: bd97 f0bd 50b8 c93d d1c2 8dbd 8eaa 583d
00000140: 99a7 9e3c c44a f63d 353b ab3d 029b 1abd
00000150: 61c8 d53b bac4 953d 8522 df3d 7917 d33c
00000160: 60d7 cf3d df6b d4bc 79e1 9ebc 353c b4bc
00000170: 91c7 88bd ec45 0bbe e1be acbc 1f0d 9b3d
00000180: 2d95 e93d b75e c0bd a032 4abd 0d00 c93d
00000190: 75bf d6bd 687f 193d 40e5 913d 5cf2 4a3d
000001a0: 0443 f73d 8380 16bc 9bc1 00bd 5d00 b73d
000001b0: 5f79 143b 7078 dfbb b177 9e3d 0e06 bf3c
000001c0: 9d43 b4bd 52a2 053d a307 97bd f32c c73d
000001d0: 51cc 6fbc 4ea6 113d 65e3 d0bb d2be 9dbb
000001e0: f0e3 4a3d 7ec2 07bd e989 853d 40e2 95bd
000001f0: 38b3 a33d 3d5a 9fbd fc6f 873d c151 ce3d
00000200: 8920 7a3d 96d1 8fbd af4f 723c 1d87 12ba
00000210: 44c7 093d 6fa6 e03d 5b8c babd 9220 e73d
00000220: ac69 b93d b251 ac3d 9f8d adbd 7144 33bd
00000230: 7427 423d 8667 dcbd 2cd3 5dbd 4d62 1d3d
00000240: 80f1 803c dec8 a6bd a1f0 a1bd a188 f3bd
00000250: d32e fdbd d65e 8a3b 5f1a a03c dddc 9bbd
00000260: a6c3 093e 7b41 953c 85b2 ddbd 546e a23d
00000270: 49da 03be d31f 733c 2f06 f5bd 96c3 41bd
00000280: 437d e13d cf86 8cbb 8634 433d e302 8d3d
00000290: e696 7a3d ca3a 7b3d e651 acbc ebe1 46bd
000002a0: faf9 e43d f78b 3bbd 4e8f 9abd ff89 a83d
000002b0: 6eb3 523d cc68 d63d 1590 b7bd ae03 f6bd
000002c0: 05f3 773d 627e f6bd 5869 e2bd 3e57 933b
000002d0: cf1c 933c 5b96 d33d 96b8 b83c e819 0ebd
000002e0: 23bb 023e 6136 4e3d d626 163d 3b4e 4f3d
000002f0: 9583 e3bd d294 aabc 8fd0 33bc 12d5 acbc
00000300: abce ef3b 9f44 61bd a4af cf3d bd9d ab3d
00000310: 6f67 aabd 9592 95bd e350 b0bd be27 473c
00000320: 4fd6 8cbd f90e 8a3d 80e4 433c c62e d03d
00000330: a8eb e3bd 235c 563c a75e a23d 8b1f 0cbd
00000340: 42c2 cc3c 1299 cd3d b67d 04bd d49f 253d
00000350: ece7 d33d 69fa 9e3d 6b4f a33d 497f c0bd
00000360: e14a 01be 174b 4f3d 5ad5 da3d dce9 0dbd
00000370: ce69 463d b954 20bd 015a aabb cb76 b5bc
00000380: 0797 ae3c 0a13 9d3d b665 95bb f271 393d
00000390: 7611 953d 4d87 edbd 1a9f f33d f17a 8a3c
000003a0: 5b30 803d 858b d3bd b99b e13d 8c9e 81bc
000003b0: fc93 ca3d 14a3 0b3d 27b2 de3d dc34 43bc
000003c0: a36c 553d 13fe 123c e572 453d a18b b4bd
000003d0: 9a75 b53d bab4 9fbd 19e0 8bbd 96e8 903d
000003e0: 913f 983c 24ee 71bd 7b2e 263d cb67 28bd
000003f0: 9393 aebd 9437 563d fc43 b2bd 5c1c 923c

l2.bias f4 [64]
0.07990004 0.078860484 0.05727557 -0.11032888 0.113771126 0.06271942 -0.09149001 -0.113564126
-0.049866118 0.050276667 -0.0028826385 -0.034527186 0.102222465 0.0043101385 0.007259542 -0.038828507
0.0032260458 -0.117293395 -0.13112605 -0.028464254 -0.11221104 -0.077691585 -0.020020893 -0.039393045
0.12375086 -0.120016515 -0.05938242 -0.00022022318 0.057740007 -0.06332154 0.084575586 -0.09586764
-0.027590495 -0.07304003 0.07993943 0.060450416 0.16840026 -0.10086648 0.10647156 -0.07489634
-0.043407176 -0.018879686 0.09201609 0.0097025 0.06216093 0.12357333 -0.11753598 0.09615438
0.0014503797 0.06685352 -0.035104994 0.08059496 0.07087535 -0.006719428 0.010370582 -0.11282006
0.1077827 -0.08421164 -0.08703741 0.005660269 -0.0072562653 0.037186567 0.07280691 -0.07685214
00000000: a2a2 a33d 9b81 a13d ca99 6a3d 1cf4 e1bd
00000010: d600 e93d 0a73 803d 1d5f bbbd 4f94 e8bd
00000020: 6a40 4cbd e8ee 4d3d a6ea 3cbb 616c 0dbd
00000030: 035a d13d 103c 8d3b 74e1 ed3b a40a 1fbd
00000040: 116c 533b 8537 f0bd e845 06be de2d e9bc
00000050: e7ce e5bd c41c 9fbd db02 a4bc 9a5a 21bd
00000060: 1771 fd3d 38cb f5bd fb3a 73bd b6eb 66b9
00000070: c980 6c3d b9ae 81bd f735 ad3d 4156 c4bd
00000080: 7605 e2bc 0396 95bd 49b7 a33d db9a 773d
00000090: 1e71 2c3e 1693 cebd c30d da3d 4163 99bd
000000a0: b9cb 31bd 92a9 9abc ef72 bc3d 3cf7 1e3c
000000b0: 769c 7e3d 0414 fd3d b4b6 f0bd 96ec c43d
000000c0: ab1a be3a 80ea 883d 41ca 0fbd f80e a53d
000000d0: 1827 913d a62e dcbb 60e9 293c 340e e7bd
000000e0: 2dbd dc3d 2777 acbd ab40 b2bd c779 b93b
000000f0: f7c5 edbb f150 183d ca1b 953d a864 9dbd

l3.weight f4 [10, 64]
0.18800476 0.103384554 -0.045349326 -0.025655877 -0.05275709 0.10323811 -0.14000684 -0.006337665
0.22056292 0.01887619 0.13716394 -0.0022588612 -0.21526973 -0.041660238 -0.1649981 -0.012036556
0.07974712 0.16161816 0.28456378 -0.08559235 -0.17383587 -0.11628276 0.21375969 0.034729633
0.16595627 -0.019881962 0.023025291 -0.029074652 -0.1650341 -0.15246162 -0.10230892 0.088871755
-0.07337897 -0.115396135 0.04649409 0.0022818337 -0.024884913 0.1339352 -0.15424414 -0.09290531
0.06209795 0.094950736 -0.1492079 0.09601599 0.08309842 -0.1546196 0.18801107 -0.15049122
-0.006729987 0.06511779 0.1214465 -0.00996181 0.008530864 -0.017944772 -0.22226827 -0.21713471
-0.08585663 0.11272783 0.038830414 -0.25762567 -0.0959172 0.13462381 -0.019184882 0.19580376
-0.21684423 -0.037965555 -0.045480907 -0.05835697 0.116229 -0.19559562 0.019118385 0.010443086
0.2041312 -0.12240827 0.030756 0.14437063 0.20313323 -0.160556 0.04297562 0.19484898
0.05553439 -0.08104035 -0.10246661 -0.08774802 -0.05758956 -0.003697815 -0.09904143 -0.17489891
-0.08498136 -0.064956784 -0.06572735 -0.14368656 0.0574222 0.14760362 -0.124495886 0.009342328
0.041439578 -0.0788907 -0.026301757 0.17079957 0.1327201 0.005727946 0.058961626 -0.18132001
-0.11026017 -0.15470979 0.046823546 -0.032939967 0.22026664 -0.112798996 -0.1848604 -0.10835008
0.010810005 0.27393195 -0.12959175 -0.011625845 0.010477846 0.13833481 -0.14914027 -0.083935626
-0.018052215 0.06510498 0.07650786 0.3401617 0.035310812 -0.13038523 -0.1328726 -0.094282456
-0.15482453 -0.105891824 0.09820371 -0.16310342 0.14182052 0.1789208 -0.017321425 0.031360194
0.022320282 -0.0054446445 -0.0033763668 0.24245352 -0.07030719 0.024775235 -0.06609696 -0.0791019
-0.020649884 -0.16064686 0.07967115 0.04902374 0.16794726 -0.19620234 -0.13791533 -0.18043338
0.030519573 0.07568515 -0.06796038 0.14582251 0.12845564 -0.08249718 -0.05418681 0.1088153
0.1942227 -0.19131303 0.013315904 0.106901176 -0.08448863 0.071201816 -0.02696162 -0.008259894
0.16958018 -0.061340682 -0.14383566 0.113338746 0.04634156 0.06877235 -0.03381178 -0.10152043
0.1712275 -0.06275054 -0.10776812 -0.04649109 -0.033343896 0.22814666 -0.05961875 0.02902647
0.23146766 0.011502106 0.12286018 -0.072433166 -0.07136855 0.17412107 -0.053105388 0.10018789
0.04643122 0.06496219 0.13052121 0.081720985 0.051396288 0.08020626 0.19227012 0.15131506
0.11444034 0.05607788 0.017669458 0.016232777 0.09895707 -0.017293839 0.13423327 -0.093835466
0.045997184 -0.14232798 0.13502553 0.036206882 0.04530115 0.15047713 0.10969857 0.041689686
0.028838556 -0.19554128 -0.07692921 0.18259983 0.08936991 -0.105845824 -0.08729029 0.07178484
0.026163515 -0.123174764 0.1109406 0.06861478 0.13068956 -0.094129376 -0.18496552 -0.091658354
-0.014804361 -0.19190669 0.1370653 -0.16305147 -0.17829932 -0.11816371 0.019196676 -0.16301905
-0.13882498 -0.16765861 -0.16844563 0.065371856 0.020295529 -0.14328021 0.1042886 -0.17007904
0.16611075 -0.07022684 0.008545356 0.003574543 -0.12931079 -0.18804206 0.03308488 -0.17600958
00000000: 5284 403e 48bb d33d 37c0 39bd 462c d2bc
00000010: d217 58bd 816e d33d f45d 0fbe 30ac cfbb
00000020: 3fdb 613e 3da2 9a3c b474 0c3e 6709 14bb
00000030: ab6f 5cbe eda3 2abd 43f5 28be fa34 45bc
00000040: 7552 a33d 3b7f 253e 58b2 913e 0b4b afbd
00000050: 0802 32be a825 eebd d2e3 5a3e a940 0e3d
00000060: 71f0 293e 7fdf a2bc 899f bc3c f72d eebc
00000070: b3fe 28be e61e 1cbe 5787 d1bd 6502 b63d
00000080: b747 96bd cf54 ecbd 9670 3e3d d18a 153b
00000090: 72db cbbc 4f26 093e 2df2 1dbe 2445 bebd
000000a0: 6c5a 7e3d 8875 c23d f5c9 18be 08a4 c43d
000000b0: 812f aa3d 9a54 1ebe f985 403e 5f1a 1abe
000000c0: 3987 dcbb 7a5c 853d f1b8 f83d dc36 23bc
000000d0: 09c5 0b3c ea00 93bc 4b9a 63be 9058 5ebe
000000e0: 9ad5 afbd d9dd e63d a40c 1f3d 83e7 83be
000000f0: 3d70 c4bd d3da 093e 9d29 9dbc c880 483e
00000100: 6a0c 5ebe c581 1bbd 304a 3abd b807 6fbd
00000110: 7809 ee3d 384a 48be 299e 9c3c 7a19 2b3c
00000120: c507 513e 30b1 fabd 02f4 fb3c e5d5 133e
00000130: 2802 503e cb68 24be 3407 303d 7e86 473e
00000140: 0778 633d 7cf8 a5bd 04da d1bd 3cb5 b3bd
00000150: 08e3 6bbd 0a57 72bb 3cd6 cabd b318 33be
00000160: b50a aebd 1008 85bd 109c 86bd 9222 13be
00000170: 8a33 6b3d 6725 173e b3f7 febd 9010 193c
00000180: 8cbc 293d 7391 a1bd c876 d7bc 15e6 2e3e
00000190: c7e7 073e 7eb1 bb3b bf81 713d f4ab 39be
000001a0: 16d0 e1bd 3e6c 1ebe 0cca 3f3d 0fec 06bd
000001b0: 948d 613e 2903 e7bd 0b4c 3dbe a6e6 ddbd
000001c0: 721c 313c cf40 8c3e b3b3 04be 547a 3ebc
000001d0: 45ab 2b3c a4a7 0d3e 3ab8 18be 71e6 abbd
000001e0: 3de2 93bc c255 853d 27b0 9c3d ad29 ae3e
000001f0: 12a2 103d b583 05be c10f 08be 2917 c1bd
00000200: 528a 1ebe d0dd d8bd 071f c93d 9504 27be
00000210: 6639 113e 0437 373e a9e5 8dbc 8c73 003d
00000220: 06d9 b63c fd68 b2bb 0946 5dbb bc45 783e
00000230: 37fd 8fbd 6ff5 ca3c d85d 87bd 2d00 a2bd
00000240: f229 a9bc 9c80 24be a12a a33d 1ecd 483d
00000250: 5efa 2b3e 44e9 48be ad39 0dbe 87c3 38be
00000260: 2f04 fa3c d100 9b3d d02e 8bbd 7f52 153e
00000270: e089 033e 48f4 a8bd fdf2 5dbd 8eda de3d
00000280: 51e2 463e 90e7 43be f32a 5a3c 01ef da3d
00000290: 6008 adbd 42d2 913d 9ede dcbc 8254 07bc
000002a0: 6da6 2d3e 5e40 7bbd a849 13be 251e e83d
000002b0: a6d0 3d3d 85d8 8c3d 397e 0abd f1e9 cfbd
000002c0: 4356 2f3e 5b83 80bd 88b5 dcbd 716d 3ebd
000002d0: 9c93 08bd 479f 693e ca32 74bd ebc8 ed3c
000002e0: dc05 6d3e 5473 3c3c 1e9e fb3d d757 94bd
000002f0: ad29 92bd cb4c 323e 0985 59bd 4f2f cd3d
00000300: aa2e 3e3d e60a 853d 5aa7 053e 555d a73d
00000310: ea84 523d 2e43 a43d 75e2 443e 56f2 1a3e
00000320: b25f ea3d ebb1 653d 8abf 903c 9afa 843c
00000330: 01aa ca3d cfab 8dbc 7274 093e cf2c c0bd
00000340: 8b67 3c3d 6dbe 11be 2244 0a3e ab4d 143d
00000350: b38d 393d ad16 1a3e a5a9 e03d cec2 2a3d
00000360: d63e ec3c f93b 48be 108d 9dbd 73fb 3a3e
00000370: 9207 b73d b2c5 d8bd 40c5 b2bd ee03 933d
00000380: de54 d63c 0d43 fcbd d334 e33d e885 8c3d
00000390: 7cd3 053e e7c6 c0bd 9a67 3dbe 60b7 bbbd
000003a0: fe8d 72bc 3083 44be d95a 0c3e f7f6 26be
000003b0: 1994 36be d1ff f1bd 5942 9d3c 77ee 26be
000003c0: 2328 0ebe b3ae 2bbe 037d 2cbe aee1 853d
000003d0: cf42 a63c 0cb8 12be 4395 d53d 3329 2ebe
000003e0: f018 2a3e 17d3 8fbd d201 0c3c e142 6a3b
000003f0: 0c6a 04be 198e 40be 0384 073d db3b 34be

l3.bias f4 [10]
-0.1512276 0.08351844 -0.051544815 0.01583251 -0.047169343 0.1939004 -0.11853916 -0.0075104837
-0.01908703 -0.13849492
00000000: 68db 1abe b70b ab3d a820 53bd 2eb3 813c
00000010: a434 41bd d48d 463e a9c4 f2bd 811a f6bb
00000020: 675c 9cbc 9dd1 0dbe
