lightning_logs/version_3/checkpoints/epoch=4-step=9375.ckpt (torch, 225107 bytes, 6 tensors)

l1.weight f4 [64, 784]
-0.02691109 -0.006001519 -0.021834277 0.020792138 0.019158684 0.0061577857 0.007892586 0.025323477
-0.0009637512 0.015577737 0.03511108 0.014699794 -0.019850953 -0.031242318 0.015445138 -0.033285607
0.009299286 0.009454563 -0.017519334 -0.027317673 0.0049658976 0.02691244 -0.0135001 0.027213369
-0.0021852776 0.02464839 0.023790453 -0.014633814 0.00015221164 -0.027158326 -0.031916138 -0.0050037466
0.019796584 0.02035208 -0.019539904 0.025918664 -0.019385071 -0.026723418 0.018994763 -0.0240071
0.0024111955 0.018795095 -0.031875294 0.024396101 0.0016701213 -0.0001278231 0.0039647087 -0.02808213
-0.02526325 0.03484178 -0.0071151555 -0.0075349705 -0.0011805221 0.03502095 0.011256725 0.01936683
-0.0026232824 -0.0047055315 0.017270505 0.013999633 -0.011830704 -0.032531496 -0.03428058 -0.012304782
-0.009579824 0.006801909 0.023772117 -0.0134255625 -0.022080153 -0.0006698958 0.023677956 -0.015379555
-0.027178029 0.0015056799 -0.01557898 0.014033678 0.004367889 -0.005776945 -0.017401934 -0.012527632
0.027385222 0.032558307 -0.022338923 -0.032916266 0.00963204 -0.00031813607 0.0011269982 0.025349446
-0.008007719 0.008755314 -0.015304732 0.005484094 -0.005963058 -0.003946712 0.0073464103 0.038809843
0.030033043 0.0054380787 0.045843527 0.046640664 0.00059385586 0.015033123 -0.01641205 0.011331674
0.03170109 -0.016035682 -0.019183796 -0.012979964 0.03378634 -0.017404439 0.010914725 -0.0088358745
-0.007377038 -0.017742475 -0.02489109 0.018813938 -0.016951425 0.023475189 -0.020592904 0.038809773
0.012457612 0.03474337 -0.0023927498 -0.0015164806 0.058668755 0.021470865 0.041086286 0.03338076
-0.0011422562 0.036637355 0.04218079 0.03635876 0.0012551685 0.00056834443 0.018344305 -0.017545491
-0.026813164 0.01606033 0.0023354285 -0.02598957 -0.033012625 0.027019862 -0.010718566 -0.00859934
-0.034117315 0.007544456 0.024841746 0.025340678 0.04856133 -0.0022671076 0.037722424 0.044242207
0.087907925 0.08677387 0.08130563 0.076793045 0.07575251 0.05635285 0.05959334 -0.011798379
0.0154325 -0.02043541 0.022486605 -0.004912587 -0.008326786 0.014973926 -0.021648876 -0.008172061
-0.014205098 -0.0026649833 -0.024516558 -0.021823527 0.013469608 0.0012771428 0.036515556 0.011923416
0.006176426 0.05126038 0.015863406 0.05310278 0.08784773 0.04913447 0.081223786 0.054405767
0.04345779 0.019580998 0.020902183 0.039694034 0.037513416 -0.012728616 -0.025113357 -0.009187244
-0.023271386 0.015418017 -0.029380636 0.0027909572 0.032582514 0.018614426 0.029485485 0.032556433
0.01793211 0.012621618 -0.0022313576 0.027513469 0.04697511 -0.016894953 0.011844414 0.018246
0.0134657025 0.039843403 0.024239436 0.016404115 0.04850755 0.023342509 -0.012119595 0.018173905
-0.0032884707 -0.015850585 0.0068644816 0.0143148145 -0.02232049 -0.019701745 0.034583125 0.024325592
-0.019905929 -0.00917474 0.027630165 -0.026743859 -0.017342 -0.016375694 0.00084856275 -0.0071699745
-0.027161878 -0.013966867 0.011356636 0.015830493 -0.010160551 -0.012483408 -0.008653147 -0.029366622
-0.023769291 -0.052037343 -0.027608853 0.019253874 0.016503122 0.0018104078 0.034825858 -0.014007388
0.027683401 0.03173924 0.03673442 0.020012142 -0.016825628 0.033282906 -0.037209272 -0.003068339
00000000: a574 dcbc 64a8 c4bb ccdd b2bc 4654 aa3c
00000010: acf2 9c3c 40c7 c93b e84f 013c 2e73 cf3c
00000020: 40a4 7cba c439 7f3c a3d0 0f3d 68d7 703c
00000030: 779e a2bc e4ef ffbc 9b0d 7d3c 7d56 08bd
00000040: 085c 183c 50e7 1a3c b584 8fbc 50c9 dfbc
00000050: f8b8 a23b 7a77 dc3c 862f 5dbc 92ee de3c
00000060: e036 0fbb 6ceb c93c 32e4 c23c aac2 6fbc
00000070: 009b 1f39 237b debc 7fba 02bd 78f6 a3bb
00000080: 722c a23c 68b9 a63c 2612 a0bc 6153 d43c
00000090: 71cd 9ebc 12eb dabc e89a 9b3c 8aaa c4bc
000000a0: 2605 1e3b 2cf8 993c ab8f 02bd 55da c73c
000000b0: f9e7 da3a 4108 06b9 63ea 813b 7f0c e6bc
000000c0: e0f4 cebc 41b6 0e3d 4026 e9bb eae7 f6bb
000000d0: c0bb 9aba 2172 0f3d 206e 383c 30a7 9e3c
000000e0: 60eb 2bbb dc30 9abb e07a 8d3c b75e 653c
000000f0: 92d5 41bc bf3f 05bd cb69 0cbd ff99 49bc
00000100: b2f4 1cbc 8ce2 de3b bebd c23c e4f6 5bbc
00000110: 70e1 b4bc f29b 2fba 46f8 c13c 87fa 7bbc
00000120: 75a4 debc 3c5a c53a fa3e 7fbc 83ed 653c
00000130: 8220 8f3b 874c bdbb 808e 8ebc b240 4dbc
00000140: f956 e03c dc5b 053d 1e00 b7bc 35d3 06bd
00000150: b4cf 1d3c 80cb a6b9 c9b7 933a a4a9 cf3c
00000160: cf32 03bc 7372 0f3c b3c0 7abc eab3 b33b
00000170: c265 c3bb 6b53 81bb 28ba f03b 12f7 1e3d
00000180: db07 f63c e931 b23b 6cc6 3b3d 480a 3f3d
00000190: feac 1b3a 7d4d 763c 9072 86bc 7ca8 393c
000001a0: 01d9 013d 435d 83bc 5627 9dbc eaa9 54bc
000001b0: 8c63 0a3d c193 8ebc add3 323c 58c4 10bc
000001c0: 14bb f1bb ab58 91bc 66e8 cbbc b01f 9a3c
000001d0: b7dd 8abc 0a4f c03c 73b2 a8bc fff6 1e3d
000001e0: 031b 4c3c 104f 0e3d aecf 1cbb a5c4 c6ba
000001f0: a64e 703d abe3 af3c 184a 283d 44ba 083d
00000200: c2b7 95ba 0d11 163d c4c5 2c3d ecec 143d
00000210: 7784 a43a f3fc 143a cc46 963c 90bb 8fbc
00000220: 48a7 dbbc f490 833c fd0d 193b 14e8 d4bc
00000230: 3f38 07bd c258 dd3c ed9c 2fbc 3fe4 0cbc
00000240: 99be 0bbd 7c37 f73b eb80 cb3c 4197 cf3c
00000250: 3fe8 463d c193 14bb d482 1a3d 5137 353d
00000260: 1209 b43d 80b6 b13d 9183 a63d ac45 9d3d
00000270: 2224 9b3d 3fd2 663d 2518 743d fd4d 41bc
00000280: 99d8 7c3c 2968 a7bc d435 b83c c4f9 a0bb
00000290: 126d 08bc 3355 753c fc58 b1bc 1ce4 05bc
000002a0: 80bc 68bc 00a7 2ebb f3d6 c8bc 41c7 b2bc
000002b0: a1af 5c3c cd65 a73a 5691 153d 6e5a 433c
000002c0: 9e63 ca3b 67f6 513d f9f3 813c 4d82 593d
000002d0: 83e9 b33d 3a41 493d a858 a63d 95d8 5e3d
000002e0: cc00 323d 5468 a03c 0e3b ab3c 3696 223d
000002f0: aba7 193d af8b 50bc 87ba cdbc 1886 16bc
00000300: a2a3 bebc da9b 7c3c a9af f0bc 7ee8 363b
00000310: 3e75 053d 487d 983c 8b8b f13c e559 053d
00000320: 5ce6 923c e7ca 4e3c f83b 12bb ed63 e13c
00000330: f968 403d 4967 8abc 130f 423c a378 953c
00000340: 409f 5c3c d632 233d c891 c63c ec61 863c
00000350: daaf 463d ca38 bf3c 4491 46bc 71e1 943c
00000360: 6283 57bb 16d9 81bc 72ef e03b af88 6a3c
00000370: 76d9 b6bc 8e65 a1bc 09a7 0d3d 7746 c73c
00000380: c211 a3bc a651 16bc a858 e23c f015 dbbc
00000390: cf10 8ebc 5226 86bc 1572 5e3a 1bf2 eabb
000003a0: 9682 debc 49d5 64bc 2f11 3a3c f3ae 813c
000003b0: 7178 26bc 3587 4cbc eec5 0dbc 4592 f0bc
000003c0: d1b7 c2bc 1c25 55bd f62b e2bc 4dba 9d3c
000003d0: 8e31 873c 354b ed3a 8fa5 0e3d 3e7f 65bc
000003e0: 4dc8 e23c 0101 023d d576 163d 81f0 a33c
000003f0: e6d5 89bc a853 083d c068 18bd 3016 49bb

l1.bias f4 [64]
0.029982489 0.073536135 -0.014539655 0.026156014 0.006938868 0.007989635 0.06483742 -0.018264228
0.052648194 0.055514567 0.059621885 -0.024760678 0.01592052 0.021240905 0.020233436 0.05020098
0.019332027 -0.005875869 0.025079159 0.022943014 0.007817266 0.044836134 0.01954516 0.017502377
0.00383533 0.057718616 -0.000528578 -0.006565333 0.06455834 0.003740029 0.026279116 -0.02223375
0.013813369 0.050994452 0.05692649 0.01228656 0.019608079 0.028389007 0.026390262 0.05682413
-0.017547684 0.010380376 0.009703312 -0.019521533 0.03964309 0.08140782 -0.0067730057 0.0088856155
0.024465837 0.0026286086 -0.017743492 -0.0030936908 -0.024335148 -0.014547351 -0.029634422 0.049255732
-0.031752862 -0.03347549 0.05876554 0.009061769 0.036695 -0.02678013 0.049481623 -0.006459135
00000000: d69d f53c 1d9a 963d bc37 6ebc 2345 d63c
00000010: 725f e33b f5e6 023c 7bc9 843d dd9e 95bc
00000020: a2a5 573d 3e63 633d 1436 743d e8d6 cabc
00000030: c06b 823c 6801 ae3c 97c0 a53c 8b9f 4d3d
00000040: 335e 9e3c 5d8a c0bb cf72 cd3c fdf2 bb3c
00000050: fd13 003c 18a6 373d 2c1d a03c 2561 8f3c
00000060: 295a 7b3b 5b6a 6c3d 4590 0aba 0122 d7bb
00000070: 2a37 843d 461b 753b 4d47 d73c 8e23 b6bc
00000080: 7851 623c 8fdf 503d c02b 693d 914d 493c
00000090: 1fa1 a03c 1090 e83c 6430 d83c 6bc0 683d
000000a0: 29c0 8fbc 7412 2a3c a4fa 1e3c 9feb 9fbc
000000b0: cb60 223d 25b9 a63d 17f0 ddbb f994 113c
000000c0: 946c c83c bc44 2c3b cd5a 91bc 85bf 4abb
000000d0: 815a c7bc 0358 6ebc e3c3 f2bc 61c0 493d
000000e0: 4a0f 02bd 981d 09bd 23b4 703d d077 143c
000000f0: 7f4d 163d 0162 dbbc 3ead 4a3d 27a7 d3bb

l2.weight f4 [64, 64]
0.1214135 -0.08932984 0.14812155 0.0713852 -0.04008166 0.0837085 -0.032069355 0.09576057
-0.08110539 0.035129007 0.042726714 -0.00095425814 -0.114454865 -0.057132937 -0.01042748 -0.117945865
-0.080890626 -0.08702095 -0.011083592 0.13232252 -0.034318525 -0.085502505 -0.09226437 0.14783747
-0.02240917 0.03714115 0.032911986 0.11671553 0.039246824 0.0032657464 0.113938466 0.12322859
-0.01704276 0.032221626 -0.1418769 0.01674976 0.0939298 0.032982923 0.12059296 -0.08492161
0.10232489 -0.07035314 0.10297321 0.081798725 -0.028284641 0.06355811 -0.05309426 -0.028245235
0.11031968 0.0946431 -0.028975114 -0.035506338 -0.02252016 -0.07285978 -0.08707956 0.088454165
0.049974386 0.042283535 0.05316166 0.092699446 0.034721244 0.115800016 -0.030022964 -0.09155665
-0.041137733 0.05088613 0.07933405 -0.014322872 -0.08338689 0.059084743 0.09960846 0.12338923
-0.01708137 0.13368215 0.11025512 0.012755708 -0.040748194 -0.029587211 0.046093512 0.04175451
0.044378165 0.004601746 0.0669255 -0.10596815 -0.007922384 0.0053102123 -0.024831347 -0.06918409
0.06298639 -0.027388923 0.03589862 0.06579952 0.0067925667 0.06942508 -0.11852623 0.14159594
-0.08997815 0.10168959 0.025328644 -0.07193805 -0.06877979 0.09550738 -0.08128735 -0.0844389
0.11627278 0.06109571 0.07202411 0.06677886 -0.08271775 -0.09737008 -0.12884289 -0.016163997
-0.018523937 -0.023767838 -0.08564405 0.061161835 0.058709938 0.11827444 -0.019226583 0.049975403
0.032510318 0.08233118 0.08628344 -0.004240179 0.08881142 -0.00031807745 0.021710372 -0.010070509
0.061251882 -0.023943527 0.18990988 0.059651483 -0.113836914 0.050214395 -0.14779828 -0.006380918
-0.13050099 0.08422079 0.055160936 0.0514275 0.16351552 -0.13822936 0.09737939 0.11197906
0.05060065 0.045807235 -0.111612536 -0.076297045 0.16376819 0.08962426 -0.13514166 -0.0050247796
-0.09035493 0.061440002 -0.044163134 0.09451598 0.051271558 -0.06543766 -0.025184967 -0.061569497
0.032957267 0.049721964 -0.051752083 -0.061284345 -0.041315354 0.02949379 0.12340594 -0.061977267
0.101793155 0.016176429 -0.12246981 0.10167735 0.12584996 -0.12125621 0.13822365 -0.07103902
-0.015873823 0.055681266 0.035166617 -0.08817043 -0.064170994 -0.08307938 0.04898459 0.028770542
0.031362243 0.107192665 0.0115096485 -0.02775517 0.05544215 0.06368494 0.12335002 -0.1135481
0.05983075 0.08989244 -0.022143334 0.109767705 -0.056390103 0.07721742 -0.08848658 0.087112255
-0.051343877 -0.08831941 -0.007559499 0.012879763 -0.11896723 0.05945613 -0.014801938 0.060776033
0.11000976 0.023622204 0.048511025 -0.07463168 -0.091113344 0.033243533 -0.09319959 -0.0333654
0.08793055 -0.08662128 -0.022070142 -0.07952219 -0.020563522 -0.0035735783 -0.050530396 -0.0055508227
0.013115578 0.0789655 0.11238824 -0.09602471 -0.11863779 -0.033363584 -0.058136653 -0.012620547
0.089902565 -0.0048011863 0.11531238 0.07011955 0.055540413 0.12452621 -0.12302764 -0.027093615
-0.09869646 -0.0092683965 -0.10221788 -0.11912391 -0.0070962864 -0.08129118 0.011764723 0.02371658
0.08506732 -0.05476908 -0.0017110001 5.4997818e-05 0.0018472173 0.08414646 -0.059106264 0.0004560268
00000000: a4a7 f83d 90f2 b6bd 2dad 173e 6732 923d
00000010: ab2c 24bd 5d6f ab3d 285b 03bd 1e1e c43d
00000020: 951a a6bd 6fe3 0f3d 3502 2f3d 2e27 7aba
00000030: 5067 eabd 3a04 6abd 05d8 2abc 9a8d f1bd
00000040: fca9 a5bd 0a38 b2bd f497 35bc 8e7f 073e
00000050: 9591 0cbd f01b afbd 1af5 bcbd b562 173e
00000060: 7093 b7bc 5221 183d b8ce 063d 8d08 ef3d
00000070: 47c1 203d 2206 563b 9258 e93d 455f fc3d
00000080: 429d 8bbc d3fa 033d 2e48 11be cb36 893c
00000090: 445e c03d 1a19 073d 71f9 f63d 62eb adbd
000000a0: b68f d13d 4f15 90bd 9ee3 d23d 1786 a73d
000000b0: 31b5 e7bc c12a 823d 5e79 59bd 8d62 e7bc
000000c0: 49ef e13d 3ed4 c13d 385d edbc 186f 11bd
000000d0: 337c b8bc 8237 95bd c556 b2bd 7527 b53d
000000e0: f1b1 4c3d 8031 2d3d 0ac0 593d 35d9 bd3d
000000f0: dd37 0e3d 8f28 ed3d b8f2 f5bc 0e82 bbbd
00000100: 0a80 28bd fa6d 503d e479 a23d 7baa 6abc
00000110: bfc6 aabd d802 723d 85ff cb3d 7eb3 fc3d
00000120: 3bee 8bbc f9e3 083e 70cd e13d 51fd 503c
00000130: 94e7 26bd e160 f2bc 8dcc 3c3d c706 2b3d
00000140: e1c5 353d 3eca 963b 3d10 893d d405 d9bd
00000150: e3cc 01bc 4a01 ae3b 1c6b cbbc 63b0 8dbd
00000160: 02ff 803d bc5e e0bc 6e0a 133d e6c1 863d
00000170: 2e94 de3b bd2e 8e3d e1bd f2bd 87fe 103e
00000180: 7746 b8bd a242 d03d 047e cf3c 4254 93bd
00000190: 6bdc 8cbd 6099 c33d fb79 a6bd 4dee acbd
000001a0: 6c20 ee3d 7f3f 7a3d 6081 933d 5bc3 883d
000001b0: ec67 a9bd f769 c7bd 64ef 03be 5c6a 84bc
000001c0: 83bf 97bc c5b4 c2bc 2666 afbd d584 7a3d
000001d0: d579 703d df39 f23d 1181 9dbc 02b3 4c3d
000001e0: 8a29 053d 409d a83d 5fb5 b03d 33f1 8abb
000001f0: c3e2 b53d a2c3 a6b9 f3d9 b13c c7fe 24bc
00000200: 41e3 7a3d 3725 c4bc bc77 423e 1d55 743d
00000210: 5423 e9bd 9cad 4d3d 6f58 17be 0517 d1bb
00000220: 0da2 05be f37b ac3d 6ff0 613d a4a5 523d
00000230: 9d70 273e ff8b 0dbe d86e c73d 4755 e53d
00000240: a142 4f3d 5ea0 3b3d 1d95 e4bd a041 9cbd
00000250: d9b2 273e ed8c b73d 9362 0abe e8a6 a4bb
00000260: 010c b9bd 83a8 7b3d 67e4 34bd 9891 c13d
00000270: 2002 523d 2e04 86bd b450 cebc 4c30 7cbd
00000280: 33fe 063d 42a9 4b3d fef9 53bd 4b05 7bbd
00000290: 4a3a 29bd f69c f13c 41bc fc3d e0db 7dbd
000002a0: ee78 d03d 6e84 843c 74d1 fabd 373c d03d
000002b0: d0de 003e 2d55 f8bd 808a 0d3e e87c 91bd
000002c0: d209 82bc 0a12 643d df0a 103d b392 b4bd
000002d0: 156c 83bd 8625 aabd 11a4 483d 33b0 eb3c
000002e0: b275 003d d487 db3d f792 3c3c cf5e e3bc
000002f0: 4f17 633d 406d 823d ef9e fc3d e88b e8bd
00000300: 1711 753d 8719 b83d f065 b5bc e4cd e03d
00000310: 4ff9 66bd 2b24 9e3d 7438 b5bd e967 b23d
00000320: f54d 52bd cfe0 b4bd acb5 f7bb a405 533c
00000330: 17a5 f3bd 4588 733d d483 72bc 4af0 783d
00000340: cc4c e13d 5a83 c13c 7fb3 463d 7fd8 98bd
00000350: a299 babd 5f2a 083d 6ddf bebd 28aa 08bd
00000360: ef14 b43d 7f66 b1bd 71cc b4bc 88dc a2bd
00000370: d574 a8bc b232 6abb f6f8 4ebd ade3 b5bb
00000380: b9e2 563c aab8 a13d ce2b e63d 9aa8 c4bd
00000390: 5ff8 f2bd 41a8 08bd b320 6ebd 69c6 4ebc
000003a0: d61e b83d 4553 9dbb e628 ec3d d79a 8f3d
000003b0: 587e 633d 9907 ff3d eaf5 fbbd 6ef3 ddbc
000003c0: 5f21 cabd 79da 17bc 9c57 d1bd 3df7 f3bd
000003d0: f787 e8bb fd7b a6bd d3c0 403c 4649 c23c
000003e0: c637 ae3d 8b55 60bd a343 e0ba 75ad 6638
000003f0: 541e f23a fb54 ac3d 6919 72bd e216 ef39

l2.bias f4 [64]
-0.043518655 -0.069480754 0.11257276 -0.0021754848 -0.04345163 -0.059841756 0.13071701 0.05544906
-0.035340734 -0.016795164 -0.029618984 0.07533064 0.050383843 0.02506937 -0.018589843 0.087017134
-0.116078034 -0.07934704 -0.045601133 -0.10025951 0.011437159 -0.06633796 0.07880887 -0.11210469
-0.08348093 0.06665735 0.13955529 -0.065580145 -0.0019799632 -0.108858295 -0.07089193 0.025265787
0.06662793 -0.049414545 0.023187391 0.055270918 0.06788846 0.041756045 -0.0254984 -0.03327724
0.13450922 0.04243951 0.07149804 -0.0636262 -0.044318832 0.11895156 -0.012826952 0.01572818
0.051916298 0.08154166 0.0077432594 0.119087346 -0.034827616 0.11367165 -0.092539266 -0.037409876
0.13364384 -0.07714326 0.022481397 -0.066894054 0.029037353 -0.09105155 0.10366857 -0.0010004202
00000000: 9e40 32bd ed4b 8ebd 8c8c e63d 9492 0ebb
00000010: 56fa 31bd a11c 75bd aeda 053e 8e1e 633d
00000020: 72c1 10bd 0396 89bc 83a3 f2bc f346 9a3d
00000030: 4a5f 4e3d 485e cd3c ba49 98bc 0a36 b23d
00000040: 52ba edbd b380 a2bd 41c8 3abd dc54 cdbd
00000050: ec62 3b3c 32dc 87bd 8b66 a13d 2597 e5bd
00000060: 0df8 aabd a683 883d 95e7 0e3e e24e 86bd
00000070: 45c2 01bb 19f1 debd ca2f 91bd 32fa ce3c
00000080: 3974 883d e866 4abd 7cf3 bd3c c263 623d
00000090: 1b09 8b3d 6308 2b3d 05e2 d0bc b74d 08bd
000000a0: c9bc 093e 0dd5 2d3d 906d 923d 744e 82bd
000000b0: aa87 35bd e09c f33d 2328 52bc 62d8 803c
000000c0: 2fa6 543d 50ff a63d 2bbb fd3b 11e4 f33d
000000d0: 67a7 0ebd afcc e83d 3a85 bdbd 193b 19bd
000000e0: eed9 083e 49fd 9dbd e82a b83c c0ff 88bd
000000f0: bedf ed3c 3c79 babd 3050 d43d 8820 83ba

l3.weight f4 [10, 64]
-0.20543188 -0.022309972 -0.22351854 -0.21398665 0.04601473 0.25190613 0.26644155 0.21513097
-0.18499848 -0.2164411 -0.028204374 -0.07833236 0.12279655 0.18298124 -0.0590929 0.010980697
0.21821967 0.17553759 -0.09868401 -0.1774621 -0.047290362 -0.1433646 -0.14253837 -0.15610047
-0.054174017 -0.27829728 0.16114902 -0.14433715 -0.06438785 -0.18362272 -0.035817582 -0.052927766
-0.061947647 0.04368469 0.060460843 0.20834409 0.2617641 -0.07558064 -0.06006412 0.03212143
-0.13592066 0.07079218 0.0046483893 -0.035180807 0.043935128 -0.058666077 0.06897846 0.03145128
-0.06698132 0.0035735103 -0.11154556 0.035410266 0.22662379 0.04092489 -0.085597776 -0.22263256
0.17337188 0.026712576 0.18595284 0.10605825 -0.11715528 0.019499423 -0.17361195 0.038260587
0.060788307 -0.24408811 -0.18814069 0.21082367 -0.062266324 -0.32986614 -0.1508341 -0.047912892
0.2695335 -0.2650841 -0.051685024 -0.11283397 0.09100828 -0.15725908 0.021238856 -0.025161618
0.08519685 -0.104293704 0.10747836 0.033349764 -0.20059639 0.043356664 0.28218624 0.11720588
-0.07586505 0.2864112 -0.11013967 -0.19440627 0.19176066 -0.028432041 -0.05178454 0.051738407
-0.031926744 0.05725031 -0.0867479 -0.29194677 -0.1315404 0.030308688 -0.047697537 0.09440855
-0.1292522 0.06017956 0.2097047 -0.07575903 0.031599365 0.12294037 -0.1231191 0.20646921
0.26417544 -0.086427495 -0.035759434 0.16728793 -0.25547856 -0.07956355 -0.07695274 0.010394756
0.020449929 -0.031028474 0.13732505 -0.07845599 0.06720589 0.18151051 -0.18780185 0.17692718
0.19914642 -0.1184771 0.3492274 0.07996686 0.02023404 0.05666517 -0.14332874 0.091886416
-0.20453978 -0.2576658 -0.20350854 0.073929325 0.16387336 -0.17010511 -0.11979272 0.05261422
0.054920312 0.15580308 0.011913184 -0.005057273 0.21196114 0.16196147 0.12580186 0.039156925
-0.038052127 0.14821544 0.12679458 0.10007687 0.03825121 -0.21128432 0.008869304 0.16503662
-0.0034694688 -0.06753504 -0.17130682 0.04759878 -0.10932182 0.114102975 0.066707805 0.16770288
-0.13036312 -0.122521706 0.028148035 -0.02931124 -0.10832283 -0.20761897 0.20715272 -0.037611283
0.025709856 -0.024045266 0.08266363 -0.14272167 -0.04458512 0.0020687901 -0.040522017 -0.07777119
0.12444256 -0.06861325 0.23741151 0.08043757 -0.037860006 -0.048135635 -0.08870118 0.09468597
0.16350372 -0.0072847744 -0.027094547 0.05273802 -0.13633177 -0.043502726 0.029042156 0.04502893
-0.21633986 0.0730676 0.20086598 -0.083927564 -0.14206888 0.05274857 0.13700958 0.13855638
0.11599107 -0.09347465 0.085953236 -0.15320358 -0.180408 0.12362437 0.16764529 0.26376316
-0.0463547 -0.092064746 -0.018267075 -0.24705194 -0.001970437 -0.23773241 0.060324248 0.02534688
0.26655647 -0.1177496 -0.14280006 0.10041293 0.08733536 0.11096423 0.15663981 0.08889808
-0.05655536 0.09080935 0.009925751 0.15475634 -0.20214136 -0.16048083 0.00977305 -0.14009249
0.059043393 -0.016154708 0.20757292 -0.09261309 -0.110686734 -0.05583022 -0.012491568 0.04754398
0.13896091 0.057262916 0.028565828 -0.09125606 0.08398591 -0.08715279 0.07660425 -0.032939713
00000000: bc5c 52be 67c3 b6bc 0be2 64be 511f 5bbe
00000010: f179 3c3d d7f9 803e 076b 883e 4b4b 5c3e
00000020: 3e70 3dbe bca2 5dbe dc0c e7bc b76c a0bd
00000030: c27c fb3d 6f5f 3b3e 660b 72bd 62e8 333c
00000040: fa74 5f3e 20c0 333e d81a cabd a0b8 35be
00000050: 8ab3 41bd 2bce 12be 94f5 11be cdd8 1fbe
00000060: 93e5 5dbd fb7c 8ebe 4004 253e 1ecd 13be
00000070: c7dd 83bd 9807 3cbe 75b5 12bd c9ca 58bd
00000080: d1bc 7dbd b8ee 323d caa5 773d 2758 553e
00000090: f205 863e 06ca 9abd cb05 76bd c391 033d
000000a0: c92e 0bbe 7efb 903d 8451 983b c019 10bd
000000b0: 52f5 333d d74b 70bd 9444 8d3d 0fd3 003d
000000c0: 812d 89bd 8e31 6a3b 0072 e4bd 5b0a 113d
000000d0: 1110 683e dca0 273d e34d afbd caf9 63be
000000e0: 6688 313e 55d4 da3c 6c6a 3e3e 1135 d93d
000000f0: 1cef efbd 41bd 9f3c 55c7 31be 22b7 1c3d
00000100: 29fd 783d 3cf2 79be f4a7 40be 29e2 573e
00000110: f90a 7fbd 37e4 a8be 4174 1abe 4f40 44bd
00000120: 4b00 8a3e 1ab9 87be adb3 53bd 7f15 e7bd
00000130: 8d62 ba3d 8608 21be 1cfd ad3c bd1f cebc
00000140: b07b ae3d f097 d5bd 9d1d dc3d c399 083d
00000150: 2469 4dbe c296 313d b77a 903e a309 f03d
00000160: 235f 9bbd 7da4 923e e890 e1bd 7012 47be
00000170: e85c 443e 50ea e8bc 071c 54bd a7eb 533d
00000180: 9ec5 02bd 4d7f 6a3d e2a8 b1bd 0c7a 95be
00000190: 87b2 06be ed49 f83c 7e5e 43bd 4559 c13d
000001a0: b05a 04be d87e 763d d4bc 563e 8d27 9bbd
000001b0: 566e 013d 29c8 fb3d de25 fcbd aa6c 533e
000001c0: 0142 873e e600 b1bd 7c78 12bd 874d 2b3e
000001d0: 16ce 82be 37f2 a2bd 6699 9dbd c44e 2a3c
000001e0: 9c86 a73c 6d2f febc f09e 0c3e 89ad a0bd
000001f0: 3ea3 893d e4dd 393e 214f 40be 662c 353e
00000200: 0aed 4b3e 1fa4 f2bd efcd b23e aac5 a33d
00000210: dcc1 a53c bd19 683d c5c4 12be f22e bc3d
00000220: e072 51be c6ec 83be 8b64 50be 4268 973d
00000230: 6bce 273e 0930 2ebe e355 f5bd 0282 573d
00000240: 1ff4 603d d88a 1f3e 842f 433c 7bb7 a5bb
00000250: 570c 593e 3ad9 253e 34d2 003e 0363 203d
00000260: 8cdc 1bbd cac5 173e 70d6 013e 1af5 cc3d
00000270: 4dad 1c3d eb5a 58be 8f50 113c 5cff 283e
00000280: 0760 63bb d04f 8abd 0e6b 2fbe f0f6 423d
00000290: 1ee4 dfbd d2ae e93d 1a9e 883d 4eba 2b3e
000002a0: e97d 05be a9ec fabd b596 e63c 201e f0bc
000002b0: 5cd8 ddbd 119a 54be d81f 543e 4a0e 1abd
000002c0: 7a9d d23c 94fa c4bc 8d4b a93d a125 12be
000002d0: e39e 36bd 8a94 073b 6afa 25bd 8046 9fbd
000002e0: bedb fe3d 1b85 8cbd 011c 733e 74bc a43d
000002f0: 1813 1bbd df29 45bd f7a8 b5bd b8ea c13d
00000300: 856d 273e 1eb5 eebb 62f5 ddbc d203 583d
00000310: 8e9a 0bbe ea2f 32bd d1e9 ed3c 4170 383d
00000320: 3288 5dbe 77a4 953d d0af 4d3e 37e2 abbd
00000330: 817a 11be e20e 583d 3d4c 0c3e b9e1 0d3e
00000340: ba8c ed3d a36f bfbd 4008 b03d 66e1 1cbe
00000350: e0bc 38be c62e fd3d 35ab 2b3e f70b 873e
00000360: 6dde 3dbd 718c bcbd d5a4 95bc 2ffb 7cbe
00000370: 7222 01bb 2070 73be 8f16 773d 43a4 cf3c
00000380: 177a 883e b426 f1bd 2e3a 12be 4ba5 cd3d
00000390: e2dc b23d 3741 e33d 3066 203e 3210 b63d
000003a0: 98a6 67bd 41fa b93d 9e9f 223c 7278 1e3e
000003b0: 25fe 4ebe 1655 24be 251f 203c 6874 0fbe
000003c0: 7cd7 713d e156 84bc ff8d 543e efab bdbd
000003d0: baaf e2bd 3bae 64bd 6fa9 4cbc 7abd 423d
000003e0: c54b 0e3e 858c 6a3d e202 ea3c 75e4 babd
000003f0: ce00 ac3d 297d b2bd b0e2 9c3d cbeb 06bd

l3.bias f4 [10]
-0.13946529 0.0042235777 -0.03706995 -0.06337099 0.07243989 0.14797162 0.0009918708 -0.002397668
-0.051867135 0.16395506
00000000: fdcf 0ebe f065 8a3b a9d6 17bd a6c8 81bd
00000010: 5d5b 943d df85 173e a901 823a 3222 1dbb
00000020: a272 54bd d6e3 273e
