lightning_logs/version_2/checkpoints/epoch=4-step=9375.ckpt (torch, 225107 bytes, 6 tensors)

l1.weight f4 [64, 784]
-0.015442431 -0.016870184 -0.02940494 0.004946381 0.0008367859 0.034401547 0.030938681 -0.00056305155
0.003527172 -0.005031066 -0.02088815 -0.011848791 -0.026155923 -0.001138779 0.0081056915 0.032306742
-0.02607235 -0.023765689 0.0051664338 0.020303894 -0.020257121 0.016074762 -0.008165624 0.024424646
0.034312095 -0.029741459 -0.028335173 0.019516613 0.0044949055 -0.004583176 -0.011622485 0.035051618
-0.03325144 -0.01774684 0.018126661 0.0039298586 -0.024410477 -0.01859269 0.005799333 -0.02752677
-0.026765341 -0.022792345 -0.013216554 0.010640829 0.0008222484 -0.023540303 0.012013039 0.014479068
0.030311318 0.018417299 -0.01401807 0.0075806715 -0.013007531 0.03333583 0.03263106 -0.004706042
0.010931488 0.004955463 -0.007332849 -0.033511437 0.008481987 0.03018156 -0.0067787142 0.015513634
0.028617365 0.0017984906 -0.00021380208 0.018571088 0.028740412 -0.006749845 -0.003303097 0.0010473343
0.034428064 0.022965549 -0.028213263 0.005225426 0.017980812 0.018298248 -0.008338045 0.007537364
0.0014542579 -0.020399509 -0.0016469844 0.014993433 0.02263454 -0.009096168 -0.019944914 -0.010886079
0.03300942 -0.012486592 0.02071644 7.7791905e-05 -0.03434491 0.026988288 0.01159386 0.036415026
-0.020389238 0.02912937 0.035243582 0.0028140042 -0.00040623595 0.042376857 0.04345262 0.0090587465
0.023399934 0.032624353 -0.023853008 -0.033600476 0.0029725328 -0.01097241 -0.034816682 -0.00071464106
0.019623097 0.023048544 -0.0070995544 -0.009862823 -0.029367825 -0.013769329 0.03579269 0.0008994504
-0.028900014 -0.017155966 -0.02165055 0.009381028 -0.02747171 0.015643489 -0.014566869 0.0072597237
-0.016480083 0.01439825 0.002295689 0.008347631 -0.017049152 0.035062775 -0.021188153 0.0025829303
-0.010199607 0.001629709 -0.027927538 -0.006538762 0.015338376 0.026405022 0.024458155 0.006399023
0.03273246 0.009213717 0.0067982837 0.020843353 -0.02602132 -0.020530835 0.0064779483 0.013907027
-0.02660839 -0.0051711323 -0.008317125 -0.0051947576 0.014349823 0.0008885936 0.014589707 0.009956231
-0.008969382 -0.023008399 0.02385898 -0.031111754 -0.009142261 -0.00083094643 -0.030310221 0.033504695
0.012846895 0.0035353478 -0.021304093 -0.006337073 0.021608017 0.018811107 -0.011535543 -0.022030596
0.022990558 -0.0061603473 0.017010244 -0.02467386 -0.018754754 -0.024412496 0.011755665 0.033286262
0.006909119 -0.01598703 -0.007110934 -0.036229894 -0.0100348815 -0.01600524 -0.030463839 0.008944845
0.0057772244 -0.010169628 0.02535522 0.032908324 0.031566154 0.029045908 -0.0042813485 0.018337835
0.0011432011 -0.008576651 0.005744316 -0.027505388 0.008957872 -0.0041624685 -0.0048710676 -0.013927184
-0.0027503055 0.01120956 0.048045784 0.025608795 0.02036223 -0.02251934 -0.013263598 -0.016258493
-0.0062244674 0.017708486 0.002753349 -0.030933432 0.005567396 0.029144337 0.032062102 -0.021110972
0.015270284 0.027997043 -0.0047951597 -0.0010551937 -0.0040281084 -0.017572204 -0.02298821 0.029458292
-0.015673677 0.007748274 0.008341462 0.036936376 -0.015608853 0.021845505 0.023645708 0.012844593
-0.016439151 0.015699634 -0.010787606 0.015258563 -0.0008784531 -0.0367017 -0.035433 -0.01395968
-0.03423683 0.021577477 0.004888973 -0.004337714 0.022176497 -0.02006138 -0.021653421 -0.025245735
00000000: 4002 7dbc 5733 8abc a1e2 f0bc 4015 a23b
00000010: c05b 5b3a a3e8 0c3d 1e73 fd3c c099 13ba
00000020: 2028 673b a4db a4bb a01d abbc 6e21 42bc
00000030: f244 d6bc 1543 95ba bccd 043c 1354 043d
00000040: ae95 d5bc 43b0 c2bc 304b a93b 5a54 a63c
00000050: 43f2 a5bc 38af 833c 1cc9 05bc 3216 c83c
00000060: d78a 0c3d 5ca4 f3bc 2a1f e8bc 4ee1 9f3c
00000070: 004a 933b 782e 96bb 3c6c 3ebc 4992 0f3d
00000080: a932 08bd d261 91bc 5d7e 943c 0bc6 803b
00000090: 7bf8 c7bc b24f 98bc 5508 be3b d27f e1bc
000000a0: fd42 dbbc 03b7 babc 3f8a 58bc df56 2e3c
000000b0: 288c 573a 98d7 c0bc 56d2 443c 9d39 6d3c
000000c0: 714f f83c e0df 963c 0cac 65bc 4867 f83b
000000d0: 8a1d 55bc 278b 083d 25a8 053d 2435 9abb
000000e0: fc19 333c 7061 a23b 6548 f0bb 4a43 09bd
000000f0: 08f8 0a3c 523f f73c fa1f debb e62c 7e3c
00000100: f76e ea3c 55bb eb3a 0f30 60b9 6522 983c
00000110: 0371 eb3c ce2d ddbb c678 58bb b546 893a
00000120: 7104 0d3d 3f22 bc3c 801f e7bc 0d3a ab3b
00000130: 7f4c 933c 35e6 953c 4c9c 08bc fefb f63b
00000140: cc9c be3a df1c a7bc a0df d7ba 04a7 753c
00000150: 126c b93c 1808 15bc 8463 a3bc 865b 32bc
00000160: e334 073d 9094 4cbc 86b5 a93c 3624 a338
00000170: 40ad 0cbd 8b16 dd3c 2cf4 3d3c ec27 153d
00000180: 5507 a7bc b7a0 ee3c 935b 103d 286b 383b
00000190: 11fc d4b9 5b93 2d3d 60fb 313d 236b 143c
000001a0: 38b1 bf3c 1da1 053d 6267 c3bc a7a0 09bd
000001b0: d3ce 423b a0c5 33bc f09b 0ebd c056 3bba
000001c0: 9ec0 a03c 4dd0 bc3c 61a3 e8bb ae97 21bc
000001d0: cb94 f0bc c098 61bc 5b9b 123d 18c9 6b3a
000001e0: b9bf ecbc ab8a 8cbc 7f5c b1bc e2b2 193c
000001f0: 5a0c e1bc c626 803c e0a9 6ebc fae2 ed3b
00000200: 3d01 87bc a3e6 6b3c 4573 163b 81c4 083c
00000210: aaaa 8bbc fc9d 0f3d c792 adbc 6146 293b
00000220: 411c 27bc f69b d53a 4bc8 e4bc 1c43 d6bb
00000230: d04d 7b3c 584f d83c 785c c83c e5ae d13b
00000240: 7912 063d 21f5 163c 23c4 de3b aebf aa3c
00000250: aa2a d5bc 4830 a8bc f844 d43b 4dda 633c
00000260: d7f9 d9bc 9a72 a9bb 8d44 08bc c938 aabb
00000270: 851b 6b3c 82f0 683a ab09 6f3c 761f 233c
00000280: 51f4 12bc 1c7c bcbc e873 c33c 14de febc
00000290: 6cc9 15bc dfd3 59ba 244d f8bc 383c 093d
000002a0: c87b 523c 4bb1 673b ec85 aebc 39a7 cfbb
000002b0: 4c03 b13c c019 9a3c 93ff 3cbc 8279 b4bc
000002c0: b256 bc3c bddc c9bb 1159 8b3c d620 cabc
000002d0: 92a3 99bc b7fc c7bc d59a 403c 2d57 083d
000002e0: e465 e23b 3bf7 82bc d602 e9bb cc65 14bd
000002f0: 5869 24bc 6c1d 83bc 4d8f f9bc 668d 123c
00000300: df4e bd3b 839e 26bc c0b5 cf3c e1ca 063d
00000310: 834b 013d aff1 ed3c 8e4a 8cbb 3a39 963c
00000320: 77d7 953a 1585 0cbc d13a bc3b fb52 e1bc
00000330: 0ac4 123c 5165 88bb 7a9d 9fbb d82e 64bc
00000340: 783e 34bb 4da8 373c a8cb 443d 89c9 d13c
00000350: b1ce a63c 7b7a b8bc 904f 59bc 8830 85bc
00000360: 9ef6 cbbb 6311 913c 8871 343b 1c68 fdbc
00000370: b46e b63b 1bc0 ee3c 8d53 033d ebf0 acbc
00000380: 3730 7a3c 0e5a e53c b720 9dbb 6d4e 8aba
00000390: 39fe 83bb 95f3 8fbc c551 bcbc 8452 f13c
000003a0: 1566 80bc 3ce5 fd3b a1aa 083c 994a 173d
000003b0: 46bc 7fbc 58f5 b23c a5b4 c13c 2172 523c
000003c0: 66ab 86bc 859c 803c 80be 30bc 0dff 793c
000003d0: fd47 66ba 8654 16bd 3222 11bd 24b7 64bc
000003e0: eb3b 0cbd 40c3 b03c ae33 a03b 6223 8ebb
000003f0: 7cab b53c c357 a4bc 8462 b1bc 25d0 cebc

l1.bias f4 [64]
-0.0043536946 0.017076835 0.024026236 0.024311226 0.034223154 0.047014054 -0.011075272 0.027956838
0.05775691 -0.0076992633 0.029263787 0.018902108 0.054772887 0.0036463793 0.047354214 0.053582262
-0.0097043915 0.0075085037 0.0010328246 -0.019498214 -0.023376867 -0.012344013 0.01745795 0.05823634
0.02294536 -0.009116 0.042881392 -0.0139797125 -0.04196306 0.025770927 0.006901042 -0.0136660505
0.007190111 0.020979963 0.003190524 -0.01603256 -0.037094537 0.0029426182 -0.027448159 0.027881829
-0.019279744 0.035249025 0.032483995 0.02310542 0.028474478 -0.010583817 0.004916925 -0.012552738
0.062407445 0.06189587 0.015148127 0.023661949 0.03269783 0.021556817 0.007328839 0.01479505
0.0022076801 -0.004136749 -0.02724733 0.03296852 0.012157597 0.011751567 -0.008118551 -0.01837066
00000000: 70a9 8ebb b8e4 8b3c abd2 c43c 5628 c73c
00000010: 942d 0c3d cf91 403d 0f75 35bc bd05 e53c
00000020: 8292 6c3d 1a4a fcbb 9cba ef3c 98d8 9a3c
00000030: 8959 603d 18f8 6e3b 7ef6 413d 1379 5b3d
00000040: 2bff 1ebc e509 f63b d85f 873a b8ba 9fbc
00000050: d880 bfbc 8b3e 4abc fa03 8f3c 3a89 6e3d
00000060: e8f7 bb3c 465b 15bc 66a4 2f3d 2a0b 65bc
00000070: 75e1 2bbd 8d1d d33c 2322 e23b 92e7 5fbc
00000080: 069b eb3b 2cde ab3c 1c18 513b b756 83bc
00000090: 71f0 17bd f1d8 403b f6da e0bc 6f68 e43c
000000a0: 8ef0 9dbc 4861 103d f00d 053d 9447 bd3c
000000b0: 4f43 e93c bf67 2dbc 281e a13b 00aa 4dbc
000000c0: f39e 7f3d 8686 7d3d da2f 783c b4d6 c13c
000000d0: 29ee 053d ec97 b03c c226 f03b f066 723c
000000e0: baae 103b 918d 87bb cb35 dfbc 000a 073d
000000f0: a830 473c a589 403c ac03 05bc 117e 96bc

l2.weight f4 [64, 64]
0.0719518 0.0073268684 -0.040333353 0.11339578 0.021994725 0.02890561 0.12838587 0.105099924
-0.03383207 0.04235899 0.023032604 0.024882667 0.15780017 0.0831002 -0.085647166 0.0126489615
-0.08251186 0.023474615 0.07997622 0.06858496 0.01085057 -0.012953454 0.09406947 0.09120709
-0.09173949 -0.1284648 0.0086661335 0.055260766 -0.10987162 -0.0607836 -0.058186993 0.035266273
0.0001955663 -0.04546997 0.09709104 0.12954459 -0.050509684 0.11074939 -0.0345947 0.12497942
0.047130503 0.071426645 0.07772059 0.025585102 0.07988697 -0.04418532 -0.038481046 0.065949984
-0.03737343 -0.09748056 0.0067229844 -0.05140329 0.005529573 0.09388625 -0.042661127 0.057176366
-0.039213184 -0.12752883 0.083580665 -0.05992102 -0.018330986 0.045158338 -0.023749067 -0.004386704
0.11011947 0.11788967 0.03045632 -0.056907978 -0.023645846 0.10036905 0.07384492 0.017577918
-0.11542793 0.09017605 -0.058180124 -0.039549414 0.051933445 0.006742316 -0.033622947 0.09332745
0.10301448 0.007934052 0.11912707 -0.044281974 -0.085200444 0.0115945935 -0.08245731 0.0019856673
0.019142633 0.009931323 0.042149063 0.08105924 -0.034410425 0.01736708 0.02671166 -0.10299468
0.08799799 0.106341094 0.10140916 -0.13256796 -0.088881135 0.096884824 0.07942871 -0.015275164
-0.07752347 0.063846625 -0.03610432 0.009129366 -0.14668825 0.103021845 0.13541308 0.07178882
0.05359895 -0.009855016 0.022089781 -0.047095697 -0.009886333 -0.03493082 -0.00738729 -0.110810325
0.0940388 0.03837378 -0.07302788 -0.11398904 0.1449391 0.030091496 -0.0013817634 0.10345984
-0.083675146 0.0019165432 0.033346836 0.021717807 -0.097219266 0.07690994 -0.054062665 -0.01526215
-0.0017261922 0.13481471 0.10604545 0.016479349 0.08428387 0.03168783 -0.06239391 0.08920917
0.119578324 0.022649176 -0.08373008 0.009316476 -0.14796038 -0.113596536 -0.0082708765 -0.026960915
-0.08292486 -0.094120555 0.11183686 0.0883147 -0.08661826 -0.03371698 0.043397594 0.05767135
-0.08114595 0.00936503 0.09670633 0.05216568 0.09978148 -0.13629544 -0.06272434 -0.1094329
0.087750815 -0.093762375 -0.067813665 0.057562012 0.09509125 0.079508916 -0.0783913 0.0040446003
-0.068735935 -0.045998838 0.11652559 -0.08773461 -0.11291941 0.11545987 -0.024889601 -0.02463367
0.05414093 0.035681818 -0.01861962 0.12578394 0.16079994 0.13228118 0.11820701 0.10307411
-0.05746132 -0.053249903 0.017258681 0.11932516 0.05509102 -0.10694347 -0.08309206 -0.035957213
0.039014217 -0.131286 -0.041633192 -0.04213906 -0.038879965 -0.026126588 0.12786713 -0.08381884
-0.14297396 0.078348175 -0.055852376 0.021262662 -0.006117909 0.111658245 -0.11182603 -0.058927193
-0.0037043667 0.098791435 -0.09586643 -0.060760804 0.05002407 0.12977605 0.10975349 0.11988244
-0.009537642 0.06436713 0.10361822 0.08408642 -0.0013526555 -0.05331836 -0.021551367 0.10350937
-0.11212011 -0.079306126 -0.0785858 -0.06861178 0.059151713 0.13461722 0.020656707 -0.04702751
0.024445968 0.17793962 0.0370337 0.028812688 0.05606108 0.034428447 0.10713091 0.083057664
-0.025133776 0.07044303 0.12492097 -0.07072712 -0.005392628 0.034027815 0.057571135 0.04997219
00000000: 775b 933d 3a16 f03b 9634 25bd 0c3c e83d
00000010: 482e b43c 75cb ec3c 9677 033e a13e d73d
00000020: 7f93 0abd 9f80 2d3d dfae bc3c bcd6 cb3c
00000030: 5e96 213e 7030 aa3d c867 afbd 973d 4f3c
00000040: fafb a8bd d64d c03c 93ca a33d 4676 8c3d
00000050: 97c6 313c b93a 54bc 7fa7 c03d c8ca ba3d
00000060: eae1 bbbd 478c 03be 66fc 0d3c 1d59 623d
00000070: 5f04 e1bd 39f8 78bd 7c55 6ebd 5e73 103d
00000080: ee10 4d39 b83e 3abd abd7 c63d 56a7 043e
00000090: 3ee3 4ebd 94d0 e23d 2cb3 0dbd 36f5 ff3d
000000a0: ea0b 413d 2248 923d f92b 9f3d d997 d13c
000000b0: c89b a33d abfb 34bd 4d9e 1dbd c910 873d
000000c0: e214 19bd e3a3 c7bd 7b4c dc3b 428c 52bd
000000d0: 6c31 b53b 6f47 c03d 6fbd 2ebd c431 6a3d
000000e0: 019e 20bd eb96 02be 572c ab3d be6f 75bd
000000f0: dd2a 96bc f3f7 383d 678d c2bc 57be 8fbb
00000100: 5186 e13d 2470 f13d 887f f93c 5718 69bd
00000110: efb4 c1bc 4a8e cd3d 013c 973d 91ff 8f3c
00000120: 7b65 ecbd 39ae b83d 484e 6ebd 91fe 21bd
00000130: 2ab8 543d a5ee dc3b 37b8 09bd 7622 bf3d
00000140: 41f9 d23d d3fd 013c e5f8 f33d 0461 35bd
00000150: 927d aebd 40f7 3d3c 61df a8bd f821 023b
00000160: 03d1 9c3c fdb6 223c 7fa4 2c3d 6302 a63d
00000170: f2f1 0cbd 6845 8e3c 69d2 da3c e0ee d2bd
00000180: 4a38 b43d 5cc9 d93d 9baf cf3d e5bf 07be
00000190: 5007 b6bd 8d6b c63d 85ab a23d ae44 7abc
000001a0: a0c4 9ebd 05c2 823d 20e2 13bd 5693 153c
000001b0: 7235 16be 1efd d23d baa9 0a3e 0406 933d
000001c0: 938a 5b3d ef76 21bc a1f5 b43c 6be7 40bd
000001d0: 49fa 21bc 9f13 0fbd 1411 f2bb 86f0 e2bd
000001e0: 6a97 c03d d32d 1d3d a48f 95bd 1673 e9bd
000001f0: ea6a 143e 7182 f63c 491c b5ba c1e2 d33d
00000200: e05d abbd 8534 fb3a b196 083d 8be9 b13c
00000210: e51a c7bd f582 9d3d d070 5dbd 190e 7abc
00000220: 6641 e2ba de0c 0a3e 5b2e d93d b3ff 863c
00000230: 069d ac3d 19cb 013d c290 7fbd 4cb3 b63d
00000240: 7be5 f43d c48a b93c ad7a abbd 22a4 183c
00000250: ed82 17be 4da5 e8bd 9282 07bc 23dd dcbc
00000260: 82d4 a9bd 47c2 c0bd b90a e53d 56de b43d
00000270: ea64 b1bd d11a 0abd adc1 313d cb38 6c3d
00000280: d92f a6bd c86f 193c f80d c63d aeab 553d
00000290: 3c5a cc3d 0891 0bbe 9e75 80bd 5b1e e0bd
000002a0: b3b6 b33d 7d06 c0bd e4e1 8abd 25c6 6b3d
000002b0: 34bf c23d 92d5 a23d 9e8b a0bd 9188 843b
000002c0: 6dc5 8cbd 4769 3cbd f8a4 ee3d 34ae b3bd
000002d0: 4b42 e7bd 3976 ec3d 47e5 cbbc 8dcc c9bc
000002e0: e1c2 5d3d 1927 123d 2c88 98bc 81cd 003e
000002f0: bda8 243e b874 073e 8416 f23d 8518 d33d
00000300: 905c 6bbd 921c 5abd 1462 8d3c c060 f43d
00000310: 1fa7 613d 2e05 dbbd 2c2c aabd df47 13bd
00000320: 5fcd 1f3d d66f 06be 9187 2abd 029a 2cbd
00000330: 9940 1fbd 6d07 d6bc 9aef 023e 36a9 abbd
00000340: c467 12be 0275 a03d 76c5 64bd 092f ae3c
00000350: be78 c8bb 14ad e43d 0c05 e5bd a45d 71bd
00000360: f6c4 72bb 2a53 ca3d 9e55 c4bd 52e0 78bd
00000370: 0ae6 4c3d 03e4 043e 70c6 e03d ed84 f53d
00000380: c543 1cbc ead2 833d ca35 d43d 8035 ac3d
00000390: 964b b1ba 5a64 5abd 7e8c b0bc b8fc d33d
000003a0: 3a9f e5bd 406b a2bd 98f1 a0bd 5584 8cbd
000003b0: 1149 723d 19d9 093e 4138 a93c eb9f 40bd
000003c0: e942 c83c ce35 363e a6b0 173d 9608 ec3c
000003d0: 4ea0 653d d804 0d3d 7367 db3d 231a aa3d
000003e0: 59e5 cdbc 6f44 903d 91d6 ff3d 61d9 90bd
000003f0: a4b4 b0bb c060 0b3d b6cf 6b3d a4af 4c3d

l2.bias f4 [64]
0.12664363 -0.07063799 0.15367599 0.14931273 -0.10893816 -0.09122492 0.02291866 0.13588116
0.1063504 -0.0012617974 -0.11239844 -0.040383186 -0.071976766 -0.105791636 0.0061365133 0.16062364
0.0550132 -0.118106276 0.0954483 0.05475129 -0.06465239 -0.025508333 -0.072560005 0.14637163
-0.026019562 0.020585503 0.15258616 0.08033362 0.06285191 0.02703937 0.10783853 -0.095771104
0.08649098 -0.09329395 0.103521235 0.13714842 -0.07701206 -0.008840992 -0.072924815 0.057866823
0.11743375 0.023634246 -0.10234151 0.11282788 0.0879317 0.008711259 -0.08962135 0.023824248
0.065307125 0.09622634 0.0050450712 -0.109628364 0.06501932 -0.041607186 -0.08466756 0.03956845
-0.06400515 0.11309112 -0.009546379 0.067454465 0.081057824 -0.014073971 -0.036701985 -0.021003699
00000000: deae 013e a7aa 90bd 3d5d 1d3e 70e5 183e
00000010: f81a dfbd 21d4 babd eabf bb3c 6e24 0b3e
00000020: 3dce d93d e562 a5ba 2731 e6bd d768 25bd
00000030: 8e68 93bd 49a9 d8bd ce14 c93b 867a 243e
00000040: 8555 613d b4e1 f1bd 667a c33d e342 603d
00000050: 7968 84bd daf6 d0bc 579a 94bd 72e2 153e
00000060: fa26 d5bc eea2 a83c 8c3f 1c3e f485 a43d
00000070: 81b8 803d ab81 dd3c 72da dc3d a423 c4bd
00000080: 2f22 b13d e610 bfbd f102 d43d a370 0c3e
00000090: 80b8 9dbd cfd9 10bc 9b59 95bd c305 6d3d
000000a0: 1b81 f03d 9b9c c13c 6d98 d1bd 4e12 e73d
000000b0: 8915 b43d abb9 0e3c 668b b7bd 122b c33c
000000c0: bebf 853d 5112 c53d 2051 a53b d684 e0bd
000000d0: d928 853d 4c6c 2abd 3066 adbd 8712 223d
000000e0: 2215 83bd 519c e73d 6a68 1cbc 9125 8a3d
000000f0: a501 a63d 8396 66bc d254 16bd f30f acbc

l3.weight f4 [10, 64]
0.084334835 -0.1398328 -0.20554253 0.20976415 0.28992566 -0.24307464 0.21162292 0.20181358
0.19448793 -0.087534845 0.13769135 0.038696542 -0.015658457 0.104402564 -0.32523677 -0.24840586
-0.07765024 -0.06713723 -0.030855088 -0.22730492 -0.05811826 -0.06640731 -0.04343032 0.14558975
0.19585651 0.04884312 -0.08604271 -0.045056466 -0.15160157 -0.09602575 -0.18982619 -0.016711634
0.102802284 -0.11710249 -0.05406738 0.073663786 0.2043941 0.12466434 0.08289293 0.13386315
-0.020215712 0.013661714 0.14806642 0.1334509 0.19840583 -0.06950618 0.14723775 -0.07561499
-0.08940492 0.036852293 -0.09332599 -0.16060784 0.19403501 -0.0072561544 0.13765867 -0.027434947
-0.114615805 -0.19062375 0.02824554 -0.24194108 -0.214404 0.03348669 -0.14766356 0.10153935
0.059338514 0.23153168 0.33510914 -0.2971198 -0.13914227 0.045845803 -0.10937404 -0.034542818
0.19965287 -0.07486852 0.15119791 -0.12711711 -0.12813401 -0.016556906 0.2440744 0.23433983
0.14794649 -0.11677168 0.24624571 -0.1747747 -0.08504647 -0.03646933 0.14176312 -0.11480956
-0.29543573 -0.13786295 0.21049689 -0.04151957 -0.124125086 -0.16218385 -0.014713783 -0.1731775
-0.0318412 -0.09988418 -0.11117994 -0.1668954 -0.10609318 -0.11148878 0.08181726 -0.08585493
-0.03548302 -0.18037102 -0.039277736 -0.10494841 -0.1370956 -0.03663964 0.15938056 0.027278975
0.12860392 -0.19602612 0.088656954 -0.22756639 -0.25709027 -0.07895539 -0.09501999 -0.028806943
0.07839352 0.14033057 -0.08054644 0.08861483 0.2843925 -0.1112889 -0.007518406 0.086532794
-0.0010943124 -0.1823638 0.2768606 -0.008667541 -0.025939172 -0.21649207 -0.1196358 0.10373188
-0.13938995 0.0339341 -0.13156922 -0.092267 -0.058404386 -0.11747252 -0.12315998 0.04995512
0.10833201 0.16048855 0.12295525 0.12250756 -0.109815165 0.08052281 0.1640365 -0.05472606
-0.12053387 -0.13015506 -0.07820257 0.05393769 0.12715653 0.22549553 -0.01821894 0.18091084
-0.06979957 -0.07405253 0.06760043 0.23103355 -0.0040598623 -0.050394073 0.09348444 -0.14797382
0.06625148 -0.083904885 0.033438154 -0.011687428 0.3264156 0.14737639 -0.17607981 0.008449303
-0.03527906 -0.1425038 0.06659748 -0.20633563 0.04803605 0.21410465 0.09854145 0.04039154
-0.05519675 -0.10357501 -0.00288178 -0.019671353 0.19636251 0.16241255 0.0044305557 -0.058047008
0.1455792 0.22622658 0.10524693 -0.092076115 0.029379135 -0.17140351 0.2372189 -0.0907054
-0.22860056 0.041247956 0.073458485 0.0712824 0.22775821 0.20468907 -0.15631169 -0.083146885
0.10412606 -0.028225973 0.20478168 0.13703988 -0.0051125926 -0.045126278 -0.009619389 -0.21959662
-0.1442989 0.028446503 0.030212957 0.24237011 -0.016058952 -0.046459902 -0.19972205 0.09034757
0.06858829 0.05034019 0.031900115 -0.037933826 0.11967674 -0.04459914 0.07141786 -0.071868904
0.11572874 0.09602784 0.026216079 -0.061482374 -0.12471991 -0.05860001 0.22896259 0.13641022
-0.2063232 0.07321996 -0.1594226 0.038475264 -0.014588025 0.16637896 -0.18068236 0.07178941
-0.1182626 0.17808394 -0.026240481 0.0042898376 0.054818172 0.07220538 0.1934102 0.011271539
00000000: beb7 ac3d 5430 0fbe be79 52be 6acc 563e
00000010: 2371 943e 8fe8 78be aeb3 583e 38a8 4e3e
00000020: d827 473e 7845 b3bd f6fe 0c3e 4480 1e3d
00000030: 2a46 80bc 03d1 d53d 6f85 a6be 1b5e 7ebe
00000040: 1707 9fbd 3e7f 89bd cfc3 fcbc 9fc2 68be
00000050: 6a0d 6ebd 8e00 88bd fee3 31bd 7b15 153e
00000060: 9c8e 483e b90f 483d 2937 b0bd 218d 38bd
00000070: 713d 1bbe 26a9 c4bd cc61 42be d6e6 88bc
00000080: 018a d23d 6ed3 efbd c275 5dbd 0add 963d
00000090: b04c 513e 0450 ff3d c5c3 a93d 6c13 093e
000000a0: 6c9b a5bc 62d5 5f3c b99e 173e 5aa7 083e
000000b0: e62a 4b3e 4259 8ebd 7ec5 163e 08dc 9abd
000000c0: ed19 b7bd 6ef2 163d b221 bfbd 6276 24be
000000d0: 1db1 463e 09c5 edbb 65f6 0c3e 41bf e0bc
000000e0: b1bb eabd df32 43be 3163 e73c 67bf 77be
000000f0: b98c 5bbe 5729 093d 1e35 17be ddf3 cf3d
00000100: f10c 733d a416 6d3e 6d93 ab3e 1620 98be
00000110: 507b 0ebe cfc8 3b3d 7fff dfbd c57c 0dbd
00000120: cd71 4c3e ab54 99bd a0d3 1a3e fd2a 02be
00000130: 9035 03be 59a2 87bc a4ee 793e c8f6 6f3e
00000140: 497f 173e fe25 efbd d627 7c3e 24f8 32be
00000150: d82c aebd dd60 15bd 5a2a 113e 4621 ebbd
00000160: 5a43 97be f22b 0dbe 7f8c 573e 6d10 2abd
00000170: 4b35 febd 8613 26be 1412 71bc 7155 31be
00000180: eb6b 02bd 1490 ccbd 4fb2 e3bd a1e6 2abe
00000190: 6247 d9bd 3b54 e4bd cf8f a73d b6d4 afbd
000001a0: a556 11bd 2eb3 38be b1e1 20bd 31ef d6bd
000001b0: ca62 0cbe 7213 16bd a834 233e 2878 df3c
000001c0: bfb0 033e 12bb 48be c791 b53d 2a07 69be
000001d0: 56a1 83be 5db3 a1bd d799 c2bd 8afc ebbc
000001e0: c88c a03d d1b2 0f3e 88f5 a4bd b17b b53d
000001f0: e59b 913e 6feb e3bd f65c f6bb 1b38 b13d
00000200: 086f 8fba 93bd 3abe acc0 8d3e 4d02 0ebc
00000210: 637e d4bc 19b0 5dbe 9d03 f5bd 6171 d43d
00000220: 3dbc 0ebe 7cfe 0a3d 15ba 06be 7bf6 bcbd
00000230: 7039 6fbd 6f95 f0bd 4d3b fcbd bd9d 4c3d
00000240: 2cdd dd3d 1c57 243e f6cf fb3d 3ee5 fa3d
00000250: c6e6 e0bd 25e9 a43d 2ff9 273e 6f28 60bd
00000260: 76da f6bd 5e47 05be ab28 a0bd c4ed 5c3d
00000270: 5235 023e 4de8 663e e33f 95bc b140 393e
00000280: 14f3 8ebd daa8 97bd 1872 8a3d 0f94 6c3e
00000290: 9808 85bb 046a 4ebd c574 bf3d 7386 17be
000002a0: dbae 873d 53d6 abbd 72f6 083d a07c 3fbc
000002b0: f21f a73e d6e9 163e 444e 34be f26e 0a3c
000002c0: c780 10bd 84ec 11be 4264 883d a649 53be
000002d0: 73c1 443d 403e 5b3e 1ad0 c93d 9971 253d
000002e0: fd15 62bd 231f d4bd 3fdc 3cbb d125 a1bc
000002f0: 4113 493e 7a4f 263e 322e 913b b3c2 6dbd
00000300: b712 153e f1a7 673e b48b d73d 6792 bcbd
00000310: 83ac f03c 6784 2fbe 83e9 723e c1c3 b9bd
00000320: 4416 6abe 9ef3 283d 6771 963d 82fc 913d
00000330: 7339 693e 039a 513e 2c10 20be ea48 aabd
00000340: 0b40 d53d 283a e7bc 4ab2 513e 2f54 0c3e
00000350: 8987 a7bb 55d6 38bd a49a 1dbc f0dd 60be
00000360: 17c3 13be a408 e93c 2a81 f73c df2f 783e
00000370: 108e 83bc bd4c 3ebd f083 4cbe 2608 b93d
00000380: 0478 8c3d 8431 4e3d b2a9 023d 8060 1bbd
00000390: 1419 f53d 96ad 36bd 8743 923d 0130 93bd
000003a0: 3103 ed3d 3faa c43d 1ac3 d63c f1d4 7bbd
000003b0: 276d ffbd 9006 70bd 2b75 6a3e 1faf 0b3e
000003c0: 6446 53be 59f4 953d ae3f 23be 3d98 1d3d
000003d0: 9d02 6fbc 3f5f 2a3e cc04 39be 5406 933d
000003e0: a933 f2bd a35b 363e 47f6 d6bc c491 8c3b
000003f0: 0589 603d 6ae0 933d 530d 463e 43ac 383c

l3.bias f4 [10]
-0.039638028 0.1565088 -0.08791616 -0.1302706 -0.0532814 0.16179876 -0.027528321 -0.07520728
-0.06464637 -0.13402921
00000000: 7c5b 22bd d843 203e 630d b4bd a865 05be
00000010: 993d 5abd 93ae 253e 1383 e1bc 4606 9abd
00000020: 5165 84bd f43e 09be
