lightning_logs/version_7/checkpoints/epoch=2-step=5625.ckpt (torch, 225107 bytes, 6 tensors)

l1.weight f4 [64, 784]
-0.008190479 -0.030584106 -0.01213895 -0.00432894 0.03351293 -0.026753303 0.008024581 0.02710617
0.029964749 0.00056710094 -0.030129842 0.025946084 -0.0028141795 0.012425909 -0.026232595 -0.0071718153
0.016126592 0.023802578 -0.034341943 0.014638983 -0.001787655 0.026988227 -0.01858828 0.011548452
-0.026624255 0.023276422 0.007168688 -0.021585666 0.013012648 -0.011859052 -0.022048496 0.03216589
-0.008219649 0.025401587 0.026946006 0.022602243 -0.010035426 -0.01846748 0.02463115 0.0066305264
-0.012787229 0.0066795526 -0.024633432 0.014553219 0.028291073 -0.023456812 0.027035564 -0.015156476
-0.010416963 0.01976036 0.0014051441 0.031645842 0.0015234426 0.030711774 -0.00014173612 0.022059154
0.004466649 0.020399556 -0.025815409 -0.024588143 0.023215557 -0.014226538 -0.02515161 -0.004017584
0.009364728 -0.00964086 0.0056261555 -0.011494941 0.012875366 -0.008611433 -0.008956191 -0.015455887
-0.0017754007 0.0072515393 -0.032324277 0.029028539 -0.033017796 -0.014407606 -0.009093652 -0.0012846774
0.0066800914 -0.012726949 0.02146744 -0.027041048 0.0049121715 0.03483243 -0.020164466 0.010072386
-0.013769973 0.017520482 0.030996256 -0.011036312 0.003456425 0.008075373 0.024084471 0.005533732
0.028880386 -0.024346054 0.033987004 0.0058451975 0.03637425 -0.002008319 0.003976662 -0.023381818
-0.017664434 -0.023487942 0.022840286 0.025897458 -0.0285895 0.022720098 -0.019947186 0.019624364
0.0047518313 -0.016976794 0.020392764 0.0074709067 -0.02740011 -0.013515295 0.018520255 0.03257023
0.036593266 0.036631983 0.017439412 0.037809405 0.04117493 0.008666986 -0.0035688458 0.01727766
0.03668282 0.026871433 -0.010311263 0.036203098 0.034925003 0.01718858 -0.010783732 0.03507741
0.0034410402 0.011856456 0.014596633 -0.0059430166 0.014402732 -0.031075403 0.033508167 -0.019500248
-0.033324815 0.003220249 -0.025063368 0.018315667 0.0025773617 0.009782752 0.011823642 0.036674935
-0.005453658 -0.00706998 0.031779863 -0.0035424305 0.021056904 0.043962445 -0.0078198705 0.016174555
0.031441227 0.023739973 0.0116530545 -0.020438615 -0.017749729 -0.03564276 -0.03104359 -0.0075569297
0.006497804 -0.01672262 0.0077685663 0.035466358 0.0036697593 0.01942108 0.02005259 -0.021479085
0.022170942 0.016537094 0.03639872 -0.018947935 0.05135726 0.008682283 -0.010286887 0.0515022
-0.00041170558 -0.00054419105 0.011684671 -0.012348707 -0.019808976 -0.0032813645 -0.026251612 0.030884162
-0.012707172 -0.033375695 -0.017278215 0.021324392 0.01056152 -0.022945024 0.0035002504 0.0067648655
0.015959125 -0.023010297 0.016358232 0.0204428 0.037790477 0.028620087 0.001598682 0.019161128
0.022792436 0.02411593 -0.014293124 -0.03519836 0.0069588865 -0.02880988 -0.00041896754 -0.0063071004
0.019862631 -0.031165067 0.019363454 0.0045361244 0.03261625 0.032863367 0.0034999445 0.0145382155
0.013551396 0.024656957 0.020537592 0.030077532 -0.030970432 0.015592984 -0.014043174 -0.008992462
-0.030805137 0.010063412 -0.028156087 -0.03832334 -0.013957635 -0.05619249 0.0004573493 -0.01457031
0.0060181757 0.0030291285 -0.03112253 0.030946948 -0.019884393 -0.04001428 -0.034187898 -0.021630818
-0.015778916 -0.03009735 0.012983573 0.020266114 -0.02522132 0.017213076 -0.010548494 0.0071692523
00000000: 5c31 06bc 858b fabc 72e2 46bc c8d9 8dbb
00000010: db44 093d be29 dbbc 8879 033c c20d de3c
00000020: a278 f53c 80a9 143a dcd2 f6bc e28c d43c
00000030: 196e 38bb 0a96 4b3c bde5 d6bc 8c01 ebbb
00000040: ea1b 843c a0fd c23c 23aa 0cbd 58d8 6f3c
00000050: c04f eaba 6a16 dd3c 7346 98bc b835 3d3c
00000060: 1c1b dabc 32ae be3c 50e7 ea3b 6cd4 b0bc
00000070: 0033 553c 784c 42bc 0c9f b4bc 61c0 033d
00000080: b5ab 06bc fd16 d03c dfbd dc3c 5728 b93c
00000090: a16b 24bc 1d49 97bc 44c7 c93c e344 d93b
000000a0: 8781 51bc 26e0 da3b 0dcc c9bc a070 6e3c
000000b0: aec2 e73c 8028 c0bc b079 dd3c de52 78bc
000000c0: e9ab 2abc 7ae0 a13c d02c b83a 129f 013d
000000d0: 40ae c73a 4297 fb3c 009f 14b9 66b5 b43c
000000e0: f85c 923b f81c a73c d67a d3bc 136d c9bc
000000f0: 8d2e be3c 6d16 69bc c00a cebc f0a5 83bb
00000100: 846e 193c b3f4 1dbc 9d5b b83b 4755 3cbc
00000110: 33f3 523c f816 0dbc fdbc 12bc b03a 7dbc
00000120: 90b4 e8ba 529e ed3b 7666 04bd 42cd ed3c
00000130: ab3d 07bd e10d 6cbc 8afd 14bc 9f62 a8ba
00000140: abe4 da3b b184 50bc 7cdc af3c 3085 ddbc
00000150: 48f6 a03b 73ac 0e3d f32f a5bc a606 253c
00000160: 749b 61bc 1d87 8f3c dceb fd3c a6d1 34bc
00000170: 3085 623b 924e 043c cc4c c53c 4f54 b53b
00000180: 8f96 ec3c 6071 c7bc f535 0b3d 1289 bf3b
00000190: 2afd 143d 009e 03bb a94e 823b 3a8b bfbc
000001a0: 01b5 90bc c969 c0bc 8d1b bb3c e826 d43c
000001b0: 8734 eabc 801f ba3c 4868 a3bc 46c3 a03c
000001c0: 40b5 9b3b eb12 8bbc ba0e a73c 82ce f43b
000001d0: 3276 e0bc 426f 5dbc cab7 973c 5d68 053d
000001e0: d2e2 153d 6b0b 163d 19dd 8e3c 09de 1a3d
000001f0: 0ba7 283d f9ff 0d3c 4ce3 69bb e189 8d3c
00000200: ba40 163d 7b21 dc3c 92f0 28bc b349 143d
00000210: 850d 0f3d 11cf 8c3c 40ae 30bc 55ad 0f3d
00000220: 1383 613b 9541 423c b726 6f3c a3bd c2bb
00000230: 70f9 6b3c d891 febc dc3f 093d fcbe 9fbc
00000240: 9a7f 08bd d00a 533b b151 cdbc bd0a 963c
00000250: f4e8 283b d647 203c f3b7 413c 7538 163d
00000260: 99b4 b2bb 4aab e7bb 9a2b 023d 1f28 68bb
00000270: 877f ac3c f711 343d ea1e 00bc 8080 843c
00000280: 84c8 003d 557a c23c 74ec 3e3c e26e a7bc
00000290: e167 91bc 25fe 11bd 204f febc 1fa0 f7bb
000002a0: 88eb d43b e0fd 88bc 758f fe3b 2c45 113d
000002b0: 5880 703b f518 9f3c 5445 a43c e8f4 afbc
000002c0: d69f b53c cd78 873c d316 153d b338 9bbc
000002d0: fe5b 523d 2240 0e3c 558a 28bc f9f3 523d
000002e0: 30da d7b9 0ba8 0eba 1071 3f3c 3b52 4abc
000002f0: 6f46 a2bc 290c 57bb 9f0d d7bc c800 fd3c
00000300: be31 50bc f4b4 08bd 0b8b 8dbc 7eb0 ae3c
00000310: 3a0a 2d3c 34f7 bbbc 7564 653b ceab dd3b
00000320: b6bc 823c 1780 bcbc b301 863c a977 a73c
00000330: 30ca 1a3d ac74 ea3c de8a d13a ccf7 9c3c
00000340: 34b7 ba3c c58e c53c b52d 6abc 282c 10bd
00000350: 5f07 e43b b302 ecbc dfa8 dbb9 cbab cebb
00000360: f5b6 a23c e24d ffbc 1ba0 9e3c c5a3 943b
00000370: 9e98 053d bd9b 063d 535f 653b b231 6e3c
00000380: ad06 5e3c 63fd c93c 743e a83c 2865 f63c
00000390: b4b5 fdbc b779 7f3c 5715 66bc 1f55 13bc
000003a0: 0e5b fcbc 02e1 243c 98a7 e6bc eff8 1cbd
000003b0: 90ae 64bc 192a 66bd 62c8 ef39 4fb8 6ebc
000003c0: 1e34 c53b 5884 463b adf4 febc 7484 fd3c
000003d0: 98e4 a2bc 03e6 23bd 9c08 0cbd 1d33 b1bc
000003e0: c942 81bc b88e f6bc 0db9 543c 1f05 a63c
000003f0: f19c cebc 7002 8d3c 97d3 2cbc 0cec ea3b

l1.bias f4 [64]
0.049389854 -0.0057264403 -0.026840383 0.030431736 0.018980877 0.046785627 0.019538904 0.061352912
0.0140146315 -0.006643004 -0.01818573 0.014798748 -0.008180779 0.016665002 -0.01331366 0.008009899
-0.005785141 0.043633968 0.005990194 -0.008167244 -0.007800053 0.048710957 0.02431836 0.017281422
-0.0409706 -0.03298053 0.061426368 0.018483195 0.043982565 -0.01313741 0.03787528 0.033663616
0.032187972 0.035201825 0.030954225 -0.0022020536 0.011784255 0.024512658 0.047022764 -0.0035591885
-0.027125426 0.008418476 0.043067086 0.049098283 0.031743217 0.0063231266 0.025879212 -0.029747467
0.010725106 0.0052392143 -0.028080942 0.029212903 0.016726755 0.03424422 0.0022604791 0.03858539
0.030878304 0.0013097293 0.056974903 0.03560586 0.01863709 0.034462906 0.0043484233 0.015193696
00000000: 044d 4a3d dda4 bbbb 5de0 dbbc fa4b f93c
00000010: c97d 9b3c 49a2 3f3d 0d10 a03c 314d 7b3d
00000020: a09d 653c 8ead d9bb 3dfa 94bc 7376 723c
00000030: ad08 06bc 0b85 883c 8a21 5abc f43b 033c
00000040: 4891 bdbb 88b9 323d 6449 c43b e7cf 05bc
00000050: 9697 ffbb 2485 473d 4c37 c73c c591 8d3c
00000060: cad0 27bd 9816 07bd 379a 7b3d 126a 973c
00000070: 1027 343d 4b3e 57bc 1c23 1b3d dce2 093d
00000080: 89d7 033d ca2f 103d b793 fd3c 5450 10bb
00000090: bf12 413c c5ce c83c f19a 403d 4641 69bb
000000a0: 2436 debc a6ed 093c 1d67 303d 481b 493d
000000b0: 2d05 023d 3b32 cf3b a400 d43c f6b0 f3bc
000000c0: 5bb8 2f3c b7ad ab3b 010a e6bc e64f ef3c
000000d0: 8c06 893c ab43 0c3d 8c24 143b b70b 1e3d
000000e0: 7ff4 fc3c 39ab ab3a 845e 693d 73d7 113d
000000f0: d0ac 983c fa28 0d3d 387d 8e3b fbee 783c

l2.weight f4 [64, 64]
-0.032715395 0.0120271845 -0.11506974 0.08384138 0.095416464 -0.07874557 0.00019976361 -0.114478976
0.033656485 0.11228035 -0.046455503 -0.053232685 -0.06679138 0.10397648 -0.06312338 0.020776808
-0.085866794 -0.026143366 -0.03101914 -0.03852517 -0.064876 0.14788967 -0.012842403 -0.066494286
0.052500207 -0.008503923 0.0484611 0.032160487 -0.071347184 0.024794113 -0.066551276 0.054116912
0.14709786 0.124127075 0.10591471 -0.0076545053 -0.10364973 -0.1002217 -0.02939854 -0.09453441
-0.11299534 0.020764908 -0.031173954 -0.10302152 -0.11854925 -0.021455295 0.11863189 0.0233524
0.03281101 -0.0446788 0.059526768 -0.08498692 0.06035879 0.11584058 -0.026797155 0.09132875
0.06891016 0.02233025 -0.0507621 0.090650275 0.04789573 -0.09826001 0.08663794 0.09701618
-0.02274762 0.08377618 -0.11522115 0.08908104 -0.06310722 -0.017440978 0.11010032 -0.013799274
-0.12255627 0.07554098 -0.06421042 -0.101332605 0.07269507 0.07113542 0.070604034 -0.016811281
-0.10885171 0.1522444 0.012237096 -0.07918152 -0.08620266 0.036423527 -0.012454645 0.058049805
-0.06477033 0.026505353 -0.057503264 0.06505877 0.034167778 0.002942326 0.06987882 -0.07241468
0.13157548 0.026933119 -0.059796475 0.101816036 -0.07823316 0.019051787 -0.04951201 -0.027137725
-0.052030154 0.11026737 0.10441823 0.052354008 -0.06981845 -0.018888101 -0.102655046 -0.117290825
-0.118955724 0.017460102 0.042130128 0.09756003 -0.07463512 0.030935023 -0.05028995 0.02774994
-0.114430584 0.018991016 0.01185536 0.017517025 -0.107668094 0.07525922 0.08499432 -0.06701757
0.06462526 0.091457605 -0.06878716 -0.060404375 -0.04867655 -0.046674132 -0.0575262 -0.020718753
0.06966546 0.115631014 0.08981609 -0.10327828 -0.02805762 0.10835023 -0.056269407 -0.029822975
0.08924109 -0.08408511 0.06092626 0.027365014 -0.012981355 -0.012784854 -0.118902445 -0.077387944
-0.07339387 -0.020423964 -0.10745615 0.011305422 0.028456837 0.031690523 -0.028413787 -0.07683553
-0.014506832 -0.054515794 -0.09975445 -0.09690395 -0.0012863129 -0.086334005 -0.0018541217 0.010224864
-0.018927202 -0.07824285 -0.018375948 0.03986627 0.07175143 -0.08569205 -0.07849674 -0.026971132
0.014549375 0.02239436 -0.01775305 -0.09147315 -0.07809657 -0.04246378 0.022835374 -0.11443359
-0.11994286 -0.025606409 -0.09656429 -0.013800934 0.09990603 -0.05177234 -0.119031966 -0.07766606
0.10310221 -0.012432508 0.118694656 -0.047539998 -0.12179597 0.060048353 0.06666214 -0.057031725
0.0021917566 0.06800461 0.070576645 0.046207182 -0.03824635 0.08683504 0.038523827 -0.048784364
0.006998518 0.053266123 -0.050473668 -0.06679195 0.001462474 -0.10580569 -0.069723226 0.0074927197
0.044192683 0.030344436 0.010425941 0.12411336 0.040848803 -0.07401691 0.086106576 0.101939194
-0.06070388 -0.09224476 -0.115177944 -0.03097799 -0.044396587 -0.037221085 0.026289038 -0.068303406
0.098830156 0.12391256 -0.060096055 -0.06565989 -0.0556293 0.10586885 0.08195311 0.074014835
-0.025108906 0.08287941 0.0900785 0.104444884 -0.08144814 0.113943264 0.15478212 0.122374736
-0.118556604 0.09682725 0.12403517 -0.10891987 -0.12003824 0.09739843 -0.09842339 -0.031695105
00000000: 9400 06bd ab0d 453c afa9 ebbd 08b5 ab3d
00000010: b569 c33d 5b45 a1bd a377 5139 f473 eabd
00000020: 62db 093d 3df3 e53d 2048 3ebd 840a 5abd
00000030: ebc9 88bd 9ff1 d43d d546 81bd 2034 aa3c
00000040: eeda afbd 9d2a d6bc da1b febc 92cc 1dbd
00000050: b5dd 84bd 6470 173e f168 52bc 282e 88bd
00000060: 750a 573d 0a54 0bbc 257f 463d b7ba 033d
00000070: 791e 92bd 061d cb3c 094c 88bd b2a9 5d3d
00000080: d2a0 163e 5636 fe3d d0e9 d83d a5d2 fabb
00000090: 4f46 d4bd 0941 cdbd 35d5 f0bc 429b c1bd
000000a0: 1a6a e7bd 2b1b aa3c 8560 ffbc f2fc d2bd
000000b0: f3c9 f2bd 04c3 afbc 47f5 f23d 884d bf3c
000000c0: d664 063d 1e01 37bd 57d2 733d 9f0d aebd
000000d0: c73a 773d d33d ed3d b585 dbbc 910a bb3d
000000e0: c520 8d3d eeed b63c ebeb 4fbd daa6 b93d
000000f0: 502e 443d 8b3c c9bd 3b6f b13d 6bb0 c63d
00000100: 3759 babc d992 ab3d 11f9 ebbd 1f70 b63d
00000110: 5c3e 81bd 62e0 8ebc 477c e13d 5a16 62bc
00000120: c8fe fabd 3bb5 9a3d c180 83bd 7887 cfbd
00000130: 27e1 943d 72af 913d d998 903d d0b7 89bc
00000140: a5ed debd f5e5 1b3e 1a7e 483c ec29 a2bd
00000150: 058b b0bd d630 153d 910e 4cbc a2c5 6d3d
00000160: 4fa6 84bd c121 d93c 8b88 6bbd 883d 853d
00000170: 83f3 0b3d 0ad4 403b a01c 8f3d 264e 94bd
00000180: b9bb 063e d8a2 dc3c 26ed 74bd ed84 d03d
00000190: b538 a0bd 7e12 9c3c 1bcd 4abd ef4f debc
000001a0: 921d 55bd dcd3 e13d 3ad9 d53d 2871 563d
000001b0: fafc 8ebd 38bb 9abc cf3c d2bd 2c36 f0bd
000001c0: 0f9f f3bd 7d08 8f3c a490 2c3d 8ecd c73d
000001d0: 4cda 98bd 726b fd3c d6fc 4dbd d853 e33c
000001e0: 955a eabd 0c93 9b3c fc3c 423c dd7f 8f3c
000001f0: 1781 dcbd 8221 9a3d 8111 ae3d 8240 89bd
00000200: 405a 843d 204e bb3d 48e0 8cbd 946a 77bd
00000210: 1061 47bd 602d 3fbd 98a0 6bbd 60ba a9bc
00000220: c4ac 8e3d f4cf ec3d 80f1 b73d 9083 d3bd
00000230: 18d9 e5bc bae6 dd3d c07a 66bd 504f f4bc
00000240: 08c4 b63d d034 acbd d08d 793d 982c e03c
00000250: c0af 54bc 9077 51bc 2083 f3bd 927d 9ebd
00000260: 864f 96bd 2850 a7bc f811 dcbd 603a 393c
00000270: 501e e93c eccd 013d 08c4 e8bc f25b 9dbd
00000280: 10ae 6dbc f44b 5fbd 104c ccbd 9475 c6bd
00000290: 8099 a8ba e2cf b0bd 0006 f3ba 3086 273c
000002a0: 380d 9bbc ca3d a0bd 2889 96bc d04a 233d
000002b0: 6af2 923d 507f afbd e6c2 a0bd 90f2 dcbc
000002c0: 8060 6e3c 6074 b73c d86e 91bc 4656 bbbd
000002d0: 18f1 9fbd 80ee 2dbd 4011 bb3c 285c eabd
000002e0: 9aa4 f5bd 88c4 d1bc 80c3 c5bd 501d 62bc
000002f0: 889b cc3d 3c0f 54bd 08c7 f3bd 620f 9fbd
00000300: 4027 d33d b8b1 4bbc 2f16 f33d 4db9 42bd
00000310: 2a70 f9bd 43f5 753d 2986 883d 199a 69bd
00000320: 93a3 0f3b 0046 8b3d 7d8a 903d be43 3d3d
00000330: 34a8 1cbd 92d6 b13d 29cb 1d3d 1dd2 47bd
00000340: d353 e53b 942d 5a3d 7abd 4ebd 38ca 88bd
00000350: 7cb0 bf3a a7b0 d8bd 0dcb 8ebd 7d85 f53b
00000360: 6303 353d e594 f83c 91d1 2a3c 252f fe3d
00000370: 1351 273d 2d96 97bd a558 b03d 7fc5 d03d
00000380: a2a4 78bd d2ea bcbd 6ae2 ebbd 8ec5 fdbc
00000390: 32d9 35bd 2375 18bd 1c5c d73c a8e2 8bbd
000003a0: 7767 ca3d dec5 fd3d 4827 76bd b178 86bd
000003b0: 8ddb 63bd c5d1 d83d 08d7 a73d 1795 973d
000003c0: 31b1 cdbc aebc a93d 147b b83d 33e7 d53d
000003d0: 48ce a6bd 165b e93d 347f 1e3e 9b9f fa3d
000003e0: cecd f2bd 5e4d c63d 2706 fe3d 6111 dfbd
000003f0: 9cd6 f5bd d478 c73d 3492 c9bd bad2 01bd

l2.bias f4 [64]
0.03423611 -0.038271002 -0.085675985 0.03647345 0.053899523 -0.10890689 -0.12134873 -0.060971353
-0.074230954 -0.029634185 -0.02830394 0.027711943 -0.060126554 -0.1403364 0.006262481 0.09760078
0.051146045 -0.071043715 -0.0156239765 0.0066395355 -0.07949698 -0.11952029 -0.09923768 -0.02277184
0.09020951 0.07758299 -0.06257673 0.040431235 -0.07271469 -0.120411865 0.0073208525 0.01865004
0.026861912 -0.040209524 -0.11475529 0.116903566 -0.05900264 -0.08960974 0.09432009 0.119652234
0.07694019 -0.025177617 0.12010172 -0.078809924 -0.04586297 -0.032018412 0.11255243 -0.029875228
-0.03350875 -0.07908042 0.13603441 -0.07304782 -0.03071861 -0.025089074 0.070793375 -0.1364477
0.02668134 -0.087388605 0.073549144 0.09691301 0.17204295 -0.040077582 -0.07465552 -0.12534858
00000000: 2a3b 0c3d 0ec2 1cbd e476 afbd 2f65 153d
00000010: bfc5 5c3d 930a dfbd af85 f8bd 19bd 79bd
00000020: 6606 98bd 64c3 f2bc aadd e7bc 2804 e33c
00000030: 4347 76bd 58b4 0fbe 8035 cd3b ebe2 c73d
00000040: 847e 513d 5e7f 91bd b5fb 7fbc 7690 d93b
00000050: 50cf a2bd 0ec7 f4bd 203d cbbd 038c babc
00000060: c3bf b83d d5e3 9e3d 3b28 80bd 399b 253d
00000070: 70eb 94bd 7f9a f6bd c3e3 ef3b f8c7 983c
00000080: 830d dc3c beb2 24bd d204 ebbd 236b ef3d
00000090: c1ac 71bd 5085 b7bd e42a c13d 3b0c f53d
000000a0: d192 9d3d 4a41 cebc e4f7 f53d 1967 a1bd
000000b0: cfda 3bbd bd25 03bd e381 e63d e5bc f4bc
000000c0: 7940 09bd eaf4 a1bd 9b4c 0b3e 189a 95bd
000000d0: 98a5 fbbc 9a87 cdbc 1efc 903d f2b8 0bbe
000000e0: d392 da3c ccf8 b2bd efa0 963d 547a c63d
000000f0: 072c 303e 6428 24bd fee4 98bd 615b 00be

l3.weight f4 [10, 64]
-0.13502857 -0.13531557 -0.034995425 -0.074475646 0.2185639 -0.054628238 -0.016593086 0.18900527
0.025854101 0.05107186 0.09221208 0.10970461 -0.06271168 -0.07370335 0.04390487 0.07919747
-0.0684626 -0.034405127 0.03364758 -0.10852058 0.15743768 -0.18215352 0.07177817 0.029672526
0.035141315 -0.12118262 -0.0013228377 0.08538979 -0.19026534 0.045193702 0.07798361 -0.16780336
-0.14424598 -0.06866378 0.16966332 0.3177469 -0.061296616 0.06263875 -0.11002175 -0.17659135
-0.1324919 -0.17832942 -0.14579292 -0.016166044 -0.06289229 -0.03917195 -0.21531262 -0.0007465615
0.03446236 0.13091853 -0.15131676 0.09609151 0.23848507 0.1677098 -0.13540652 -0.11395115
0.06783114 0.05337727 -0.07408543 -0.2546883 0.10081323 0.20566466 0.097827226 0.07562041
0.2555202 0.089201406 0.0015178251 -0.13647546 0.04128559 0.075171016 -0.09959068 -0.25205928
0.13200746 0.0018576096 0.046771053 -0.034618225 -0.10602362 -0.23061848 0.016487999 0.19240361
-0.0548274 -0.060927927 -0.24651591 -0.052671537 0.068106435 0.113688074 0.029137194 -0.1455275
0.032440696 0.031008342 0.12096204 -0.042181704 -0.05654853 -0.033859294 -0.21607119 0.060738157
0.17285588 0.007929114 0.0011692351 -0.1949555 -0.030756919 -0.095796764 0.12031216 -0.12887943
-0.09055214 -0.15987833 0.19094959 0.075979285 -0.017760392 0.070351444 -0.060536295 0.09146181
0.22357291 -0.26004246 -0.020902386 -0.09097968 -0.11673771 -0.15851745 0.073062934 0.033177372
-0.16061006 0.009500709 0.16408277 0.37741053 0.038233455 -0.11518602 0.049296565 0.06585993
0.14236484 -0.11187928 -0.108304836 0.21521023 -0.011770774 -0.15568675 0.13376376 -0.10375183
-0.05561418 0.13908446 0.16087711 0.05127047 -0.1881854 0.1955136 -0.0107400445 -0.031111492
-0.081569806 -0.0620598 -0.008392553 -0.12977177 0.13035704 0.04538685 -0.11530162 0.15742399
-0.03258904 -0.024907406 0.07826465 0.02193062 0.087577835 0.08155966 -0.20970263 0.043980375
-0.1868136 0.13105856 -0.069888294 -0.19821475 0.13107613 -0.017467232 -0.022927044 -0.10264727
-0.13572507 -0.1262927 0.04502908 -0.20086859 -0.21560554 0.020973874 0.0841359 -0.0656273
-0.0529275 0.13634291 -0.08791031 0.16448493 0.0028612814 0.1654671 0.21501763 -0.06553219
0.0133317765 0.0017060164 0.0059688305 -0.009637307 -0.15744855 -0.012265812 0.12927966 0.19503097
0.12148515 -0.13958889 0.0021765393 -0.09741681 -0.02919544 0.14185354 0.18042965 -0.27662015
-0.11545924 0.10195739 0.111464806 0.06497776 0.08500128 0.03913284 0.055476673 0.07767542
-0.012626549 -0.10757399 -0.24369523 0.085623905 0.15066363 -0.11136391 -0.0721723 0.13527311
0.12145811 -0.1825264 0.06721428 0.07339167 -0.023387387 0.11920351 0.0658905 0.008393283
0.03045096 0.10364688 0.13040604 -0.031993944 -0.09975894 0.19068408 0.061473083 0.06173914
0.056540344 -0.13690774 -0.20378268 -0.053861223 -0.12873824 -0.08262809 0.12703793 -0.0762696
-0.09875554 -0.036487415 -0.10303304 -0.054918524 0.20774902 -0.0984231 -0.10325909 -0.13200839
0.118470825 -0.15151396 0.043857425 0.1387556 0.07849732 0.10395575 -0.028658738 0.15646869
00000000: ee44 0abe 2a90 0abe 5d57 0fbd b086 98bd
00000010: 37cf 5f3e dcc1 5fbd 39ee 87bc 998a 413e
00000020: fbcb d33c ba30 513d b0d9 bc3d d0ac e03d
00000030: fb6e 80bd c8f1 96bd 98d5 333d 4832 a23d
00000040: 1f36 8cbd 64ec 0cbd 0bd2 093d 0a40 debd
00000050: 5837 213e 7486 3abe 6f00 933d cc13 f33c
00000060: 57f0 0f3d 982e f8bd 1163 adba d8e0 ae3d
00000070: ebd4 42be 081d 393d dfb5 9f3d a5d4 2bbe
00000080: 38b5 13be 999f 8cbd 39bc 2d3e b9af a23e
00000090: 2912 7bbd bf48 803d 1553 e1bd 5dd4 34be
000000a0: f5ab 07be fd9b 36be bd4a 15be a76e 84bc
000000b0: accd 80bd c472 20bd e97a 5cbe e5b4 43ba
000000c0: 6728 0d3d 820f 063e c8f2 1abe a0cb c43d
000000d0: 6e35 743e 1ebc 2b3e 02a8 0abe 385f e9bd
000000e0: 0deb 8a3d 20a2 5a3d 1aba 97bd 8166 82be
000000f0: 2b77 ce3d c299 523e a459 c83d e0de 9a3d
00000100: 8bd3 823e 3aaf b63d c2f1 c63a 39c0 0bbe
00000110: 141b 293d 43f3 993d 33f6 cbbd ea0d 81be
00000120: f72c 073e 097b f33a 0193 3f3d d7cb 0dbd
00000130: e922 d9bd 4027 6cbe d711 873c 7405 453e
00000140: b292 60bd 908f 79bd ab6e 7cbe 1cbe 57bd
00000150: 637b 8b3d 4bd5 e83d 20b1 ee3c 2905 15be
00000160: 89e0 043d 3505 fe3c f2ba f73d b9c6 2cbd
00000170: 6e9f 67bd 0bb0 0abd c441 5dbe 93c8 783d
00000180: 2201 313e 1de9 013c 0541 993a 6aa2 47be
00000190: eff5 fbbc 1831 c4bd 3966 f63d f8f8 03be
000001a0: 6673 b9bd 25b7 23be 4a88 433e 079b 9b3d
000001b0: 3e7e 91bc 6b14 903d e8f4 77bd 5450 bb3d
000001c0: 4cf0 643e 4924 85be 7b3b abbc 8e53 babd
000001d0: 2e14 efbd 6652 22be 05a2 953d ffe4 073d
000001e0: f776 24be dda8 1b3c 5005 283e f43b c13e
000001f0: af9a 1c3d a6e6 ebbd 32eb 493d 92e1 863d
00000200: 17c8 113e f720 e5bd edce ddbd 1260 5c3e
00000210: 34da 40bc 596c 1fbe 5ef9 083e d77b d4bd
00000220: b2cb 63bd 286c 0e3e f8bc 243e fc00 523d
00000230: acb3 40be b834 483e 03f7 2fbc 87dd febc
00000240: 120e a7bd 6b32 7ebd eb80 09bc e4e2 04be
00000250: 517c 053e 90e7 393d 4123 ecbd c133 213e
00000260: 167c 05bd 9e0a ccbc 3849 a03d d8a7 b33c
00000270: 025c b33d c008 a73d 49bc 56be c424 343d
00000280: 104c 3fbe 3734 063e 9821 8fbd cff8 4abe
00000290: d238 063e 7117 8fbc 7fd1 bbbc bb38 d2bd
000002a0: 83fb 0abe e052 01be 6a70 383d 7fb0 4dbe
000002b0: b3c7 5cbe 67d1 ab3c 714f ac3d 9b67 86bd
000002c0: 82ca 58bd 7a9d 0b3e 520a b4bd bd6e 283e
000002d0: 5684 3b3b 3570 293e 952d 5c3e be35 86bd
000002e0: 866d 5a3c 699c df3a 2e96 c33b cce5 1dbc
000002f0: 313a 21be 8bf6 48bc e361 043e 33b6 473e
00000300: 35cd f83d 64f0 0ebe 45a4 0e3b 7782 c7bd
00000310: 462b efbc 0e42 113e 8dc2 383e 28a1 8dbe
00000320: e575 ecbd 09cf d03d a947 e43d 0f13 853d
00000330: 2715 ae3d c249 203d 823b 633d 4a14 9f3d
00000340: 96df 4ebc c14f dcbd 3e8b 79be 965b af3d
00000350: 9147 1a3e c312 e4bd 12cf 93bd 0985 0a3e
00000360: 08bf f83d 33e8 3abe a4a7 893d 5f4e 963d
00000370: e896 bfbc f820 f43d 99f1 863d fb83 093c
00000380: 4b74 f93c d144 d43d 2989 053e 150c 03bd
00000390: 6a4e ccbd b042 433e 33cb 7b3d 2ee2 7c3d
000003a0: d996 673d 8b31 0cbe 68ac 50be 969d 5cbd
000003b0: f5d3 03be eb38 a9bd 3b16 023e 3c33 9cbd
000003c0: 5840 cabd d473 15bd fd02 d3bd 3ff2 60bd
000003d0: 29bc 543e 0d92 c9bd 8079 d3bd 352d 07be
000003e0: d5a0 f23d 7a26 1bbe d8a3 333d f315 0e3e
000003f0: 34c3 a03d c1e6 d43d bbc5 eabc 5439 203e

l3.bias f4 [10]
0.017610725 0.13805147 -0.08263052 0.021474404 -0.12181509 0.014546374 -0.06902076 0.018073339
-0.056971293 0.03986848
00000000: 5e44 903c 5d5d 0d3e 313a a9bd 17eb af3c
00000010: 317a f9bd ea53 6e3c c25a 8dbd 8a0e 943c
00000020: bb5a 69bd 224d 233d
