lightning_logs/version_6/checkpoints/epoch=9-step=18750.ckpt (torch, 225107 bytes, 6 tensors)

l1.weight f4 [64, 784]
000000 98 a4 88 3b 00 d6 2c 3a f8 36 8d 3b d0 b2 33 bb
       0.0041700117 0.0006593168 0.0043095313 -0.0027419813
000010 d4 a1 30 3c d6 f1 05 bd f7 4d 0c 3d d8 9e d9 bc
       0.01078077 -0.032701336 0.03425404 -0.026565
000020 40 84 0f ba b7 67 9b bc a1 a5 0d 3d 6d 6a 01 bd
       -0.0005474724 -0.018970354 0.034581784 -0.031595636
000030 30 6b dc 3c bc 41 11 3c 48 e6 ef 3c bd a0 d6 3c
       0.02690658 0.00886577 0.029284611 0.026199693
000040 ba 95 c8 3c 86 61 5c bc e6 93 ea 3c 1a 01 f5 bc
       0.024485458 -0.013450986 0.028634977 -0.029907752
000050 00 ae 6c b9 66 8a f8 3c 30 24 ab 3c f8 95 a0 bb
       -0.00022571534 0.030339431 0.020891279 -0.00490069
000060 ee d1 a2 3c 8b 12 01 3d 58 4f 6a bc 60 0a 9b bc
       0.019875493 0.031511825 -0.014301144 -0.018925846
000070 70 82 f3 3b 65 30 01 bd da 7a f5 3c 94 2e 05 bd
       0.007431321 -0.031540293 0.029965807 -0.032515123
000080 81 10 1f 3c a0 98 af bc 0f 30 3d bc b8 87 08 3d
       0.009708525 -0.021435082 -0.011547103 0.033332556
000090 b6 90 70 bc 0d 31 c0 bb d8 b0 67 3c 36 33 ae bc
       -0.014682939 -0.0058652223 0.014141284 -0.021264654
0000a0 d5 c8 b2 3c 70 8d 66 bc 9b 85 0f bc 76 fc dc bb
       0.02182428 -0.014071807 -0.008759881 -0.006743963
0000b0 6a fe 97 bc 6c 47 82 bb 6e 54 c0 3c e6 e0 e6 3b
       -0.018553931 -0.0039757993 0.02347776 0.007045853
0000c0 1e c6 5a 3c 76 8b d1 3b 9a 74 e7 bb f8 91 fc 3c
       0.013352899 0.006394799 -0.0070634605 0.030831322
0000d0 58 db 2c bc 66 91 ff 3c 26 c3 67 bc 80 ee 1a 3b
       -0.0105503425 0.031197261 -0.014145648 0.0023640692
0000e0 72 1e ff 3c 87 40 96 bc 4b b0 f6 bc d6 92 3f 3c
       0.031142447 -0.018341316 -0.03011336 0.011692723
0000f0 22 6b db 3c b0 f6 b6 bb 0d 90 89 3b da 48 f7 3c
       0.026784483 -0.0055836067 0.0041980804 0.030186106
000100 de 7f a5 bc 9e 06 2a bc a4 86 0a 3c 01 43 d4 bc
       -0.020202573 -0.010377554 0.008454952 -0.025910856
000110 b8 58 f6 bb 4d 90 2a 3c 90 9b ee bc 90 3b ff 3c
       -0.0075179003 0.010410381 -0.029126912 0.031156331
000120 cc 4f cd 3c 4e 8e d9 bc 4c 3d 96 bc 95 db c5 3c
       0.025062464 -0.026557114 -0.018339776 0.024152556
000130 c9 1f 92 3a 53 98 df bc de 87 d5 bc 1a 93 e8 bc
       0.0011148389 -0.027294314 -0.026065763 -0.028390456
000140 6a ba eb 3c 73 5f a1 3c a0 0e b3 3a a8 08 85 3b
       0.028775413 0.019698834 0.0013660975 0.00405987
000150 58 8a 48 3c 32 cd 1c bc 4d 0c e1 bc f9 8c 9f 3c
       0.012240015 -0.009570407 -0.027471686 0.0194764
000160 9f 66 0e 3c 1a 0b bc bc d4 4d 8a bc 9b 93 e0 3c
       0.008691459 -0.022954512 -0.016882814 0.027414134
000170 12 96 08 bd 9c 1b 95 3c e9 ed a2 3c fb b2 2f 3c
       -0.033346243 0.018201642 0.019888835 0.010723825
000180 e4 91 02 3d 8a b4 02 bc 14 f3 11 3d 2e 82 ec 3a
       0.031877413 -0.007977614 0.035632208 0.0018044168
000190 bf 25 88 bc 40 70 11 3d ea e7 c8 3b a7 9e 8d bb
       -0.016619561 0.03550744 0.006131162 -0.0043218913
0001a0 36 90 d6 3c 95 ba 32 3c 84 b5 41 ba 81 62 e1 bb
       0.026191812 0.010908742 -0.00073894137 -0.0068781977
0001b0 fa cf c4 bb 74 1e d1 3c 5a c5 02 3d b0 1b 58 bb
       -0.006006238 0.025527216 0.03192649 -0.0032975487
0001c0 c0 8c 98 3c be 2a b6 bc f2 5e 9e bb cc ba 0f 3d
       0.018621802 -0.022237178 -0.0048330957 0.035090253
0001d0 3e 25 10 3d 22 21 0e 3d e1 a2 cf bc e2 0a 2c 3c
       0.035191767 0.034699567 -0.025346221 0.010500642
0001e0 54 e4 17 bd a3 b1 89 bc 59 f2 0b bd 1e ef 06 bd
       -0.037082985 -0.016808337 -0.034166668 -0.032942884
0001f0 81 86 90 bc 55 43 19 3b 63 ea 8c 3c 4c a1 a9 3b
       -0.017642261 0.002338608 0.017201608 0.005176699
000200 cf 06 06 3c 49 d7 57 bb ba 0d 56 3c 74 df 2d 3c
       0.008180334 -0.0032934716 0.013064796 0.010612357
000210 5f 74 38 3d 16 61 ca 3b 51 51 da bc 32 e7 b0 3c
       0.045032855 0.0061761243 -0.026650103 0.021594618
000220 68 eb 84 bc f8 55 29 3b 6c 8b b5 3a f7 aa c9 bc
       -0.016225532 0.0025838595 0.0013850755 -0.024617655
000230 93 67 a3 bc 60 ad 2d bc 0c 00 da bb a6 23 ce 3c
       -0.019946849 -0.010600418 -0.0066528376 0.025163483
000240 ee 24 6d 3c 65 b3 1a bd 3e 8e c3 bc 7d 8d a8 bc
       0.014474137 -0.03776874 -0.023871537 -0.02057528
000250 24 a1 f4 bb 80 f0 57 bc 86 a0 a3 3a 83 4c 6a bb
       -0.0074654985 -0.013179898 0.0012483753 -0.003575117
000260 36 ca 41 3d ac a9 e1 3c bf 1a 62 3c 34 09 fd 3b
       0.047311984 0.027546726 0.013800322 0.0077220444
000270 d4 71 90 3d 33 cb 9b 3d b6 8e ff 3c 33 ca 2c 3c
       0.07052961 0.076071166 0.03119598 0.010546255
000280 bb 2c 4d 3d 59 f3 63 3d d1 ee 0d 3d 26 58 e1 3c
       0.050091486 0.055651996 0.03465158 0.027507853
000290 b0 bf 9d 3c 64 0f be bc d8 1a 8d bc 34 85 06 3d
       0.019256443 -0.023200698 -0.017224714 0.032841876
0002a0 c8 f2 7c 3c cd 10 e5 3c 45 a6 d7 bc 4d 02 bf 3c
       0.015438743 0.027962113 -0.0263244 0.023316527
0002b0 5f c3 4a 3c fd fa 00 bd 63 9f ac 3c 91 b4 3c 3c
       0.012375682 -0.03148936 0.021072095 0.01151766
0002c0 83 3f 16 bd da bf 13 3c 39 1f c6 3c ed e1 03 bd
       -0.036681663 0.009017909 0.02418481 -0.03219788
0002d0 dd 5b 1a bc b9 fb 00 bc b3 80 0c bd c2 e8 19 bd
       -0.009421316 -0.007872515 -0.034302425 -0.03757549
0002e0 d9 bd 4f bc ff 9c a9 3c 3a 94 a2 ba 65 ba 1c 3d
       -0.012679541 0.020704744 -0.0012403794 0.038263697
0002f0 dd 57 10 3d d6 4f 97 3a 5b 0e b2 3c 84 42 0b 3d
       0.035240043 0.0011544179 0.02173536 0.03399898
000300 f7 48 3d 3c 7b cd 93 3c 21 2a e8 bc b1 ca 08 bb
       0.011553041 0.018042317 -0.028340401 -0.0020872767
000310 2a 8d 05 bc 06 aa f1 bc 93 23 8e 3c 85 49 ae bc
       -0.008151332 -0.029500019 0.017350947 -0.021275291
000320 d3 52 fd bc 8b 3b a9 bb d2 d3 d6 bc 5e de ee bc
       -0.030923283 -0.005164569 -0.02622405 -0.029158767
000330 ee f2 d2 bc 3d f8 c6 3c 12 c8 6f 3c 3d 64 1c bc
       -0.025750604 0.024288291 0.014635103 -0.009545383
000340 cd 5f bb bc 8a d7 9e bc 6e 44 8a bd 12 b0 c5 bd
       -0.02287283 -0.019389886 -0.06751333 -0.09652723
000350 c4 21 af bd 36 54 d1 39 ff 0f ad bc b9 61 c5 bc
       -0.08551362 0.00039926328 -0.021125792 -0.02409445
000360 19 36 04 bc 44 36 3b 3d ab 9e 36 3d 85 81 88 3c
       -0.0080695385 0.04570605 0.04458491 0.016663322
000370 29 86 ac 3c f9 c0 26 3c 4d 9c a4 3c a1 5f 3b 3c
       0.021060066 0.010177844 0.020094061 0.011436374
000380 5e 30 0b 3d b1 2e fd 3c 07 40 6d bc 80 7c 36 bb
       0.033981673 0.030906053 -0.014480597 -0.0027845204
000390 35 c8 ae bc 97 b8 8a bc 9c 9e f3 3c 43 db 0c 3d
       -0.0213357 -0.016933722 0.029738717 0.03438879
0003a0 91 b2 83 ba fe 85 35 3b 46 37 6a bb 8a f5 b5 bc
       -0.0010047724 0.0027698274 -0.0035738512 -0.022211809
0003b0 88 96 44 bd e5 b5 59 bd 6f 98 67 bd 8e 06 3f bd
       -0.04799512 -0.053151984 -0.056541856 -0.04663711
0003c0 1d 73 a1 bd 40 d3 11 bd 06 79 09 3c f3 f8 11 3d
       -0.07883284 -0.035601854 0.008390671 0.035637807
0003d0 05 d2 66 bc 67 23 9a 3b 25 6b 24 3d f1 dc b0 3c
       -0.0140881585 0.0047039273 0.040141243 0.021589728
0003e0 95 d3 23 b9 b7 a0 97 bc ba b1 f8 3c 73 73 be bc
       -0.00015623712 -0.018509252 0.030358184 -0.02324841
0003f0 5e 1e b3 3b 9a 48 21 39 49 6a 00 bd d1 4b d3 3b
       0.0054662665 0.00015381203 -0.03135136 0.006448247

l1.bias f4 [64]
000000 1c 33 b9 3b d9 42 9f bc 2b d8 69 bc 98 60 ea bc
       0.0056518447 -0.019441055 -0.01427273 -0.028610513
000010 f2 77 c5 3c ed 28 4d 3d a7 8c c4 3d 52 5b 28 3d
       0.024105046 0.050087858 0.0959714 0.041102715
000020 50 74 2b 3d 85 78 01 3d 19 a6 8a 3d f0 3c 69 3d
       0.04185897 0.031609077 0.06769962 0.05694288
000030 1c e6 06 3d 84 a8 cf bc e2 19 f5 bc 47 3d cd 3c
       0.032934293 -0.02534891 -0.029919568 0.025053633
000040 ea e8 9d bc 56 4a 9e bb 64 30 01 bd 29 24 35 bd
       -0.019276101 -0.004830639 -0.03154029 -0.044223938
000050 c6 de b5 3d 38 73 04 3d 13 cf 70 3d 11 01 65 3d
       0.08880381 0.032336444 0.05879123 0.05590922
000060 a0 85 2e bc 17 5b 1e 3d a3 3c 1a 3d df 71 b2 3c
       -0.010651976 0.03866109 0.037655484 0.021782814
000070 a0 31 04 3c 6c 69 e2 bb 60 89 f6 3d 7b 8d 6d 3d
       0.008068472 -0.00690954 0.12037921 0.057996254
000080 8f a9 1e bd b5 6d 4a bb 93 fd e7 3c c3 61 93 ba
       -0.038735922 -0.0030888144 0.028319156 -0.0011244345
000090 ec f0 dc bc e6 d1 bb bc 3f 2f 83 3d 70 ab 4b 3d
       -0.02697035 -0.022927236 0.06405496 0.049724042
0000a0 89 3d d1 3c 71 32 06 3c b3 5d f2 3c 43 86 94 bc
       0.025542038 0.008190737 0.029585695 -0.018130427
0000b0 55 43 a4 bc df 10 be 3c 06 09 2a bd 0d 74 f4 bb
       -0.020051638 0.023201404 -0.04151251 -0.0074601234
0000c0 77 56 2b 3d 78 03 31 3d e0 a6 cd 3c b5 0c 25 3d
       0.041830506 0.0432162 0.025103986 0.04029532
0000d0 1b f9 71 bc a9 6c 04 3d c0 27 8f bc d4 a6 37 3a
       -0.014768864 0.03233019 -0.017475009 0.00070057553
0000e0 b6 a3 9e 3c 78 64 40 bd 18 2d 99 3d e9 31 fb 3c
       0.019365173 -0.046970814 0.07479304 0.030663447
0000f0 62 e6 c4 3d cf 00 a4 3c 86 ba b2 3c c1 47 88 3d
       0.096142545 0.020019917 0.021817457 0.06654311

l2.weight f4 [64, 64]
000000 e5 cd 15 bd 5a 8f c8 3d 28 88 8b bd 4b a6 43 3d
       -0.03657331 0.09792967 -0.06813079 0.04776601
000010 bc 33 ac 3d b6 2f ce bd 76 3d 20 be fb e0 f4 3d
       0.08408305 -0.10067694 -0.15648445 0.11956974
000020 57 85 d5 bc 05 97 87 bd f6 cd 0c 3d 64 dd b4 bd
       -0.026064558 -0.066206016 0.034376107 -0.088312894
000030 93 a3 b2 bd 12 cf 84 bc 36 e3 2b 3c c8 0a ca 3d
       -0.087226056 -0.01621202 0.010491183 0.098653376
000040 62 c8 bc 3d 47 60 ed bd 04 b2 af bd 88 00 c3 3d
       0.092179075 -0.11590629 -0.08578876 0.09521586
000050 60 5f b5 3b e4 75 b7 bd f9 73 0d bd 3b 6b bc 3d
       0.005535051 -0.08958033 -0.03453443 0.0920014
000060 0a 8a 2d 3e af 68 f0 bc e9 16 28 3c 8c eb 9d bc
       0.16947189 -0.029346792 0.010259368 -0.019277357
000070 b0 f4 a6 3d 2f 2b c9 bd 21 c3 d8 bd 82 22 0d 3d
       0.08152139 -0.0982269 -0.10584093 0.034456737
000080 96 d8 d4 3d 8f 33 a4 bc e2 e3 ca 3c 03 5f df bd
       0.10392873 -0.020044116 0.024766866 -0.10906794
000090 fa 16 24 3d 20 73 06 be 96 6d 32 3d 57 e0 ac 3d
       0.040060975 -0.13129854 0.04356154 0.08441227
0000a0 0b b5 23 bc 84 d1 41 3c 10 9d b7 3d e3 3b d5 3d
       -0.0099918945 0.011829738 0.08965504 0.10411813
0000b0 78 57 0b 3e 0e cd 61 3d 74 7f b3 3d 99 33 c7 3b
       0.13607585 0.055127196 0.08764544 0.006079149
0000c0 47 92 12 be e3 b1 e0 3c dc 3a 77 bc 56 a9 f5 bd
       -0.14313613 0.027428573 -0.015089717 -0.11995189
0000d0 2c c6 8b 3d c2 68 0c 3d a1 a9 06 3e b8 65 e1 bd
       0.06824908 0.034279592 0.13150646 -0.110057294
0000e0 b0 d4 6a bd 6b a4 bb 3d 84 6c 4b 3d 10 d0 18 bb
       -0.05733174 0.091622196 0.049664035 -0.0023317374
0000f0 f7 d8 04 bd b3 d4 89 3d 5a ab d1 bd b4 d3 31 bc
       -0.032433476 0.06730022 -0.10237761 -0.010853697
000100 87 db 8f 3d ce 47 0c bd f6 24 29 3e 72 c2 c6 bd
       0.070242934 -0.034248166 0.16518006 -0.09705056
000110 59 06 58 bd e7 ed 00 3e df 1f 87 3d e9 64 46 3b
       -0.05274043 0.12590753 0.06597876 0.003027255
000120 a5 90 0a bd 9f f8 e7 3d 39 bc 1c 3d 5b 7a 8e bd
       -0.03382935 0.113267176 0.03826544 -0.06956931
000130 51 00 70 bd a1 95 0b 3e f5 a3 a8 3c 1e 31 40 3d
       -0.05859405 0.13631298 0.020585993 0.04692184
000140 25 da f2 bd c6 c9 91 bd 2c b2 99 bc f4 71 bc 3b
       -0.11858014 -0.07118563 -0.018761717 0.005750889
000150 c8 21 90 bd 2c 8b d4 3c 3b 66 70 3d ea 85 16 bc
       -0.07037693 0.025945269 0.058691245 -0.009187201
000160 55 04 2f bd 99 1c 62 3d 11 b6 0e bd 7d 83 ab 3d
       -0.04272874 0.055203054 -0.0348416 0.08374689
000170 d3 e8 f0 bc d4 52 21 3e 79 69 ed bd 4f e8 40 3d
       -0.029407894 0.15754253 -0.11592383 0.047096547
000180 27 25 ae ba 37 74 ce 3d f3 c3 0c 3d 5a 47 b8 bc
       -0.0013286219 0.1008076 0.03436656 -0.02249496
000190 d4 fa 4c 3d 89 69 1b bd 00 5f 53 3d 69 3b bf 3d
       0.050043896 -0.037942443 0.05160427 0.093375035
0001a0 2b 01 9e 3d 99 09 96 3d 2a 30 97 bd 91 6e 6e 3d
       0.077150665 0.07326049 -0.073822334 0.058210913
0001b0 fb 14 f4 3c e7 dc 9c bd 4a cb be 3b 71 5d 09 bc
       0.02979516 -0.07659321 0.005822574 -0.008384095
0001c0 56 15 07 be 2b 62 5c bd d8 c1 07 bd fe e8 b1 bd
       -0.13191733 -0.053804558 -0.03314385 -0.08687018
0001d0 53 9e a4 3d 59 2e 91 39 c0 b3 da 3d 39 14 db 3d
       0.080380104 0.00027691087 0.10678816 0.106972165
0001e0 73 5e 60 bd 82 b8 8a bd 67 74 93 3d 41 eb 1b bd
       -0.054777574 -0.06773473 0.07199936 -0.038066152
0001f0 8e b3 6d 3a 3f 7c ff bd f8 43 ba bd 47 32 12 3d
       0.0009067588 -0.1247487 -0.09094995 0.03569248
000200 c1 0c b9 3c 45 94 54 bd 18 d0 8e 3d 3d 62 aa bd
       0.02258909 -0.051899213 0.069732845 -0.08319519
000210 1f 2b 60 3d 51 0e fe 3d e3 4f 33 3d 7d ed c0 3d
       0.054728623 0.124050744 0.043777358 0.09420297
000220 8b 93 2a bb 7b e8 58 bc 53 39 c8 bd ff 5d cb bc
       -0.0026027884 -0.013239021 -0.09776559 -0.024825094
000230 3f 11 d5 bd 71 04 1d 3d 3c 6a b2 3d d9 b5 40 3d
       -0.1040368 0.038334314 0.08711669 0.047048423
000240 b3 20 a3 3d 57 50 db bd ef 63 04 3e 59 dc 61 3d
       0.07965221 -0.10708683 0.12928747 0.05514178
000250 87 89 c4 3d 74 59 90 3c e0 fd bb 3c c4 68 7b bd
       0.09596544 0.01762078 0.022948205 -0.06137921
000260 8a 93 04 bd 0a f0 85 bd 50 e4 8c bd 8e 7c 53 3c
       -0.032367267 -0.065399244 -0.06879485 0.012908114
000270 45 ef 41 3d 58 8e 82 3c 5e c4 13 be 5f cc 62 3d
       0.047347326 0.015937015 -0.14430377 0.055370685
000280 bb 05 31 bd 81 c0 b5 3d e0 97 9f bd 58 82 bf 3d
       -0.043218356 0.08874608 -0.0779264 0.09351033
000290 2a 2c a0 3d 29 20 b9 3d 2c 81 f3 3d 68 02 9c 3d
       0.078209236 0.09039337 0.11889872 0.076176465
0002a0 f5 ed fe 3c 14 b2 cf bb 8b 73 05 be 1a 7f 97 bd
       0.031119326 -0.0063383672 -0.13032357 -0.073972896
0002b0 6e 45 a4 bc e1 69 7a bc 5e 33 ca 3d 41 d4 b4 3c
       -0.020052638 -0.015284033 0.09873079 0.022073867
0002c0 da a6 77 bc bd 0d 91 3d 61 ec 2d 3d e3 25 22 bd
       -0.015115464 0.070826985 0.042461757 -0.039586913
0002d0 e7 66 a8 bc 13 45 6f 3d 82 2d 57 bd dc 5e 05 3e
       -0.02055688 0.058415484 -0.052533634 0.13024467
0002e0 67 37 98 3d a9 6a cd 3c 92 3a 87 3d 73 39 03 3e
       0.07432442 0.025075274 0.06602968 0.12814884
0002f0 21 e3 45 3d 12 2e 05 be 5d e5 c1 3b 66 ad b0 bd
       0.04831231 -0.13005856 0.005917235 -0.08626823
000300 e4 a3 0d 3c 08 36 bb 3d eb ff c2 bd cc 6c 34 3c
       0.008645032 0.09141165 -0.09521469 0.011012267
000310 77 95 b2 3d 89 64 00 3e 5f d7 f7 bc ac 37 10 bc
       0.087199144 0.12538351 -0.030254064 -0.008802336
000320 b9 93 ac bd 33 d6 28 3d 96 f9 2e 3d 30 36 0b 3e
       -0.08426613 0.0412199 0.042718492 0.1359489
000330 b6 91 08 bc 6e 0a 9e bd 41 de f2 3d 93 aa ba 3d
       -0.008335521 -0.07716833 0.11858798 0.09114566
000340 7b 41 86 3d 46 35 f7 3c ff 3e 7d bb bf 8a 0b 3e
       0.06555458 0.03017677 -0.0038642285 0.13627146
000350 ff 2e 8f bd 08 63 ab bd c2 29 94 3d 9f cc 96 3c
       -0.06991386 -0.08368498 0.07234527 0.018408118
000360 b5 18 af bd e9 a5 b2 3d 95 d4 6a 3d c7 48 24 bd
       -0.08549634 0.08723051 0.05733164 -0.04010847
000370 11 69 8f bd 00 42 0a bd e6 f8 96 bd c1 0b 59 bd
       -0.07002462 -0.03375435 -0.07371692 -0.052989725
000380 42 bc a5 3d 2d 3c 93 bd b2 1f a3 3d fc 4e ce bd
       0.08092548 -0.07189212 0.0796503 -0.10073659
000390 f5 60 69 bd 6d e4 a3 3d 51 2d 32 bd 8c 66 8c bd
       -0.05697723 0.08002553 -0.04350025 -0.06855497
0003a0 af 02 e6 bd 96 70 de bd 6b f6 16 be d1 6e 81 3c
       -0.112309806 -0.10861318 -0.14742438 0.015799912
0003b0 02 2d b4 bd cd ce 1b bb 2d 3c 52 bd 89 e9 47 3d
       -0.08797647 -0.0023774386 -0.05132692 0.0488067
0003c0 b0 58 ce 3d cb d5 23 3c d9 88 71 3d bb d1 3f 3c
       0.100755095 0.009999703 0.0589684 0.0117077185
0003d0 53 ff 95 bc b4 23 60 bd 92 ba ca 3d 00 ef fe 3c
       -0.018310225 -0.05472155 0.09898867 0.031119823
0003e0 c3 4c 0d 3e ac 06 c7 bc 46 53 13 3e dc 0d e1 3c
       0.13798814 -0.024295174 0.14387235 0.027472429
0003f0 7c 4e a8 bd 03 fd 47 3d fc ec 0e bd d6 5c 5a 3d
       -0.08218095 0.048825275 -0.034893975 0.05331119

l2.bias f4 [64]
000000 d5 7e 2f bd ce 9f 2e bc b8 58 00 be 61 1c b4 3d
       -0.042845566 -0.010658218 -0.12533844 0.08794475
000010 2a 73 9d bd 97 c0 aa bd 53 13 67 3d 5f d0 f7 bd
       -0.076879814 -0.08337515 0.056414913 -0.121002905
000020 cb 94 0f 3e cb 91 40 bd 51 3b 13 3d 61 ce 71 bd
       0.14021604 -0.04701404 0.03594524 -0.05903471
000030 81 66 4b ba fb 76 e0 3d 6e dc 68 3d ce aa 16 3d
       -0.000775911 0.10960194 0.056850843 0.036783986
000040 81 06 7b 3d 16 8c a8 3d 9a d0 a7 3d 6a df be bd
       0.0612855 0.08229844 0.081940845 -0.093199566
000050 65 8f ea 3a a7 6f 05 3e 48 9a 9e bb 5f ed 92 bd
       0.0017895518 0.13030873 -0.004840169 -0.07174181
000060 bc ea 2b bd b0 a6 9a bd 8e e6 e8 bc d4 ab 4b bd
       -0.041971907 -0.07551324 -0.02843025 -0.049724415
000070 a0 27 91 bd 1d 46 33 3d d8 0a 3d 3e e2 ef f2 3d
       -0.07087636 0.043768037 0.18461168 0.1186216
000080 47 6f a3 bd 11 80 6f bc 6e dc cb 3d fd c1 bf bc
       -0.07980209 -0.014617936 0.09954153 -0.02340793
000090 ca 56 99 bd 83 d6 f8 3d 25 8b 0b 3d 97 1f dd 3d
       -0.07487257 0.1215029 0.034068245 0.10797041
0000a0 9c f7 db 3d 48 50 80 3d 34 0d f3 3d 6b 4c 5f bc
       0.10740587 0.062653124 0.11867753 -0.013629059
0000b0 8b 99 c1 3d d3 1d cc 3d 5e 0d da bc 15 e7 d0 bc
       0.09453114 0.09966626 -0.026617702 -0.025500813
0000c0 08 46 06 bd 66 31 a6 3d b9 0b a7 3c c6 82 ad 3b
       -0.03278163 0.08114891 0.020391332 0.0052951304
0000d0 08 a5 46 3d c1 8b ef 3c 40 ea 8a 3d 01 ad ad 3d
       0.04849723 0.029241445 0.06782961 0.084802635
0000e0 c3 b8 b5 3d 1c 75 dd bd 30 3c 4f 3c 84 c8 cc 3d
       0.08873131 -0.108133525 0.012648627 0.09999183
0000f0 c3 e2 aa 3d a5 a9 ed bd 6c 25 7d 3d 29 c4 51 bd
       0.083440326 -0.11604623 0.061803266 -0.051212464

l3.weight f4 [10, 64]
000000 84 89 c4 3c 5b 40 08 be 9b bc 26 3e e7 c2 d4 3d
       0.023991354 -0.133058 0.16282885 0.10388737
000010 eb c6 2a bd ae 69 07 be b5 f2 2e bc e1 84 9b 3c
       -0.04169361 -0.13223907 -0.010677983 0.01898426
000020 b7 d5 7c 3e a9 c4 9e bd b3 9a 87 3d 56 24 bb be
       0.246909 -0.07752354 0.066213034 -0.3655116
000030 ca 86 2e 3e 64 77 a4 3c 67 a7 ae 3d 99 3f 4f be
       0.17043605 0.020076461 0.08528023 -0.20239104
000040 88 e8 16 3d ae a2 64 bd bf 93 d3 bd b5 5d a6 3d
       0.036842853 -0.055819206 -0.10330915 0.08123342
000050 ea 68 6a be e6 bb 35 be 86 62 68 be 57 6e 12 3e
       -0.22891584 -0.17747459 -0.22693834 0.14299904
000060 83 1b 36 3e 2d a4 4c be 11 72 0a 3e 2e 12 10 bd
       0.17783932 -0.19984503 0.13520075 -0.035173588
000070 ae 65 0f 3e a0 84 7c be 83 6c 7b bd d9 ea 2b be
       0.14003631 -0.24659967 -0.06138278 -0.16788806
000080 99 6d c6 bc df ef 99 3d a1 3f 1f 3e f8 ba 7f bd
       -0.024222182 0.07516455 0.15551616 -0.062434167
000090 2b 97 b4 3d ce 7b 80 bc fc d2 01 be 72 dc 2f bd
       0.088178955 -0.015684035 -0.1267814 -0.042934842
0000a0 c5 5f 0a 3e f7 1f d9 bd d0 16 80 be 40 4f 63 bd
       0.13513096 -0.106018 -0.25017405 -0.0554955
0000b0 58 c9 39 be 54 4f 3b 3e 84 b9 74 be 6d 97 f6 3b
       -0.18143213 0.1829198 -0.23898894 0.0075253756
0000c0 49 af 4b 3e 5b 8e 4e 3e 43 71 72 3e 6f ec 1f 3e
       0.19891085 0.20171492 0.23676018 0.15617536
0000d0 c1 b4 6e bd 0c d2 ec 3c e5 7e 8d be f7 5c db 3c
       -0.05827785 0.028908752 -0.27635875 0.026777728
0000e0 cf b9 aa 3e f2 95 a4 bd a9 ce 62 bc b4 da 6d 3e
       0.33344886 -0.08036412 -0.013843217 0.2322796
0000f0 3f 85 6c be ed 2b e6 bd 0c 95 d3 3c cc 48 11 3e
       -0.23097704 -0.11238847 0.025827907 0.14187926
000100 71 d1 73 3d b8 4a 19 3e 4e a1 66 3d 17 85 ee b9
       0.05952591 0.14969909 0.056306176 -0.00045494057
000110 04 6d 2e 3d 45 4b 83 3e e1 cb 65 3d 22 b0 15 be
       0.042584434 0.25643364 0.056102637 -0.1461797
000120 94 28 2e be 93 3e 6b be ce 4d 53 3e d0 e0 7f 3e
       -0.17007667 -0.22973089 0.20635149 0.24988103
000130 14 ee 60 be d0 fb 44 bd 8a 83 09 be 94 d0 77 be
       -0.2196582 -0.04809171 -0.13429084 -0.2420066
000140 6c 6c e8 3d 05 ba e2 3c 76 a7 ef 3d 09 64 23 bd
       0.11348805 0.027676592 0.117018625 -0.039890323
000150 59 99 b6 bc 0f 5c e7 bd 53 d7 6d 3e 14 7a 9c be
       -0.022289919 -0.11296856 0.23226671 -0.30561888
000160 8c 93 40 be 54 2f 9b 3e 65 4d 87 3d 54 e8 59 be
       -0.18806285 0.30309546 0.06606559 -0.21280032
000170 05 c6 2c be db 84 ad 3d ba 3e aa 3e 45 c5 74 3e
       -0.16872413 0.08472606 0.33250982 0.23903377
000180 e9 cd 58 be 4c 14 fe 3b 1d a2 a0 bd a1 43 2d 3d
       -0.21172298 0.0077538844 -0.07843421 0.042300824
000190 dd 78 16 be 62 e4 28 be e9 ed 9e 3c 2a 97 04 3d
       -0.14694543 -0.16493371 0.019400554 0.032370724
0001a0 f6 ce 52 3e 4f 90 7d 3e e5 1a b2 b9 0f 50 6b 3e
       0.20586762 0.2476208 -0.00033970844 0.22979759
0001b0 ce 6f 31 be fd 94 64 be 51 79 4c bc 1a 32 f0 bd
       -0.17327806 -0.2232246 -0.012480096 -0.11728306
0001c0 56 e6 6f bd 29 2c 07 bd c5 db 88 be e7 55 14 be
       -0.058569275 -0.0330011 -0.2673017 -0.14485894
0001d0 c3 73 1f be 34 e6 a7 bb 41 33 37 bd 5e 44 47 3e
       -0.15571503 -0.005123878 -0.044726614 0.19459674
0001e0 2a b0 2e 3d 6a 7c 9a bd fa df 66 bc 60 e6 aa 3d
       0.042648472 -0.07543261 -0.014091486 0.08344722
0001f0 f1 32 60 3e 5a da 17 bd 6c 7c 62 3d 3f 45 4a be
       0.21894433 -0.03707347 0.05529444 -0.19752978
000200 f1 02 c8 3d ca 2f 62 3e f9 93 4f 3e e4 11 ef 3d
       0.09766186 0.22088543 0.20271291 0.11673334
000210 06 fa cc 3d 97 a3 b6 3d b6 54 29 be f7 74 3a be
       0.10008626 0.08917921 -0.16536221 -0.18208681
000220 31 c4 1c bd 2f 04 92 3e b2 8f a7 bd 4f 1e 4e be
       -0.03827304 0.28518817 -0.081817046 -0.2012875
000230 c9 5f 3a be 99 e0 46 bd 59 20 ee 3d 42 4d 4c 3e
       -0.18200602 -0.048554037 0.116272636 0.19951347
000240 c6 e3 f2 3d 08 8e fd 3c 87 54 15 3e 95 d2 1d 3e
       0.118598506 0.030951515 0.14583026 0.15412362
000250 e2 a6 04 bd dc 27 d8 bd d9 c3 44 be b8 cd f5 bd
       -0.032385714 -0.105544776 -0.19215335 -0.12002128
000260 1b 47 1b 3d f3 5a af 3d 7c 6a 2b 3e 2c 10 1c 3d
       0.03790961 0.08562269 0.1673984 0.03810136
000270 5b 05 55 bc ca d3 e8 3d 89 50 f3 bd a3 b1 3b be
       -0.013001765 0.113685206 -0.11880595 -0.18329482
000280 c1 40 28 3e c5 e6 00 3e ca 71 f7 bd c7 e7 3c 3e
       0.16430952 0.12588032 -0.120822504 0.18447791
000290 a6 0a 2d be 9e 9a dd bc 12 04 f6 3d 5a a0 ab 3e
       -0.16898593 -0.027051266 0.12012495 0.33520776
0002a0 32 10 63 3d aa cd c0 3d fb f9 5b be b5 eb 40 bd
       0.055435367 0.09414227 -0.21482079 -0.047099788
0002b0 05 d8 15 be f5 e3 85 3e b4 46 ef bd 6d 65 12 3e
       -0.14633186 0.2615048 -0.116834074 0.14296503
0002c0 1f 83 0d be 02 c2 2d 3e b4 a1 e1 bd 29 14 c0 bd
       -0.1381955 0.1696854 -0.110171705 -0.09378845
0002d0 f8 66 ae 3d 08 46 6f be 46 8e 09 3e 77 65 ec 3d
       0.085157335 -0.23366559 0.1343318 0.115427904
0002e0 33 89 50 be ba f3 21 be 19 ff c2 bc 9e fe 0f 3e
       -0.20364837 -0.1581563 -0.02380328 0.14061972
0002f0 a8 f6 ef 39 8a 93 fa bd 7b d2 17 3d 8b 81 4b be
       0.00045769406 -0.12235172 0.037065964 -0.19873635
000300 96 37 1a be d8 96 df 3a 31 e7 7f 3d 31 21 30 bd
       -0.15060267 0.0017058505 0.06247634 -0.043000404
000310 fd 1d 8b 3e 34 95 0a 3e 40 6a 4a 3e 0c f2 47 be
       0.27171317 0.13533479 0.19767094 -0.19525927
000320 c1 ec 68 be df b1 a7 3d 1d 94 8c be 06 9d c5 3d
       -0.22746564 0.08188223 -0.2745675 0.096490905
000330 28 d5 0c 3e 9e ed 84 bc db cc 0f bd af 6b 3b 3d
       0.13753188 -0.016226586 -0.035107475 0.045756992
000340 14 1e 16 3d b0 bf 14 be 39 29 96 bd 21 bd 1b 3c
       0.03664978 -0.14526248 -0.07332081 0.009505541
000350 50 b8 c3 bd 88 a4 29 bc bb 75 20 be 92 28 24 3d
       -0.09556639 -0.010354169 -0.1566991 0.040077753
000360 fd ac 75 bd 78 9f 62 3e 10 80 df bd 44 76 06 3e
       -0.059979428 0.22131145 -0.10913098 0.13131052
000370 e1 13 29 3e 32 19 92 3d 85 f2 8c be 6b 93 38 3e
       0.1651149 0.07133712 -0.27528778 0.18024985
000380 4b 2d 35 bd 46 24 cd bd f3 8e 81 be 96 11 66 3e
       -0.044232648 -0.10016684 -0.25304374 0.22467646
000390 d0 49 a5 b9 1c a0 2d 3e 5b c1 81 3d 54 44 32 3c
       -0.00031526247 0.16955608 0.06335708 0.0108805485
0003a0 3c 22 84 3e c7 98 4b be bf b9 2c 3e 68 1b 23 3d
       0.2580737 -0.19882499 0.16867732 0.03982106
0003b0 cd cc 61 3e ba 33 b1 3c 2d de 84 be 72 67 41 bd
       0.22050782 0.02163111 -0.25950757 -0.047217794
0003c0 fb 27 08 be 75 c3 43 be 60 1e 96 bd 3f a5 3d 3e
       -0.13296501 -0.1911753 -0.07330012 0.18520068
0003d0 be e5 e3 bd 7f 95 c5 bd fb 11 00 be ab 7d a5 3d
       -0.11127804 -0.09647655 -0.12506859 0.0808061
0003e0 56 e4 9e 3d 1b 4c d5 3c a9 7b 4a 3d 5b ea 3a bd
       0.077583954 0.026037266 0.049434338 -0.045633655
0003f0 17 85 5b bd aa 22 68 3e 7a 9d 50 be 30 15 ea 3d
       -0.05359372 0.22669473 -0.20372573 0.114298224

l3.bias f4 [10]
000000 13 cb 42 bc 13 7b 2f bd 65 98 a2 3d 0c 3d 73 3d
       -0.011889237 -0.042841982 0.07939223 0.05938439
000010 de 88 45 bd 18 6d b3 3d 18 2d 23 3c a8 65 e8 3d
       -0.04822623 0.08761042 0.009959482 0.113475144
000020 29 5c fc bd 06 b9 07 bc
       -0.12322266 -0.008283859
