lightning_logs/version_9/checkpoints/epoch=2-step=705.ckpt (torch, 99467 bytes, 6 tensors)

l1.weight f4 [10, 784]
00000000: a060 7e3c 38f8 c33b f833 843c e044 7fbc
00000010: 6694 d63c c0f4 b5bc 24a0 fcbb b10b 0d3d
00000020: 16ff e73c 071a 83bc 48e7 0c3c 6c22 97bc
00000030: 386e ce3c d4db 8b3c 18d5 f2bc 9268 33bc
00000040: 5cf9 fbbc aca8 babc a605 bf3c 809b 03bc
00000050: ae70 3ebc 2093 3e3b b0e4 e63b f0b5 f63b
00000060: cc39 adbc 1c0d 2d3c 82b8 9e3c 9c0e a9bb
00000070: f003 af3c 00c5 4739 65d7 dcbc e058 803c
00000080: 9925 093d ae1b 00bd fe9d d63c 4175 0a3d
00000090: c03f 5b3a db17 ddbd 8c09 2cbf deb5 2f3f
000000a0: cb9d 353f 91e0 223f fbb4 73bf 32ad 65be
000000b0: 3b2d 7dbe f94a 91be 86b2 fcbd c535 45be
000000c0: ec1c 06be cbdf afbd 18e0 a13b 65d5 97bc
000000d0: daaf c9bc 92a1 0dbc 8e01 ebbc 90be 363b
000000e0: 7857 153c 9e9a acbc d9d7 043d 2372 1e3f
000000f0: 8f4a 513f 9bd1 f7be 70ba 05bf 2e39 13bf
00000100: f0cb 3cbf 1bfe 0bbf b543 21bf d967 24bf
00000110: 0e35 e7be 7d2c a4be 830f 92bf c81d 80bf
00000120: 3f13 c0be 53c2 46bf 8de3 80bf df73 4dbf
00000130: 625e 83bf 20ba 14bf d23e 90be 00a5 04bf
00000140: 1137 2ebe 9c0f 0cbc de6c f4bc 3c71 24bc
00000150: 009c 9038 3850 13bc aaf7 27bc 832b bb3c
00000160: 4729 a7be 941f 13bf fd31 96bf 5caf 80bf
00000170: 567a c9be 1633 37bf 215e ccbe 9ea6 87bd
00000180: 3e1b a83a 618f 8f3e 3821 393e ae5c f3bd
00000190: 5ee6 583d 8d51 173d b5ba babe c838 cdbe
000001a0: f428 1abe ec58 e7be 39a2 0dbf 5cb2 07bf
000001b0: 86e8 36be 6896 8e3e c8c4 80bf 48c2 c1bc
000001c0: df03 093d 476b 0dbd e028 013b ba48 ccbe
000001d0: 32a5 0ebf acc3 82bf eaba 76bf 7096 1cbe
000001e0: 38f2 413e 441f 9f3e 60f5 933c 4a08 843e
000001f0: efa0 4b3d 13ef 633d e1ee 01be 4345 e1bc
00000200: 1b2b adbd e72d 04bc 5293 66bd d8ca 0cbe
00000210: f788 01be 310d 80be 585e a23d 46e1 d53c
00000220: 415d 2dbf 4992 28bf dc31 71bf 5c6e fbbc
00000230: f84b 6d3c 0817 fcbc e1b6 7bbf 6b35 17bf
00000240: 6a54 4dbf e11d a8bf 2218 6fbe 6f26 4cbe
00000250: 1a91 763c 8541 11be 70c5 6fbd 5e2d 3dbd
00000260: 7a80 efbd 891b 203e 497b a33e 1ff4 fa3d
00000270: 2b2e 153e 8e55 db3d 93ab 1f3c d8c7 febc
00000280: 68d1 6ebe 0bd8 d5be 32a9 3fbd 0cb6 46be
00000290: 8a4a 79bf 8fe1 bcbf afa2 66bf 766b 2dbf
000002a0: 60b6 d23b 7452 4c3c 5239 66be c128 ddbd
000002b0: 2585 0bbf 434b a1be 283f 43bd 0855 75bd
000002c0: 97f8 27be f945 06bf 22f0 3abe 4764 bfbd
000002d0: a467 afbd 50d0 b83d 1965 413e 5530 e23d
000002e0: e570 cb3d 5b5a 413e b718 253e f74a a03d
000002f0: 8a53 2ebe 56b6 2d3e e9d5 523e 6380 6cbe
00000300: 633e 8abf e4f5 c7bf 102c 93bf 71af 4bbf
00000310: 7060 ccbb 4027 bfbb f83f ecbd d72c e8be
00000320: a1ed 33bf 3d90 ba3e 4907 ff3d c617 b1bc
00000330: 90c7 9fbe 73b5 37bd 888b 6f3d e176 803e
00000340: ef81 5c3d 798b fd3d d390 f73c b0c3 233e
00000350: fc51 5e3e 23f3 a83e 8b52 943e fe70 503e
00000360: 60c8 223d 6730 1a3d 6c22 e7bd ddf6 06be
00000370: ec3d 6ebf ced7 cebf 3ea7 b2bf 8568 88be
00000380: 917f 4d3f b2d9 bc3c e447 a43e 3d80 9dbe
00000390: c4b5 15bf da2d d03e de17 593e 5bde 8e3b
000003a0: 153c 80bd 075a 0d3e 153f 173e 142e 11ba
000003b0: 0d67 333e 07e7 423d 994b 3d3e 8e28 d73e
000003c0: ddcf 293f 88d9 fb3e e74f b33e 3ba6 1e3e
000003d0: 997e 9a3d 9b65 d8bc 9d10 90bd 1c01 9b3e
000003e0: 67fe 63bf 9b30 fcbf 2d51 a7bf c456 82be
000003f0: 2ea5 0fbd 1b5b f8bd 5a86 0c3e 547c 1abe
0.015525967 0.0059805177 0.016138062 -0.015580386 0.026193809 -0.022211432 -0.00770952 0.034434978
0.028319877 -0.016003622 0.008600064 -0.01844903 0.02519904 0.017072596 -0.029642627 -0.0109502245
-0.030758552 -0.022785507 0.023318123 -0.00803268 -0.011623545 0.0029079393 0.0070463046 0.007529013
-0.021145724 0.010562208 0.01937509 -0.0051592123 0.021364182 0.00019051507 -0.026958177 0.015667379
0.03348312 -0.031276397 0.026198383 0.03380323 0.00083636865 -0.10795566 -0.6720207 0.6863688
0.709439 0.6362391 -0.9519803 -0.2242935 -0.24724285 -0.28377512 -0.12338738 -0.19258793
-0.1309697 -0.08587607 0.004940044 -0.018534372 -0.024619985 -0.008644478 -0.028687265 0.002788458
0.009115092 -0.021069821 0.03243241 0.6189291 0.8175439 -0.48402104 -0.52237606 -0.57509124
-0.73748684 -0.5468461 -0.6299394 -0.6422096 -0.45157665 -0.32065192 -1.1410984 -1.0009089
-0.37514684 -0.77640265 -1.0069443 -0.8025493 -1.0263178 -0.58096504 -0.28172928 -0.5181427
-0.17013194 -0.008548643 -0.029837068 -0.010036763 6.895512e-05 -0.008991294 -0.010251919 0.022847896
-0.3264868 -0.5747006 -1.1734005 -1.0053515 -0.39351147 -0.71562326 -0.39915565 -0.066235766
0.0012825502 0.28039077 0.18079078 -0.118829116 0.05295407 0.036943007 -0.3647057 -0.40082383
-0.15054685 -0.4518503 -0.5532566 -0.5300653 -0.17862138 0.27849126 -1.0060053 -0.02365221
0.033450957 -0.034526136 0.0019708201 -0.39899236 -0.5572082 -1.0215964 -0.9637896 -0.15291762
0.18940055 0.3107854 0.01806134 0.25787574 0.049714025 0.05564792 -0.12688781 -0.027498847
-0.08455487 -0.008067585 -0.05629284 -0.13749254 -0.12649904 -0.25010064 0.07928151 0.026108395
-0.6772042 -0.65848213 -0.94216704 -0.030692272 0.014483444 -0.0307727 -0.98325926 -0.59065884
-0.8020693 -1.3134118 -0.2334905 -0.19936536 0.015049243 -0.1418515 -0.0585379 -0.046185844
-0.11694427 0.15635504 0.31929997 0.12253594 0.14568393 0.10709678 0.009745496 -0.031101152
-0.2332207 -0.4176639 -0.046792217 -0.19405383 -0.9737936 -1.4756335 -0.90091985 -0.677421
0.006430432 0.01247083 -0.22482803 -0.10798789 -0.5450004 -0.31502733 -0.047667652 -0.059895545
-0.16403423 -0.5245052 -0.18255666 -0.09345298 -0.0856469 0.090241075 0.18886222 0.11044375
0.09933642 0.18882124 0.16122709 0.078267984 -0.17024055 0.16964087 0.20589413 -0.2309585
-1.0800289 -1.5621915 -1.1497822 -0.7956458 -0.006237082 -0.0058335364 -0.115356386 -0.4534671
-0.7028447 0.3643817 0.124525614 -0.021617781 -0.31206942 -0.044850778 0.058482677 0.25090697
0.05383485 0.12380118 0.030220425 0.15992618 0.21710962 0.32998 0.28969225 0.20355603
0.039741874 0.037643816 -0.11285862 -0.13180108 -0.93063235 -1.6159608 -1.3957288 -0.26642242
0.80272776 0.023053024 0.32086098 -0.307619 -0.5848048 0.40659982 0.21200511 0.004360003
-0.0626146 0.13803874 0.14770158 -0.0005538177 0.1751978 0.047583606 0.1848587 0.42023128
0.663328 0.491894 0.35021898 0.154931 0.07543678 -0.026415637 -0.07034419 0.30274284
-0.8906006 -1.9702333 -1.3071648 -0.25456822 -0.035069637 -0.12126752 0.13723126 -0.1508649

l1.bias f4 [10]
00000000: 23d4 e8be 8284 823e 59d5 873e c884 1fbf
00000010: f731 19be 23d1 eebd d0c3 98be b093 4e3f
00000020: 3a34 d7bf 3011 d1bd
-0.45474347 0.2549172 0.2652996 -0.62311983 -0.14960466 -0.116609834 -0.29836893 0.80694103
-1.6812813 -0.102083564

exp_avg f4 [10, 784]
00000000: 0000 0000 0000 0000 0000 0000 0000 0000
00000010: 0000 0000 0000 0000 0000 0000 0000 0000
00000020: 0000 0000 0000 0000 0000 0000 0000 0000
00000030: 0000 0000 0000 0000 0000 0000 0000 0000
00000040: 0000 0000 0000 0000 0000 0000 0000 0000
00000050: 0000 0000 0000 0000 0000 0000 0000 0000
00000060: 0000 0000 0000 0000 0000 0000 0000 0000
00000070: 0000 0000 0000 0000 0000 0000 0000 0000
00000080: 0000 0000 0000 0000 0000 0000 0000 0000
00000090: 0000 0000 fa15 c72c 5750 dc2e 1eca 9b34
000000a0: 8930 0835 d578 6e32 8dae cf2c 1d78 2d2e
000000b0: 4240 c033 add9 3a33 9a9b 3803 e0a8 8702
000000c0: c580 1f02 22b2 3201 0000 0000 0000 0000
000000d0: 0000 0000 0000 0000 0000 0000 0000 0000
000000e0: 0000 0000 0000 0000 0000 0000 2373 4835
000000f0: a611 b2af fe39 0e2c c58c e533 cec0 0034
00000100: 0d82 2b33 74b9 6731 a8ff 9232 0082 aa34
00000110: 6a33 2c35 1c6d 9cb7 7882 0fb7 68f1 5737
00000120: e74e bd37 e116 4237 0e40 b835 2a6c 6f34
00000130: 3514 2636 d498 8236 7a4f a434 a855 5e0e
00000140: 2cb0 8d09 0000 0000 0000 0000 0000 0000
00000150: 0000 0000 0000 0000 0000 0000 7a01 1e37
00000160: c3e1 7038 0bc7 d0b2 7ef7 c733 4fd7 05b4
00000170: e273 6037 2910 0938 f660 8cb5 3129 c537
00000180: ee81 dd37 b0ac 00b8 4d23 63b8 734b 36b8
00000190: 8952 03b8 2f05 8937 46c3 4539 6635 3939
000001a0: 6a47 1e39 683c 5d38 bcad 9bb8 6cd8 8d34
000001b0: ceeb 8734 d242 8733 2a4e 8a32 0000 0000
000001c0: 0000 0000 0000 0000 0000 0000 628a d436
000001d0: 637d 3832 c199 8d34 079a 1b36 a0e6 a637
000001e0: f566 7138 937f a337 e3fa d835 2791 a938
000001f0: 4e78 3b38 b400 feb8 1fa0 93b9 2206 b2b9
00000200: c4ef 8bb8 a461 e439 e15b 0a3a c0d2 9839
00000210: 07e4 2739 88cf f838 6468 9fb9 0f62 8ab9
00000220: c199 6736 e979 3e35 5b8f b031 0000 0000
00000230: 0000 0000 0000 0000 1432 f731 7a71 5038
00000240: c659 9632 0e8f ea36 80ef 3837 b992 5c38
00000250: a3e8 d538 28ae 3238 22c6 a937 5bb5 81b8
00000260: e217 e8b8 6769 94b9 4d8b ccb9 228f 0aba
00000270: 1d5c bbb9 aa71 1d39 84af ad39 410b c639
00000280: 7e13 9439 acd8 aa39 2497 6739 6dfd 0139
00000290: a3e9 ba37 b0fa 2133 a808 492d 596c f22d
000002a0: 0000 0000 0000 0000 50fc 2d2b 3687 ba22
000002b0: 2c78 8a35 2f24 a237 62a6 e637 02d0 8b38
000002c0: 7869 9838 eaa2 1138 ed0a bab8 1396 ceb8
000002d0: 3bc7 e0b8 0207 afb9 fdcd d5b9 a3b5 3db9
000002e0: d366 4139 bee1 0a39 d2e0 4b39 d676 73b8
000002f0: 3f14 8539 5624 b039 a634 e539 2466 c639
00000300: fd39 de38 607d 5738 370d 6735 d7d2 832e
00000310: 0000 0000 0000 0000 3ce8 9223 b635 7b2a
00000320: a2ac 2e37 f357 0136 bcf8 d5b7 8281 0837
00000330: d1cd 28b7 c6cf b0b9 ed9b 92b9 2fff 8cb9
00000340: 266a e1b9 da56 f6b9 196c 44b9 fc0e 68b8
00000350: 588e 9637 f0be 74b9 76d4 8bb7 c4fe 3ab7
00000360: 6a21 5039 3c3b cc39 9961 253a 11c0 023a
00000370: 7a97 2d39 4ef7 3637 3812 b232 3c97 d7ac
00000380: 7300 b2b7 0000 0000 2af1 dbb6 7fd0 d5b7
00000390: b033 edb6 0679 e0b8 ff7e d3b8 7ae1 51b9
000003a0: 7322 43b9 08bd 13ba a8b3 ebb9 acb6 e2b9
000003b0: 1e54 eeb9 0583 97b8 4d94 1fb9 cfe2 d7b9
000003c0: 75da f2b9 150e 29ba 0338 94b9 e8f8 c3b9
000003d0: 423a 37b8 73b0 d338 7cb1 3739 6b1d 8a39
000003e0: 85ae fd38 1027 3d38 3287 0432 8e0c 380c
000003f0: 0000 0000 2a83 bc01 1c77 34b6 8d35 81b8
0.0 0.0 0.0 0.0 0.0 0.0 0.0 0.0
0.0 0.0 0.0 0.0 0.0 0.0 0.0 0.0
0.0 0.0 0.0 0.0 0.0 0.0 0.0 0.0
0.0 0.0 0.0 0.0 0.0 0.0 0.0 0.0
0.0 0.0 0.0 0.0 0.0 5.65836e-12 1.0018713e-10 2.901806e-07
5.0734576e-07 1.3880897e-08 5.902673e-12 3.9442328e-11 8.952385e-08 4.3504475e-08 5.425136e-37 1.9933397e-37
1.171843e-37 3.282124e-38 0.0 0.0 0.0 0.0 0.0 0.0
0.0 0.0 0.0 7.467335e-07 -3.239055e-10 2.0211606e-12 1.0689249e-07 1.1991071e-07
3.993232e-08 3.3720342e-09 1.7112896e-08 3.1759555e-07 6.414981e-07 -1.8647457e-05 -8.553841e-06 1.2871205e-05
2.2567297e-05 1.1568628e-05 1.3727711e-06 2.229796e-07 2.474769e-06 3.8920934e-06 3.0605207e-07 2.7404855e-30
3.4110187e-33 0.0 0.0 0.0 0.0 0.0 0.0 9.417878e-06
5.7430716e-05 -2.4304901e-08 9.311678e-08 -1.2464919e-07 1.33784215e-05 3.2678396e-05 -1.0459032e-06 2.3503411e-05
2.6405756e-05 -3.0678406e-05 -5.4153894e-05 -4.346245e-05 -3.13097e-05 1.6334086e-05 0.00018860129 0.00017662867
0.00015094658 5.2746764e-05 -7.4233365e-05 2.6420764e-07 2.531728e-07 6.298582e-08 1.610086e-08 0.0
0.0 0.0 0.0 6.334202e-06 1.0738719e-08 2.6375167e-07 2.3186456e-06 1.9896135e-05
5.7554764e-05 1.949052e-05 1.6166272e-06 8.085585e-05 4.4696317e-05 -0.00012111795 -0.00028157324 -0.00033955375
-6.672696e-05 0.00043560297 0.0005277973 0.0002914872 0.00016011308 0.00011864217 -0.0003040462 -0.0002639447
3.451118e-06 7.095792e-07 5.138572e-09 0.0 0.0 0.0 7.1943393e-09 4.9696748e-05
1.7503123e-08 6.990397e-06 1.1023018e-05 5.2588734e-05 0.000101999634 4.2600703e-05 2.0238633e-05 -6.1849794e-05
-0.000110670706 -0.0002830729 -0.000390137 -0.00052856107 -0.0003573605 0.0001501503 0.000331279 0.00037773888
0.00028243283 0.0003258636 0.00022086181 0.00012396807 2.2281723e-05 3.7713733e-08 1.1427449e-11 2.756033e-11
0.0 0.0 6.18121e-13 5.055856e-18 1.0316776e-06 1.9328754e-05 2.7495615e-05 6.666781e-05
7.26757e-05 3.472242e-05 -8.871206e-05 -9.850799e-05 -0.00010718262 -0.00033383822 -0.0004078 -0.0001809211
0.0001844422 0.00013244801 0.0001944334 -5.804639e-05 0.0002538282 0.00033596408 0.0004371751 0.00037841604
0.00010596586 5.137676e-05 8.6073436e-07 5.994643e-11 0.0 0.0 1.5927707e-17 2.2311913e-13
1.0411402e-05 1.927369e-06 -2.5507405e-05 8.136385e-06 -1.0061501e-05 -0.0003372414 -0.00027963464 -0.00026893007
-0.0004299443 -0.00046985486 -0.00018732286 -5.5327066e-05 1.7947677e-05 -0.00023340783 -1.6669026e-05 -1.1145781e-05
0.00019848873 0.00038954045 0.00063087937 0.00049877266 0.00016554995 1.09056255e-05 2.0730212e-08 -6.127458e-12
-2.1219463e-05 0.0 -6.554784e-06 -2.5488667e-05 -7.0691676e-06 -0.00010703695 -0.00010084919 -0.0002001579
-0.00018609483 -0.0005635773 -0.00044956547 -0.0004324218 -0.0004545757 -7.2246454e-05 -0.00015218668 -0.0004117698
-0.000463206 -0.0006448937 -0.00028270492 -0.00037378748 -4.3684857e-05 0.0001009413 0.00017518358 0.0002634333
0.00012096487 4.509749e-05 7.714151e-09 1.4178622e-31 0.0 6.9248504e-38 -2.689142e-06 -6.161174e-05

exp_avg_sq f4 [10, 784]
00000000: 0000 0000 0000 0000 0000 0000 0000 0000
00000010: 0000 0000 0000 0000 0000 0000 0000 0000
00000020: 0000 0000 0000 0000 0000 0000 0000 0000
00000030: 0000 0000 0000 0000 0000 0000 0000 0000
00000040: 0000 0000 0000 0000 0000 0000 0000 0000
00000050: 0000 0000 0000 0000 0000 0000 0000 0000
00000060: 0000 0000 0000 0000 0000 0000 0000 0000
00000070: 0000 0000 0000 0000 0000 0000 0000 0000
00000080: 0000 0000 0000 0000 0000 0000 0000 0000
00000090: 0000 0000 c4cb 7122 576a 9926 3f62 b031
000000a0: 0746 ac32 44e1 6831 e467 2d29 c3fc 162f
000000b0: 9196 8f2f 73f2 a42d 1409 842c bc3c 4b2b
000000c0: 2e8c b22c 1e4d af2a 0000 0000 0000 0000
000000d0: 0000 0000 0000 0000 0000 0000 0000 0000
000000e0: 0000 0000 0000 0000 0000 0000 e0cf a02c
000000f0: 631b 0e2b 8190 db26 9d67 d530 c662 0931
00000100: 4188 be2f fc71 0f2f 42d5 642e c1d3 f431
00000110: cc14 c732 23e8 9c31 dcd0 4b31 13da de31
00000120: e7b3 b832 b4aa 5932 fc5b d831 2aae f730
00000130: 12ea 202f e56b 5f2e 2734 6d2c e6f0 8e27
00000140: c5ff 6626 0000 0000 0000 0000 0000 0000
00000150: 0000 0000 0000 0000 0000 0000 cd06 822e
00000160: 9740 6730 286a 0233 e5e0 0733 126b 1033
00000170: 4305 4033 c89c 9e33 3316 b133 657d 4d34
00000180: f8d5 8a34 4e0a a234 0dac 9f34 c523 b634
00000190: 489c ed34 bff9 c034 a35e a234 4587 8934
000001a0: ef08 1034 717f be33 3b11 2733 f4f1 3132
000001b0: 9a26 b131 70db 2430 7e0e a82d 0000 0000
000001c0: 0000 0000 0000 0000 0000 0000 d9d8 562d
000001d0: 7af8 162f 60ca 0133 0333 4533 3136 7f34
000001e0: 3714 2c35 4ee8 4235 04b5 7135 5a30 9235
000001f0: 22bc a835 fbaf be35 6498 eb35 7dd5 0736
00000200: 5a22 1d36 790a 1236 fd42 e235 afe7 c435
00000210: 7705 8e35 fdbd 1f35 6db2 b534 42be 5434
00000220: 84f0 8c33 ae1d e831 cff0 082c 0000 0000
00000230: 0000 0000 0000 0000 551c 6f27 af35 4c30
00000240: 9f73 ba30 26cf 6733 abfb b334 8a09 8735
00000250: f711 b135 8a09 df35 7e39 1c36 90d2 5236
00000260: 3ea6 8736 bbb2 a836 eab3 c236 677f ce36
00000270: 4b1c c636 7b00 b736 f906 a036 f9f2 6a36
00000280: ad82 3036 08bf d535 a842 5a35 8f81 c434
00000290: 81d4 1034 7b46 0932 5e8f 0630 5618 f630
000002a0: 0000 0000 0000 0000 9b4a 3f2b dd0e f22e
000002b0: 9dcb fa31 db36 f833 3a8a 7235 02cb d235
000002c0: 49b6 0836 f7a5 4836 c898 8836 876a b636
000002d0: c2a5 e336 b357 0537 55a5 1337 05a2 1937
000002e0: aed3 0d37 6918 0237 9c5a e836 62fc c736
000002f0: aad4 8a36 2116 3436 cfe6 c135 8c8c 3835
00000300: 100f 1934 57aa 3133 72fa 9e32 f416 2332
00000310: 0000 0000 0000 0000 b3c9 8e2d 17af f32f
00000320: 258a fe31 dd01 5234 a202 af35 a77a 0136
00000330: c39f 4636 80e9 8636 d2d8 af36 3396 dd36
00000340: ad38 f836 8f15 1737 554a 1d37 59d8 1837
00000350: c4ea 2637 8306 1d37 53a1 0c37 9da3 0137
00000360: 5418 c836 4b9d 7c36 a258 1736 7b69 8a35
00000370: 0e26 9034 4136 3833 6b46 2432 6133 cf2f
00000380: 602b b730 0000 0000 a503 282f f275 4231
00000390: a067 d432 8fa6 9a34 6ec0 d735 a898 2636
000003a0: 368f 7936 4ab0 9536 3570 b136 2118 d836
000003b0: 4aba ef36 a4e5 0737 a9ff 0937 f7b6 0d37
000003c0: 7a80 1d37 b6b4 1e37 89ac 0637 7bcd ff36
000003d0: 4290 e436 7b61 a136 0aae 3f36 f1ff b335
000003e0: c17e 9434 d8ab 3e33 3aec 4331 b30b 032f
000003f0: 0000 0000 ebc2 de2c 1cb2 452e ddbc fe31
0.0 0.0 0.0 0.0 0.0 0.0 0.0 0.0
0.0 0.0 0.0 0.0 0.0 0.0 0.0 0.0
0.0 0.0 0.0 0.0 0.0 0.0 0.0 0.0
0.0 0.0 0.0 0.0 0.0 0.0 0.0 0.0
0.0 0.0 0.0 0.0 0.0 3.2769463e-18 1.0645331e-15 5.1334434e-09
2.005528e-08 3.3888492e-09 3.8503827e-14 1.373222e-10 2.6118532e-10 1.875231e-11 3.7526735e-12 7.2204374e-13
5.0746274e-12 3.1139755e-13 0.0 0.0 0.0 0.0 0.0 0.0
0.0 0.0 0.0 4.5705523e-12 5.048654e-13 1.5235346e-15 1.5527238e-09 1.999227e-09
3.4657613e-10 1.304627e-10 5.203061e-11 7.1254083e-09 2.3176106e-08 4.5665884e-09 2.965911e-09 6.4858425e-09
2.150223e-08 1.2669876e-08 6.296885e-09 1.8021116e-09 1.4635074e-10 5.080016e-11 3.3708676e-12 3.96741e-15
8.014391e-16 0.0 0.0 0.0 0.0 0.0 0.0 5.9129236e-11
8.41291e-10 3.0364532e-08 3.1636677e-08 3.3624993e-08 4.470827e-08 7.385967e-08 8.246243e-08 1.9137731e-07
2.5860186e-07 3.018235e-07 2.974124e-07 3.3926167e-07 4.42584e-07 3.59445e-07 3.024371e-07 2.561666e-07
1.3414295e-07 8.870746e-08 3.889839e-08 1.035777e-08 5.1557665e-09 5.997469e-10 1.9105825e-11 0.0
0.0 0.0 0.0 1.22126415e-11 1.3730697e-10 3.0219212e-08 4.591403e-08 2.376844e-07
6.410441e-07 7.260868e-07 9.004291e-07 1.089192e-06 1.2571729e-06 1.420732e-06 1.7553216e-06 2.0240834e-06
2.3414818e-06 2.1761791e-06 1.6857808e-06 1.4670567e-06 1.0581415e-06 5.9508585e-07 3.38437e-07 1.9813254e-07
6.5630076e-08 6.755463e-09 1.9460438e-12 0.0 0.0 0.0 3.3183272e-15 7.4291057e-10
1.3566143e-09 5.397228e-08 3.352446e-07 1.006106e-06 1.3192756e-06 1.6617571e-06 2.3279276e-06 3.1415002e-06
4.0426667e-06 5.027597e-06 5.8025953e-06 6.15411e-06 5.9041536e-06 5.453881e-06 4.7691833e-06 3.5010146e-06
2.6302107e-06 1.5925334e-06 8.1308326e-07 3.660211e-07 1.3488354e-07 7.990475e-09 4.8952653e-10 1.7905772e-09
0.0 0.0 6.7960367e-13 1.1007526e-10 7.2991058e-09 1.1558378e-07 9.035317e-07 1.5705302e-06
2.0371683e-06 2.9898927e-06 4.070902e-06 5.436424e-06 6.784424e-06 7.947837e-06 8.800377e-06 9.157234e-06
8.45354e-06 7.754287e-06 6.924687e-06 5.9600434e-06 4.137478e-06 2.683497e-06 1.4446795e-06 6.8749864e-07
1.4254715e-07 4.1365947e-08 1.850751e-08 9.493068e-09 0.0 0.0 1.6233103e-11 4.432585e-10
7.408078e-09 1.9558452e-07 1.3039282e-06 1.929389e-06 2.9597293e-06 4.020694e-06 5.2406476e-06 6.6037987e-06
7.397574e-06 9.005321e-06 9.375236e-06 9.110278e-06 9.949032e-06 9.359445e-06 8.3822115e-06 7.727093e-06
5.9632966e-06 3.7642483e-06 2.2552344e-06 1.03125e-06 2.6849779e-07 4.2890182e-08 9.562068e-09 3.7689588e-10
1.332733e-09 0.0 1.5280806e-10 2.829776e-09 2.4727171e-08 2.8805923e-07 1.6074753e-06 2.4824785e-06
3.718725e-06 4.461069e-06 5.2880737e-06 6.4401106e-06 7.144442e-06 8.100094e-06 8.225362e-06 8.446855e-06
9.3878425e-06 9.459609e-06 8.027194e-06 7.6235133e-06 6.8117233e-06 4.809522e-06 2.8562522e-06 1.3411028e-06
2.7659374e-07 4.4394113e-08 2.8510514e-09 1.1918537e-10 0.0 6.3312597e-12 4.4950807e-11 7.413844e-09

exp_avg f4 [10]
00000000: 9d08 8db9 2e45 9dba 0419 c53a 5cae bdba
00000010: 50d0 5905 92db 9304 8fe9 9d39 3585 4e3b
00000020: 5a5d 873b e992 b005
-0.00026900033 -0.0011998767 0.0015037362 -0.0014471519 1.0241552e-35 3.4761177e-36 0.00030119388 0.0031512503
0.0041310014 1.6604927e-35

exp_avg_sq f4 [10]
00000000: bd18 c037 4c43 f137 6401 5138 781d 9c38
00000010: 87b2 1434 490a 8932 a87e e137 305f 4e38
00000020: 932a 1d39 9c70 c334
2.2899703e-05 2.8760776e-05 4.9830778e-05 7.444149e-05 1.3848522e-07 1.5953576e-08 2.6881069e-05 4.9202878e-05
0.00014988547 3.6403515e-07
