lightning_logs/version_1/checkpoints/epoch=1-step=3750.ckpt (torch, 225043 bytes, 6 tensors)

l1.weight f4 [64, 784]
0	0xbcf26d95	-0.029593268
1	0x3ae57160	0.0017505102
2	0x3c975d7e	0.018477198
3	0x3a821b40	0.0009926334
4	0xbca9e1ec	-0.02073761
5	0x3cadf9d6	0.021237295
6	0x3b858918	0.0040751807
7	0xbd11d8ac	-0.035607025
8	0xbcdcee2a	-0.026969034
9	0xbcdf15a3	-0.027231997
10	0xbd109bce	-0.035304837
11	0x3bdd2420	0.006748691
12	0x3ae8b946	0.0017755411
13	0x3cca5408	0.024698272
14	0x3c1435e8	0.009046055
15	0x3cd00ac0	0.025395751
16	0x3cc6c11a	0.024262
17	0xbbd9131c	-0.0066245925
18	0x3cb27612	0.021784816
19	0x3d07e67b	0.033178788
20	0x3d0d8abd	0.03455614
21	0x3d03b7b9	0.032157633
22	0x3cd8547c	0.026407473
23	0xbd0d4920	-0.034493566
24	0x3cc786e6	0.024356317
25	0x3c151fb8	0.009101801
26	0xbcaf393a	-0.021389592
27	0xbd0e7952	-0.03478367
28	0xbcb4879e	-0.022037324
29	0x3c9b180a	0.018932361
30	0x3bc39fa8	0.0059699602
31	0xbd049a18	-0.032373518
32	0xbccaaf59	-0.024741815
33	0xbcd3674e	-0.025806095
34	0xbc62b423	-0.013836893
35	0x3c7af8fc	0.015318152
36	0xbcf3728b	-0.029717704
37	0xbc9aedd5	-0.018912235
38	0x3ca0715f	0.01958531
39	0xbcf505c1	-0.02990997
40	0xbccdc7da	-0.02511971
41	0x3c795b21	0.015219481
42	0x3c491083	0.012272003
43	0xbc4a014a	-0.012329409
44	0xbad3c9cc	-0.0016158163
45	0x3ce28703	0.02765227
46	0x3d001f50	0.031279862
47	0x3c793405	0.015210156
48	0x3cd6f750	0.026240975
49	0xbc00ae57	-0.007854066
50	0xbd07d886	-0.033165477
51	0xbc9a84d5	-0.018862167
52	0xbc7c1f6a	-0.015388349
53	0x3ced1a4e	0.028943207
54	0x3d0b74b1	0.034046832
55	0xbd00d045	-0.03144862
56	0x3cecc54e	0.028902676
57	0x3c8c6e34	0.017142393
58	0x3c7c3e44	0.015395705
59	0x3cfbf013	0.030754125
60	0xbbf8fcfa	-0.0075985165
61	0xbc65ff20	-0.014037877
62	0xbd056694	-0.03256853
63	0xbc2136ef	-0.009839757
64	0x3c7d8c8e	0.015475405
65	0xbbba59d9	-0.00568698
66	0xbc6e3771	-0.014539585
67	0xbd0b57a9	-0.034019146
68	0xbc52455b	-0.012833918
69	0x3ca5fbec	0.020261727
70	0xbc5c5612	-0.013448255
71	0x3cd0b80e	0.02547839
72	0xbc09d748	-0.008413143
73	0x3cff3707	0.031154169
74	0xbcc08c3a	-0.023504365
75	0x3bbaeb7d	0.005704342
76	0xbcacfcb5	-0.021116594
77	0xbc9ffac0	-0.019528747
78	0x3c9f9596	0.019480508
79	0x3c6edd66	0.014579153
80	0x3c942f16	0.018088859
81	0x3c45a449	0.012063094
82	0x3cb59f2e	0.02217063
83	0x3c84c810	0.016208678
84	0x3c8ced18	0.017202899
85	0x3d03a973	0.03214402
86	0x3ccad6ee	0.02476069
87	0xbcfd3ffa	-0.030914295
88	0xbca77298	-0.020440385
89	0xbc8f7683	-0.017512565
90	0xbc4d633c	-0.012535866
91	0xbd0e848a	-0.034794368
92	0xbcaf6eff	-0.021415232
93	0xbcc3046b	-0.023805818
94	0x3ba190c1	0.004930586
95	0xbcdc8150	-0.02691713
96	0x3c7184b9	0.014741116
97	0x3cbe0c37	0.023199184
98	0x3d040560	0.03223169
99	0x3cfd56ed	0.030925239
100	0xbd08bfed	-0.03338616
101	0x3c2827b6	0.010263374
102	0xbce407e4	-0.027835794
103	0xbc762133	-0.015022564
104	0x3c8b979c	0.017040066
105	0x3d00ed2c	0.031476185
106	0xbbc1f695	-0.0059192874
107	0x3cfc2bb1	0.030782552
108	0x3c4923c5	0.0122765945
109	0x3cccd627	0.02500446
110	0x3d02ac8a	0.031902827
111	0xbcbc4083	-0.02297998
112	0xbd07e1d4	-0.03317435
113	0xbd111c5e	-0.035427444
114	0xbc5cfc37	-0.013487867
115	0xbc56bfe1	-0.013107271
116	0xbc8174c1	-0.015802743
117	0xbc452bff	-0.012034415
118	0xbc5a8e7f	-0.013339638
119	0x3c854cb0	0.016271919
120	0x3ceb3cc6	0.028715502
121	0x3b03e1e1	0.0020123648
122	0xbd02f0e3	-0.03196801
123	0x3cc6aa46	0.024251115
124	0xbc3d7b9b	-0.011565114
125	0x3cedd1a3	0.029030627
126	0x3b82209a	0.0039711716
127	0xbcce82f7	-0.025208933
128	0xbca3f934	-0.02001629
129	0x3d00165c	0.031271324
130	0x3ceb9f0d	0.028762365
131	0x3d227852	0.039665528
132	0x3d18ba6a	0.037287153
133	0x3d01fc90	0.031735003
134	0xbc7818c1	-0.015142621
135	0xbce8189b	-0.028332045
136	0x3ccb3a1e	0.024807986
137	0x3bdfae20	0.0068261772
138	0xbd04ce57	-0.032423344
139	0xbca7759c	-0.020441823
140	0xbcf0b721	-0.029384198
141	0xbc64a6fc	-0.013955828
142	0x3c5057ca	0.012716243
143	0xbca2a07e	-0.01985192
144	0x3c3eec1b	0.011652972
145	0xbd035c98	-0.032070726
146	0xbc33cf17	-0.010974667
147	0xbcd65609	-0.026164072
148	0x3cf8d198	0.03037338
149	0xbd098159	-0.03357062
150	0x3b959a8a	0.0045655416
151	0xbc8846fe	-0.016635414
152	0xbbde08fb	-0.006775973
153	0xbc1695d0	-0.0091909915
154	0x3d426b1b	0.047465425
155	0x3cee96fc	0.02912473
156	0xbcb42b42	-0.021993283
157	0xbc864e52	-0.016394768
158	0xbb4e471c	-0.003147549
159	0xbcce56f0	-0.02518794
160	0xbc743ed7	-0.01490756
161	0xbbcda811	-0.0062761386
162	0x3c464ba9	0.012103
163	0xbcbf2252	-0.023331795
164	0x3ceb1581	0.028696777
165	0x3d0d65eb	0.034521025
166	0x3cccec92	0.02501515
167	0xbc96ff2b	-0.01843222
168	0x3ce99342	0.0285126
169	0xba8b3b9e	-0.0010622626
170	0xba32cc83	-0.0006820636
171	0xbca9d41a	-0.02073102
172	0xbcf474f4	-0.029840924
173	0x3cf162da	0.029466081
174	0xb908e6c9	-0.00013055945
175	0xbcd6ab8d	-0.026204849
176	0x3d0323fd	0.032016743
177	0x397434d3	0.00023289332
178	0xbb9915c0	-0.0046717823
179	0xbcc30b2a	-0.023809034
180	0x3c5bd204	0.013416771
181	0x3cfae1e3	0.03062529
182	0x3d3d6246	0.0462363
183	0xba8831d1	-0.0010390823
184	0x3cff6a1e	0.03117853
185	0xbc9bc197	-0.01901321
186	0x3d0dc058	0.03460726
187	0xbccaa27d	-0.024735684
188	0xbb9dc15c	-0.00481431
189	0x3a80611f	0.0009794569
190	0xbbad4c81	-0.005288661
191	0x3be5267f	0.0069931145
192	0x3aafff25	0.001342748
193	0xbc8dd755	-0.017314592
194	0xbb787f5e	-0.0037917714
195	0x3c28e1dd	0.010307756
196	0xbc816ef5	-0.015799979
197	0xbd066ba0	-0.032817483
198	0x3c21b517	0.009869835
199	0x3cd34f32	0.0257946
200	0x3cd51999	0.026013182
201	0x3bda1444	0.006655248
202	0x3cec33e5	0.028833339
203	0xbca5c8d9	-0.020237373
204	0x392f1caa	0.00016699979
205	0x3bb42aec	0.0054982807
206	0x3cd569c9	0.026051419
207	0xbb5d0801	-0.0033726695
208	0xbc8b66a9	-0.017016726
209	0x3c74f61e	0.014951257
210	0x3b8da64a	0.0043228017
211	0x3ca6d3b6	0.020364624
212	0xbc2dbbb9	-0.010603839
213	0x3d0f317d	0.034959305
214	0xbc088dde	-0.008334605
215	0xba6ec1d9	-0.0009107865
216	0xbc8237af	-0.015895693
217	0x3b8fb88f	0.004386015
218	0x3cc859f8	0.024456963
219	0x3b3dcf97	0.0028962845
220	0xbca542e8	-0.020173505
221	0x3c4f7363	0.012661788
222	0xbcc2e5b6	-0.023791175
223	0x3d001913	0.031273913
224	0x3cd13129	0.025536137
225	0xbd09d47f	-0.033649918
226	0x3cf36265	0.029710004
227	0xbcaa8384	-0.020814665
228	0xbc838324	-0.016053744
229	0x3c1dbd1c	0.009627607
230	0x3c3a50b1	0.011371777
231	0xbcdd6b83	-0.027028805
232	0xbcdba412	-0.026811633
233	0x3c2db34a	0.010601828
234	0x3cce489f	0.025181113
235	0xbcdededc	-0.027205877
236	0xbb91c829	-0.00444891
237	0x3d071478	0.032978505
238	0x3b94b5e6	0.0045382855
239	0x3d091705	0.03346922
240	0x3ca3fcf5	0.02001808
241	0x3ca3b018	0.019981429
242	0xbcff2d8e	-0.031149652
243	0xb9c120c4	-0.0003683624
244	0xbc56da6d	-0.0131136
245	0xbc53e67f	-0.0129333725
246	0xbc6f4a56	-0.014605125
247	0x3bff6e64	0.007795142
248	0x3cea1e66	0.028578948
249	0xbc6d1456	-0.0144701805
250	0x3c861a1e	0.016369876
251	0xbba9e700	-0.005185008
252	0x3c4f78bc	0.012663063
253	0xbd0ebaf9	-0.03484628
254	0x3c4436bc	0.01197594
255	0x3c0b1e3e	0.008491097

l1.bias f4 [64]
0	0x3d86f66c	0.0658997
1	0x39a856ef	0.00032108228
2	0x3d071c6d	0.032986093
3	0x3cb05e94	0.021529473
4	0xbc09958b	-0.00839747
5	0x3d0539b5	0.032525737
6	0x3cee163e	0.02906334
7	0x3d5fc109	0.054627452
8	0xba949d4d	-0.0011338383
9	0x3c3b51fb	0.01143312
10	0x3cf73e20	0.03018099
11	0x3cb1621d	0.02165323
12	0xbc9f19ea	-0.019421536
13	0x39b6e021	0.00034880734
14	0xbb754b7e	-0.003742903
15	0xbcf225e2	-0.02955908
16	0xba5e8892	-0.00084889785
17	0x3ac36c72	0.0014909639
18	0xbd14d7a6	-0.03633847
19	0x3cfab202	0.030602459
20	0x3c9be20f	0.019028692
21	0xbb675b76	-0.0035302318
22	0xbcc0555c	-0.023478203
23	0x3d4168ac	0.047218964
24	0x3d0960b9	0.033539508
25	0x3c45baac	0.012068432
26	0xbcbb2c9a	-0.022848416
27	0xbd182944	-0.03714873
28	0x3cb5449a	0.022127438
29	0x3c2d861b	0.010591055
30	0xbbe93ad9	-0.007117611
31	0xbca17816	-0.019710582
32	0x3d0f69cf	0.035013016
33	0xbca46b4e	-0.020070698
34	0x3d1d7661	0.038442973
35	0x3caaf99a	0.020870972
36	0xbc08a589	-0.008340248
37	0x3d306dc4	0.04307343
38	0xbbad4fcc	-0.0052890535
39	0xbc738730	-0.014863774
40	0xbc9f21a1	-0.019425215
41	0x3c8217b0	0.015880436
42	0x3c2e04cc	0.010621261
43	0xbc92bb68	-0.017911628
44	0x3c19b8f5	0.009382476
45	0x3d42c260	0.04754865
46	0x3cb45a65	0.02201576
47	0xbc6362e6	-0.01387856
48	0xbd05236d	-0.032504488
49	0xbb9c74cd	-0.004774666
50	0xbb441815	-0.002992158
51	0x3cbf9850	0.023388058
52	0x3cdae6af	0.026721327
53	0x3cae9730	0.021312326
54	0xbce4383c	-0.027858846
55	0x3ce40337	0.027833564
56	0x3d0fb8bc	0.035088286
57	0xbc33b57c	-0.010968562
58	0xbd09b11f	-0.03361618
59	0x3aef6267	0.0018263579
60	0xbc9058da	-0.017620493
61	0xba17fc06	-0.0005797747
62	0xbbb1ed16	-0.005429874
63	0x3c2539d8	0.010084592

l2.weight f4 [64, 64]
0	0x3da17f51	0.07885612
1	0x3df84e25	0.1212428
2	0xbd851c38	-0.06499523
3	0xbdabdacd	-0.08391342
4	0x3dae7f55	0.085203804
5	0x3de22939	0.11043019
6	0x3db8acac	0.090173095
7	0x3dd076cf	0.10178911
8	0x3d4802e8	0.048830897
9	0xbd36e1dd	-0.044648994
10	0x3dd65d1f	0.1046698
11	0xbd175717	-0.03694829
12	0x3b1b6178	0.002370922
13	0xbdcdf334	-0.10056153
14	0xbc85f3c5	-0.01635159
15	0xbd93299b	-0.0718567
16	0x3db6dc11	0.08928693
17	0x3df45a63	0.119313024
18	0x3d6e7f3f	0.05822682
19	0x3daec6c3	0.085340045
20	0x3dc8c5b1	0.09803332
21	0x3ddabc63	0.10680463
22	0xbba3c27a	-0.0049975486
23	0xbcbbbf3a	-0.022918332
24	0xb9bf7c44	-0.00036522944
25	0x3dd9bd40	0.106318
26	0xbdf9504f	-0.12173521
27	0xbd29c0d7	-0.041443672
28	0xbdb8e183	-0.09027388
29	0xbd73d250	-0.05952674
30	0xbc2a9906	-0.01041246
31	0xbca68de5	-0.020331332
32	0xbcaeabec	-0.021322213
33	0x3daa3be9	0.08312208
34	0xbdb7b922	-0.08970858
35	0x3de2d7ee	0.110763416
36	0x3d8af423	0.06784847
37	0xbaf0c7de	-0.0018370112
38	0x3c27f4aa	0.010251204
39	0xbd6c2a96	-0.0576578
40	0xbdc9ff9b	-0.09863206
41	0xbddda512	-0.108225
42	0xbdf2d607	-0.11857229
43	0xbbd1b915	-0.0064002373
44	0x3de4b174	0.11166659
45	0x3dace14e	0.08441411
46	0x3ac4e82f	0.0015022809
47	0x3c9eba31	0.019375892
48	0xbc6ed4a8	-0.014577068
49	0x3dae327c	0.08505723
50	0x3d33ea1a	0.04392443
51	0x3ca1fcd0	0.01977387
52	0x3bc4cc58	0.006005805
53	0xbdedd42f	-0.116127364
54	0x3d49be2b	0.049253624
55	0x3e026058	0.12732065
56	0xbb4b4fcb	-0.0031022902
57	0xbde06350	-0.10956442
58	0xbda69c03	-0.081352256
59	0x3d805404	0.06266025
60	0xbdfcc696	-0.12342565
61	0x3d092ba0	0.03348887
62	0xbb0e57f0	-0.0021719895
63	0xbc830df0	-0.015997857
64	0xbdf643dd	-0.12024663
65	0x3d0afca1	0.033932332
66	0xbd37413a	-0.04473994
67	0xbd06f81b	-0.032951456
68	0xbc49e77e	-0.012323258
69	0xbdd0ac18	-0.10189074
70	0x3d634869	0.055488978
71	0xbd1cc0b2	-0.038269706
72	0x3deb5f45	0.114927806
73	0xbc04bd0d	-0.008101714
74	0x3d076e54	0.0330642
75	0xbde71f43	-0.112852596
76	0x3df7216c	0.120669216
77	0xbdb562e2	-0.08856751
78	0xbd3a8d4a	-0.0455449
79	0xbdb8ccb4	-0.09023419
80	0x3dc33d19	0.09533138
81	0xbd213db0	-0.03936547
82	0xbd1e0f26	-0.038588665
83	0xbda934c2	-0.08262016
84	0xbd2d2191	-0.04226834
85	0xbcfb86c4	-0.03070391
86	0x3d3215ca	0.04347781
87	0x3cf2a8e4	0.029621549
88	0x3c1f4234	0.009720374
89	0x3dca47bd	0.09876964
90	0xbdcf73e1	-0.10129524
91	0xbdee1443	-0.11624958
92	0x3cd6784d	0.02618041
93	0x3d96a938	0.07356495
94	0xbdb773b5	-0.08957616
95	0x3dabce09	0.083889075
96	0xbc59df57	-0.013297877
97	0xbdd48641	-0.103771694
98	0x3c19a09b	0.00937667
99	0x3df46981	0.11934186
100	0xbd86f44b	-0.06589564
101	0x3dc7b228	0.097507775
102	0xbdedb77b	-0.11607262
103	0x3d5ae3f1	0.053440038
104	0x3dd98a6a	0.106221035
105	0x3c448321	0.011994154
106	0x3c6d1cc4	0.01447219
107	0x3d9b0763	0.07569768
108	0x3d5e1eaa	0.054228462
109	0x3d792875	0.0608296
110	0xbdea73ff	-0.11447906
111	0xbc323c9e	-0.01087871
112	0x3d8ad2cc	0.067784876
113	0xbcb5f1e4	-0.022210069
114	0x3d2c92cf	0.042132195
115	0xbc2a844a	-0.010407517
116	0x3c4df252	0.012569981
117	0x3d7827c4	0.0605848
118	0x3d3762de	0.04477202
119	0x3d87ebfb	0.066368066
120	0xbd8bba4b	-0.06822642
121	0x3d806c56	0.062706634
122	0xbc675044	-0.014118258
123	0xbc8fcba3	-0.017553156
124	0x3dec093d	0.115251996
125	0x3deafa00	0.11473465
126	0x3d99dbfc	0.07512662
127	0xbda8ac05	-0.08235935
128	0x3d8036ed	0.06260476
129	0xbd3aa74d	-0.045569707
130	0xbdc36957	-0.09541576
131	0xbd794e9e	-0.06086599
132	0x3d82392f	0.06358563
133	0x3dfaa4a3	0.12238433
134	0x3d97c2f9	0.07410235
135	0xbcfb59bb	-0.030682435
136	0xbcbe7909	-0.023251073
137	0xbdddf58a	-0.108378485
138	0xbd99f805	-0.07518009
139	0x3cccaa3c	0.024983518
140	0x3d240d6e	0.04005187
141	0xbd51a8c7	-0.05118635
142	0xbddef925	-0.10887364
143	0xbdfd72ae	-0.12375389
144	0x3de78fda	0.113067344
145	0xbdcbdf42	-0.099546924
146	0xbdc34d06	-0.095361754
147	0x3d5bfea3	0.053709637
148	0xbdf3f572	-0.11912049
149	0x3d92d4a5	0.07169465
150	0xbd5cc2bf	-0.05389666
151	0xbd2bdfa8	-0.041961342
152	0xbdd9da56	-0.106373474
153	0x3d99d20d	0.07510767
154	0x3da7381e	0.081650004
155	0xbd433336	-0.04765626
156	0x3c80247d	0.015642399
157	0xbdecc193	-0.11560359
158	0xbdd2ae19	-0.10287113
159	0xbdbc172a	-0.09184106
160	0x3c8438b1	0.016140314
161	0x3cf22b24	0.029561587
162	0x3a2e8fd5	0.0006659006
163	0xbde66531	-0.112497695
164	0x3dc400a5	0.095704354
165	0x3d8b793a	0.068102315
166	0xbe02e281	-0.12781717
167	0x3d893e64	0.06701353
168	0xbc176800	-0.009241104
169	0x3ccc8c68	0.024969295
170	0xbdfc0056	-0.123047516
171	0xbd8b6cc7	-0.06807857
172	0x3d304fb5	0.043044765
173	0x3d6a4c6c	0.057201788
174	0x3d48b196	0.048997484
175	0xbded7026	-0.11593656
176	0xbd6c4aba	-0.057688452
177	0x3e13b6db	0.14425223
178	0xbdd3adbe	-0.10335873
179	0x3d4da8ed	0.05020993
180	0x3dd76e9e	0.105191454
181	0x3d3b842a	0.04578034
182	0xbd02b8b5	-0.03191443
183	0x3dea0e3d	0.11428497
184	0xbda654cc	-0.081216425
185	0xbd3bed93	-0.045880865
186	0x3d2b1cf7	0.04177567
187	0x3d9d226e	0.076725826
188	0x3dad01d2	0.08447613
189	0xbd0d151b	-0.034443956
190	0x3d5845f2	0.05280108
191	0xbc5988a2	-0.013277205
192	0xbddc4f8b	-0.10757359
193	0x3d7472b0	0.059679687
194	0x3cf9c306	0.030488502
195	0x3e11db41	0.14243795
196	0x3dd41191	0.10354913
197	0x3d2b2e7e	0.041792385
198	0x3d70066d	0.058599878
199	0x3e0018bb	0.12509434
200	0x3dbe1fa6	0.0928338
201	0xbdea9343	-0.11453869
202	0x3cf0699c	0.029347233
203	0xbaeb98c2	-0.0017974603
204	0xbd8cc969	-0.068743534
205	0xbdc21ccb	-0.09478148
206	0xbd48b16f	-0.04899734
207	0x3d471fb0	0.048614204
208	0x3e198317	0.14991413
209	0xbd714eef	-0.058913168
210	0xbd9712d0	-0.07376635
211	0x3db4f44e	0.0883566
212	0x3d70df5a	0.058806755
213	0xbd9bc2e5	-0.076055326
214	0x3d4cafba	0.049972273
215	0x3df4f137	0.119600706
216	0xbd07807f	-0.033081528
217	0x3d31cdab	0.04340903
218	0x3d44138c	0.047870204
219	0xbcf1ecce	-0.029531863
220	0x3dd6570b	0.10465821
221	0x3d0353fc	0.032062516
222	0xbdab6d73	-0.08370485
223	0x3d98679a	0.074416354
224	0xbdb7760b	-0.08958062
225	0xbd71af9a	-0.059005357
226	0x3e0359d5	0.12827237
227	0x3d97b60e	0.07407771
228	0xbdc5154e	-0.09623204
229	0xbd654cf0	-0.055981576
230	0x3ddb0ba7	0.10695582
231	0x3dc5d461	0.09659649
232	0x3d85f8a3	0.06541564
233	0x3d135848	0.035972863
234	0xbd1583a2	-0.036502488
235	0x3d7ef661	0.062246684
236	0x3d462124	0.04837145
237	0xbde99c49	-0.11406762
238	0xbceeee43	-0.029166346
239	0xbd2586d1	-0.040411774
240	0x3cd53eae	0.026030865
241	0xbdd46357	-0.1037051
242	0xbd016670	-0.031591833
243	0x3c8ec802	0.017429356
244	0x3dfcbeb7	0.123410635
245	0x3db7bf81	0.08972073
246	0xbde11e1f	-0.10992073
247	0x3d7aa288	0.061190158
248	0xbd3f0a66	-0.046640776
249	0xbda1269c	-0.07868692
250	0x3dd8512f	0.105623595
251	0x3bde3838	0.006781604
252	0x3dcc9b8d	0.099906065
253	0xbdfbf57b	-0.12302681
254	0xbc67e4ef	-0.014153703
255	0xbd2aa25d	-0.041658748

l2.bias f4 [64]
0	0xbdbc7a09	-0.09202964
1	0x3be94b86	0.007119599
2	0x3dd75cbc	0.105157346
3	0xbd599c7f	-0.053127762
4	0x3db26d21	0.08712221
5	0xbd5d7568	-0.054067045
6	0x3e07857e	0.13234517
7	0xbd6babe0	-0.05753696
8	0x3cc62ee1	0.024192275
9	0x3df9c5c4	0.12195924
10	0xbe117c89	-0.14207663
11	0xbd670086	-0.056396984
12	0xbbcb9b54	-0.006213585
13	0xbd239515	-0.039937098
14	0xbd0a5046	-0.03376796
15	0x3da3da27	0.08000594
16	0x3db4feb1	0.08837641
17	0x3d7ef7c8	0.06224802
18	0x3ceb44ce	0.028719332
19	0xbcfecff5	-0.031105021
20	0xbda4eef3	-0.080533884
21	0x3d34fae3	0.044184577
22	0x3ca66e01	0.020316126
23	0x3daf0505	0.08545879
24	0xbd903e83	-0.07043173
25	0xbd88c268	-0.06677705
26	0x3e27407f	0.16333197
27	0xbd7a391e	-0.061089627
28	0xbd45b651	-0.048269574
29	0x3dc2c4d3	0.095101975
30	0xbda3f9d8	-0.08006638
31	0x3d8b5532	0.06803359
32	0x3db826d0	0.08991778
33	0x3d5c1142	0.053727396
34	0xbc92f8f4	-0.017940976
35	0xbd8ecd15	-0.0697271
36	0xbdfe93ca	-0.12430532
37	0xbdd43b33	-0.10362854
38	0x3d3cec23	0.046123635
39	0xbc8192d3	-0.015817082
40	0xbd940af0	-0.07228649
41	0xbd9e29b9	-0.07722802
42	0x3d924ece	0.07143937
43	0xbced2e3e	-0.028952714
44	0xbcea463c	-0.028597943
45	0xbd042b8c	-0.032268092
46	0x3cdbe736	0.026843648
47	0x3d2cac8d	0.042156745
48	0x3dea76f4	0.1144847
49	0x3df6812e	0.12036358
50	0x3dc569b8	0.09639305
51	0x3c9e752f	0.019342987
52	0xbbc3fba1	-0.0059809242
53	0xbcab9c8c	-0.02094867
54	0x3c6f20a5	0.014595185
55	0x3df0d9bb	0.11760279
56	0x3d19d764	0.037558928
57	0x3d352ff4	0.044235185
58	0x3d4150fb	0.04719637
59	0xbdb85bb0	-0.09001863
60	0xbd78c86a	-0.060738005
61	0xbd6b1524	-0.05739321
62	0x3d4a76e4	0.04942979
63	0xbd9ac374	-0.07556811

l3.weight f4 [10, 64]
0	0xbe3eaed0	-0.18621373
1	0x3e3efa28	0.18650115
2	0x3da150f9	0.078767724
3	0x39ee13ac	0.00045409554
4	0xbd85947c	-0.06522462
5	0x3e5f34f3	0.21797542
6	0xbd759f05	-0.059966106
7	0xbd90f54d	-0.070780374
8	0x3d0d1cc5	0.034451265
9	0xbe21ff9f	-0.15820168
10	0xbe01a574	-0.12660772
11	0xbab730e1	-0.0013976359
12	0xbe0a054e	-0.13478586
13	0xbdb615ab	-0.088908516
14	0xbdc15f9a	-0.09442063
15	0xbd879fa6	-0.066222474
16	0xbe2161ca	-0.1575996
17	0xbdc13570	-0.094340205
18	0x3e114f7d	0.14190479
19	0xbd16f40c	-0.036853835
20	0x3de308ed	0.11085687
21	0xbe3c2615	-0.18373902
22	0xbca0151c	-0.019541316
23	0xbe11315a	-0.14178982
24	0xbe0f72da	-0.14008656
25	0x3e172391	0.14759661
26	0x3d9e9a4e	0.07744275
27	0x3d6bf907	0.057610538
28	0xbd23deb3	-0.040007304
29	0x3e1bf6b0	0.15230823
30	0x3e0e4f26	0.1389738
31	0xbb7ffaf0	-0.0039059483
32	0xbe21abba	-0.15788165
33	0x3d9d0dc4	0.07668641
34	0x3c938303	0.018006807
35	0xbdf2624a	-0.118351534
36	0xbcf7c9e6	-0.03024764
37	0x3df9b209	0.12192161
38	0xbe209190	-0.15680528
39	0xbddf5761	-0.10905338
40	0x3e728c94	0.23686439
41	0x3baf4205	0.0053484463
42	0xbc7f76ed	-0.015592319
43	0x3db490fd	0.08816717
44	0x3d96feed	0.07372842
45	0xbda9d9e6	-0.08293514
46	0x3d3ea929	0.046548042
47	0x3e5ee5ae	0.21767303
48	0xbaaf2194	-0.0013361447
49	0xbe2b427d	-0.16724582
50	0x3d4f0ad4	0.050547436
51	0xbe0ebccc	-0.13939208
52	0x3d35c1c2	0.044374235
53	0x3e706b1c	0.23478359
54	0xbd14efe0	-0.036361575
55	0xbe3120e2	-0.172977
56	0xbd64a117	-0.05581769
57	0x3df013df	0.1172254
58	0xbe03c8e8	-0.12869608
59	0x3d30e02f	0.043182548
60	0x3d12cba0	0.035838723
61	0x3e42b562	0.19014505
62	0x3e2842d3	0.16431741
63	0x3e092634	0.1339348
64	0x3e7018b4	0.23446923
65	0x3c2cf5cb	0.0105566485
66	0x3d86528d	0.06558714
67	0x3b575b60	0.003286086
68	0xbe0e0e49	-0.13872637
69	0xbe0ed098	-0.1394676
70	0xbde1d38b	-0.11026677
71	0x3de4e111	0.111757405
72	0xbda8026f	-0.08203589
73	0xbcf56884	-0.029957063
74	0x3e07906d	0.13238688
75	0x3d1f1cfa	0.038845994
76	0x3c091876	0.008367648
77	0x3c94033c	0.018067949
78	0xbd21a583	-0.039464485
79	0xbddba715	-0.10725228
80	0xbc76e79f	-0.015069871
81	0xbda37459	-0.07981176
82	0x3d00bcec	0.03143017
83	0x3da6056b	0.08106502
84	0x3dee39a2	0.11632086
85	0xbe0d2a5f	-0.13785695
86	0xbc036c1e	-0.008021383
87	0x3e160f9d	0.14654393
88	0xbcd5cd27	-0.0260988
89	0xbd8d3655	-0.06895129
90	0x3db56514	0.0885717
91	0xbda47d90	-0.08031762
92	0xbd924d9b	-0.07143708
93	0x3d7dc783	0.061957847
94	0xbcf554f3	-0.029947734
95	0x3cdaa3ea	0.026689488
96	0xbcc23f52	-0.023711834
97	0xbd7d5603	-0.061849605
98	0xbc2fb7a6	-0.010724938
99	0xbe0becec	-0.13664597
100	0xbdf02bf9	-0.11727137
101	0xbdf4b361	-0.11948276
102	0xbdbf9493	-0.0935451
103	0xbdba585a	-0.09098883
104	0xbb8c6df9	-0.0042855707
105	0xbe5efde3	-0.21776538
106	0xbdfe455f	-0.12415575
107	0xbe2755f0	-0.16341376
108	0xbdda8f05	-0.1067181
109	0x3e6aaea8	0.22918189
110	0x3db0d529	0.08634407
111	0xbe2e6758	-0.1703161
112	0xbe11a0f4	-0.14221555
113	0x3e3f76f9	0.18697728
114	0x3e0ba66c	0.13637704
115	0x3e08ef13	0.1337245
116	0x3e38425f	0.17994069
117	0x3cd430f3	0.025902247
118	0xbc948f80	-0.018134832
119	0x3dd820b6	0.10553114
120	0xbd9dbb12	-0.077016965
121	0x3d841319	0.06448955
122	0xbdc1ffb1	-0.094725974
123	0x3b8bdad7	0.004268031
124	0xbc5caa4b	-0.013468335
125	0xbe0954c0	-0.13411236
126	0x3daf22a4	0.08551529
127	0xbdeaa229	-0.11456711
128	0xbd5b2415	-0.053501207
129	0xbdb088c5	-0.08619837
130	0x3d76de55	0.060270626
131	0xbe1f570e	-0.15560552
132	0x3d7fb412	0.062427588
133	0xbdc06e3c	-0.093960255
134	0x3d99014e	0.07470952
135	0xbe3789b0	-0.17923617
136	0x3e4a3655	0.19747289
137	0x3d3b4f30	0.045729816
138	0xbc8b6365	-0.017015168
139	0xbe24550b	-0.16048066
140	0xbc143742	-0.009046378
141	0xbcbea559	-0.023272203
142	0x3d8646ec	0.06556496
143	0x3ddb421f	0.10705971
144	0xbde1ac87	-0.11019235
145	0x3dc986b6	0.09840147
146	0xbca227e0	-0.019794405
147	0xbdd7e9ac	-0.10542616
148	0xbc8bc733	-0.017062759
149	0x3d13097a	0.03589771
150	0x3d62b11a	0.05534468
151	0xbde5f0d6	-0.112275764
152	0xbdc7f363	-0.09763219
153	0x3e3b7c30	0.18309093
154	0x3c981246	0.018563401
155	0xbc08da95	-0.008352895
156	0x3c666091	0.014061109
157	0x3d85ea20	0.065387964
158	0x3afcc794	0.0019285553
159	0x3a224468	0.0006190003
160	0x3e35f5b3	0.17769508
161	0xbd994a55	-0.07484881
162	0xbde3040c	-0.11084756
163	0xbdc5edcf	-0.09664499
164	0x3d8bb1e8	0.06821042
165	0xbe164996	-0.14676508
166	0x3db39e13	0.08770385
167	0x3d6eb384	0.05827667
168	0x3dbe4fe7	0.09292584
169	0x3de3aa6f	0.11116492
170	0x3d33d753	0.04390652
171	0x3e1a2f46	0.15057096
172	0x3c6d1c5f	0.014472096
173	0xbd807a75	-0.06273357
174	0xbc466ffb	-0.012111659
175	0x3db62c2d	0.088951446
176	0xbd988cd6	-0.07448737
177	0x3db6acd3	0.08919682
178	0xbdbb55ee	-0.09147249
179	0xbd22e521	-0.039769296
180	0x3daf88ac	0.0857099
181	0x3d4fd02f	0.05073565
182	0x3da1175e	0.07865785
183	0xbe0bcbd7	-0.13651977
184	0x3d0c71c7	0.034288194
185	0x3d6b2827	0.05741134
186	0x3dbbdaec	0.091726154
187	0x3d40babd	0.047053088
188	0x3dd7c03c	0.10534713
189	0x3b29e800	0.0025925636
190	0x3c9a3385	0.018823395
191	0xbca421a5	-0.020035574
192	0x3d2edb9b	0.0426899
193	0x3d2f4ebd	0.0427997
194	0xbe17fe0c	-0.14843005
195	0xbbe13957	-0.0068732905
196	0x3d7a8493	0.06116159
197	0xbe2aff0f	-0.1669886
198	0x3c4bc1f4	0.012436379
199	0xbe024159	-0.1272024
200	0x3d90b294	0.07065311
201	0x3d9cc0ac	0.07653937
202	0xbd9155fd	-0.07096479
203	0xbc84d779	-0.016216027
204	0x3e619e20	0.22032976
205	0xbd878f00	-0.06619072
206	0xbd716b38	-0.058940142
207	0xbd972bbc	-0.073813885
208	0xbde5f018	-0.11227435
209	0xbd663860	-0.056206107
210	0x3a8adab2	0.0010593741
211	0x3e502baa	0.20329157
212	0x3d13c20a	0.036073722
213	0x3df68a56	0.12038104
214	0xbdcf879c	-0.10133287
215	0xbde63e9c	-0.112424105
216	0x3e61a395	0.22035058
217	0x3e06a5bd	0.13149162
218	0x3da8784b	0.08226069
219	0xbd88e508	-0.06684309
220	0x3db8ba55	0.09019915
221	0xbd82bd6d	-0.06383786
222	0xbd8dd5a7	-0.069255166
223	0xbdd292d6	-0.10281913
224	0xbd0868ab	-0.033302944
225	0xbc3eb9f3	-0.011641013
226	0x3da5ad7d	0.08089731
227	0x3de60c62	0.112328306
228	0xbdcafc6a	-0.099114254
229	0x3d21af5c	0.039473876
230	0x3e17239b	0.14759676
231	0xbdc9e2e8	-0.09857732
232	0xbdf21302	-0.11820032
233	0xbd493aee	-0.049128465
234	0x3e2866c3	0.1644545
235	0xbd7c25b4	-0.061559394
236	0x3d3b5996	0.045739733
237	0x3d2a15ae	0.04152458
238	0x3e02aea6	0.12761936
239	0x3d3376ff	0.043814655
240	0xbd23ecd5	-0.040020783
241	0xbcc56fd0	-0.024101168
242	0xbd019071	-0.03163189
243	0xbd98e8e3	-0.074662946
244	0xbde825d3	-0.113353394
245	0x3d34b483	0.044117462
246	0xbdf782aa	-0.12085469
247	0xbd9b251f	-0.0757544
248	0xbd0e4516	-0.034733854
249	0x3b99d888	0.004695002
250	0xbccdad9e	-0.025107201
251	0xbe0c8c82	-0.13725474
252	0x3d96b4b3	0.073586844
253	0x3d8aa6f3	0.06770124
254	0x3d2905d4	0.041265324
255	0x3d5e887a	0.054329373

l3.bias f4 [10]
0	0x3d32ab96	0.04362067
1	0x3d8ec824	0.069717675
2	0xbdc312bd	-0.095250584
3	0xbe08e122	-0.13367131
4	0x3d5b5f51	0.053557698
5	0x3d143a84	0.036188617
6	0x3b7a317b	0.0038176465
7	0xb91f9fe0	-0.0001522298
8	0xbe08ac59	-0.13346995
9	0xbd1c785e	-0.03820073
