lightning_logs/version_5/checkpoints/epoch=9-step=18750.ckpt (torch, 225107 bytes, 6 tensors)

l1.weight f4 [64, 784]
0.00064271316 0.033966113 -0.00806788 -0.032089423 -0.033833664 0.0058275647 0.013964318 0.027870398
-0.00073644146 -0.026819983 0.0022861548 0.0095735155 -0.027269881 -0.0018474822 -0.025084134 -0.017208653
0.01610202 0.032549422 -0.0026884302 0.0025062487 -0.006248478 -0.026303906 0.012764145 0.03534129
0.03442659 -0.030510793 -0.03131994 0.03294879 0.006240137 -0.03401928 -0.012538778 0.005482614
-0.029420495 -0.033390466 0.0031829523 0.02576851 -0.02696013 -0.021950629 -0.030388333 -0.009586739
-0.03240313 0.035733525 0.00989523 -0.029826771 0.027714254 -0.011420957 0.001795758 -0.013503513
-0.03567508 -0.0059122713 -0.009883417 -0.023537502 -0.017518658 0.007784996 -0.030912206 -0.023687087
-0.020451155 0.014561556 0.007602192 0.021429664 0.033368155 -0.0063500297 0.02398757 -0.02651141
0.016490748 -0.01117745 0.026860997 0.035020858 0.00050446636 0.01907746 0.022448806 -0.0332531
0.01755457 0.033535253 0.00052556663 -0.03334277 0.016941862 -0.003783571 -0.034158938 -0.0022031232
0.016878463 0.022592101 0.025777217 0.01459584 0.013687331 -0.0016242452 0.017628653 -0.028574655
0.013221308 0.006878769 -0.015464793 -0.012490742 -5.646266e-05 -0.023700811 -0.02737256 -0.0016207871
-0.018836401 -0.020671137 0.019923551 -0.00228107 0.00652373 -0.0024525651 0.003031894 -0.024112377
-0.024780018 -0.026412511 -0.016045583 -0.009426412 -0.003947248 -0.0028111555 -0.014137873 0.022366427
0.025161553 0.007702343 0.02325272 -0.009079888 0.00449946 0.020964762 -0.02300456 0.0027292792
0.012058043 0.020721983 0.004921721 -0.033766914 0.014456165 -0.00027149243 0.026670912 -0.0040382436
0.03345811 -0.035913263 -0.009438938 -0.022578709 -0.0023159108 0.0064306012 -0.011518144 0.013245201
0.025862535 -0.0065810904 -0.023357641 0.015156764 0.012479339 0.0019276105 -0.0055250544 -0.009212612
-0.017627008 -0.0147669315 0.013771397 -0.012836456 -0.019234642 0.030166904 -0.019369256 0.023221333
-0.017262856 0.031448927 0.027960159 -0.007825726 -0.01825155 0.025643012 -0.025719084 0.0070237983
0.0052752555 -0.025005544 0.013765199 -0.00888782 -0.005786696 -0.02808515 0.03375067 0.011947165
-0.017813195 0.03416496 -0.0041475617 -0.012443109 -0.0002481013 -0.016958224 -0.0066594523 0.018261373
-0.020811772 -0.022076884 0.004152331 0.0039412333 0.0015899237 0.009292876 0.01945196 -0.012612964
0.0010464622 0.005010258 0.017398223 -0.0001309165 0.031180864 0.003794033 -0.014546349 0.029981928
0.009057217 0.019693533 0.022377824 -0.024269452 -0.005727945 0.012864218 0.009897485 -0.02833777
-0.0255623 0.010473596 -0.012672265 0.0036412799 0.005586771 -0.026439955 0.017901456 -0.0104265865
0.027661994 -0.011764317 0.029502004 -0.003668304 0.028154263 0.03944626 -0.020418428 -0.019779675
0.02805325 -0.035428237 -0.03452344 -0.016647458 -0.016788283 0.03087119 0.034295853 -0.003143278
-0.011502275 0.0026623616 0.02853294 0.023928642 0.011840502 0.0015977292 -0.0011991528 0.00043074618
0.025029074 0.022176977 -0.0034875886 -0.028405895 0.015525688 -0.02058736 0.008766055 -0.019486342
0.0015799742 -0.019167049 0.0026883741 0.03236542 0.0329474 0.010277898 0.017959384 -0.0027606005
0.006200389 0.017551186 -0.009225312 -0.004111458 -0.016336739 0.027709508 0.0027593973 0.030407064
00000000: c07b 283a 0d20 0b3d 242f 04bc 3370 03bd
00000010: 2b95 0abd 28f5 be3b 98ca 643c 7650 e43c
00000020: c00d 41ba 95b5 dbbc 50d3 153b 3cda 1c3c
00000030: 1665 dfbc 3727 f2ba 3e7d cdbc 29f9 8cbc
00000040: 62e8 833c 8b52 053d 6030 30bb e03f 243b
00000050: 08c0 ccbb 4a7b d7bc b420 513c 07c2 103d
00000060: e502 0d3d c5f1 f9bc 5649 00bd 4ff5 063d
00000070: 107a cc3b cd57 0bbd 726f 4dbc 80a7 b33b
00000080: 4003 f1bc 71c4 08bd 1499 503b 7b18 d33c
00000090: 7edb dcbc ced1 b3bc f4f0 f8bc b311 1dbc
000000a0: 25b9 04bd 515d 123d 9a1f 223c 4657 f4bc
000000b0: 0109 e33c f71e 3bbc a45f eb3a d73d 5dbc
000000c0: 0820 12bd babb c1bb 0eee 21bc b8d1 c0bc
000000d0: 4a83 8fbc 4819 ff3b 983b fdbc 6c0b c2bc
000000e0: 2e89 a7bc 9893 6e3c cf1b f93b 438d af3c
000000f0: 0cad 083d e913 d0bb 9581 c43c 752e d9bc
00000100: 9b17 873c a021 37bc 980b dc3c 0872 0f3d
00000110: 2a3e 043a 5548 9c3c 8fe6 b73c 6734 08bd
00000120: 9ace 8f3c 435c 093d 2ec6 093a 6e92 08bd
00000130: a9c9 8a3c caf5 77bb 3eea 0bbd 4662 10bb
00000140: b444 8a3c 1213 b93c be2a d33c 6423 6f3c
00000150: d440 603c a0e4 d4ba f769 903c 6515 eabc
00000160: 2f9e 583c 4c67 e13b 0b60 7dbc f8a5 4cbc
00000170: 52d2 6cb8 3428 c2bc 6b3c e0bc 9770 d4ba
00000180: cc4e 9abc 8456 a9bc b736 a33c 017e 15bb
00000190: 03c5 d53b 37bb 20bb beb2 463b 5287 c5bc
000001a0: 77ff cabc 0d5f d8bc 0772 83bc 3d71 1abc
000001b0: eb57 81bb 5d3b 38bb 8aa2 67bc cc39 b73c
000001c0: 9a1f ce3c f063 fc3b 7d7c be3c d0c3 14bc
000001d0: 3570 933b 4bbe ab3c 0f74 bcbc b5dd 323b
000001e0: 198f 453c 26c1 a93c 6346 a13b 2d4f 0abd
000001f0: 8dd9 6c3c 1957 8eb9 f57c da3c 3e53 84bb
00000200: 5f0b 093d c919 13bd c7a5 1abc fcf6 b8bc
00000210: 89c6 17bb cbb7 d23b 99b6 3cbc 6602 593c
00000220: abdd d33c 30a6 d7bb 8658 bfbc 1354 783c
00000230: 2476 4c3c e0a7 fc3a 840b b5bb 7ff0 16bc
00000240: 8466 90bc 00f1 71bc 6da1 613c 0050 52bc
00000250: f891 9dbc 9520 f73c 46ac 9ebc aa3a be3c
00000260: d56a 8dbc 97d0 003d b40c e53c 7937 00bc
00000270: 4684 95bc 4b11 d23c d4b0 d2bc e427 e63b
00000280: 0ddc ac3b 6dd8 ccbc 6e87 613c 389e 11bc
00000290: 539e bdbb d412 e6bc 243e 0a3d 0bbe 433c
000002a0: faec 91bc 8ff0 0b3d 45e8 87bb 2fde 4bbc
000002b0: 9813 82b9 f9eb 8abc 8937 dabb e098 953c
000002c0: 737d aabc 95da b4bc 4710 883b 7625 813b
000002d0: fd64 d03a 2641 183c b859 9f3c 9ba6 4ebc
000002e0: 7229 893a 172d a43b b886 8e3c a146 09b9
000002f0: 036f ff3c 50a5 783b cf53 6ebc a99c f53c
00000300: b964 143c 5554 a13c b351 b73c bbd0 c6bc
00000310: 7cb1 bbbb 71c4 523c 1029 223c 9c24 e8bc
00000320: 0768 d1bc 7299 2b3c 559f 4fbc 8aa2 6e3b
00000330: 3b11 b73b 9b98 d8bc 13a6 923c 46d4 2abc
00000340: 689b e23c 1fbf 40bc 30ae f13c ee67 70bb
00000350: c5a3 e63c 6792 213d 8c44 a7bc fc08 a2bc
00000360: eecf e53c 331d 11bd 7368 0dbd 4060 88bc
00000370: 9587 89bc 94e5 fc3c cf79 0c3d 74ff 4dbb
00000380: 0a74 3cbc 047b 2e3b eabd e93c 0006 c43c
00000390: aafe 413c e56a d13a e42c 9dba c6d5 e139
000003a0: c609 cd3c 7eac b53c 0790 64bb 7bb3 e8bc
000003b0: 755f 7e3c d3a6 a8bc 809f 0f3c d2a1 9fbc
000003c0: 2317 cf3a 3704 9dbc 6f2f 303b 9a91 043d
000003d0: daf3 063d a164 283c 8f1f 933c 31eb 34bb
000003e0: a22c cb3b 81c7 8f3c c325 17bc 69b9 86bb
000003f0: a0d4 85bc 0dff e23c 01d7 343b 3c18 f93c

l1.bias f4 [64]
0.018402081 0.055581838 0.003355937 0.005871784 0.024977664 0.022101944 0.01787837 0.078192964
0.01735792 -0.011264919 -0.005857787 0.013179606 0.0036876719 -0.02167601 0.02026131 -0.0077703465
0.05647585 0.020265196 0.042174872 0.04085599 -0.012335204 0.005045311 0.07222198 -0.001753789
-0.018315278 -0.02786707 -0.007840635 0.0004296201 0.034408357 0.057750802 0.05827357 0.03635729
0.055949494 0.057845164 0.024210174 0.026026769 0.086894125 0.03932551 -0.051450003 -0.00046788985
0.020310346 0.0043514045 0.04600416 -0.0047867056 0.018500583 0.0449534 0.010073197 -0.0145728905
0.015378694 0.04979354 0.029460542 0.07683249 0.003944919 -0.048524965 0.05162412 0.10224246
0.003478634 0.0644878 0.0043061296 0.014166561 -0.025872732 0.04194646 0.037320394 0.033452135
00000000: f6bf 963c c8a9 633d 48ef 5b3b 1868 c03b
00000010: f59d cc3c 230f b53c a975 923c a223 a03d
00000020: 3232 8e3c 7f90 38bc aef2 bfbb 46ef 573c
00000030: deac 713b e391 b1bc 0cfb a53c 649e febb
00000040: 3953 673d 3203 a63c 8fbf 2c3d 9c58 273d
00000050: 9819 4abc 2353 a53b 1ee9 933d 65df e5ba
00000060: ec09 96bc 7b49 e4bc 0276 00bc a23e e139
00000070: c7ef 0c3d 1b8c 6c3d 44b0 6e3d 62eb 143d
00000080: 4c2b 653d 0def 6c3d 6a54 c63c 1736 d53c
00000090: 8cf5 b13d c913 213d 3dbd 52bd 1d4f f5b9
000000a0: e261 a63c 3a96 8e3b dc6e 3c3d ccd9 9cbb
000000b0: 898e 973c 0e21 383d 0d0a 253c 22c3 6ebc
000000c0: ebf6 7b3c 50f4 4b3d 3c57 f13c 5a5a 9d3d
000000d0: 6144 813b 1dc2 46bd d073 533d 7f64 d13d
000000e0: cbf9 633b 2e12 843d 6f1a 8d3b dd1a 683c
000000f0: 0df3 d3bc 0dd0 2b3d 45dd 183d 1b05 093d

l2.weight f4 [64, 64]
0.05746975 0.14652203 -0.0022592389 -0.098203115 0.08185069 0.06347448 0.1100232 0.11364059
0.037883017 -0.074861184 -0.094609335 0.08345775 0.08003165 0.103684716 0.0073991297 0.02885231
-0.05371849 0.044668254 -0.0034152959 -0.041759156 -0.10872846 0.05409101 -0.077846065 0.05616005
0.080339044 0.038938377 -0.07386987 -0.11478477 0.077167116 -0.0496361 0.10411583 0.121835805
0.064047165 0.08166982 -0.114868164 -0.115875244 -0.10586635 -0.0557275 -0.040101867 -0.03024968
0.0009038469 0.0026467033 0.11256853 0.02495515 -0.12247254 0.066189855 -0.08848116 -0.111039065
-0.008295704 -0.093559384 -0.016737292 0.02355698 -0.06782846 -0.049074844 -0.017174905 -0.04121838
0.075245164 -0.050380908 -0.06241354 -0.05557408 0.052748464 0.1260502 -0.09806001 0.047610193
0.12274779 0.009132842 0.08492501 0.0058026416 -0.07864779 0.07130539 0.019543774 -0.0718649
0.0061520725 -0.07948878 -0.10346643 0.124802954 0.013374249 -0.033565704 -0.0032306619 0.008032819
0.009742387 -0.09310165 -0.06684371 -0.08569786 0.059407845 -0.010691788 -0.06994503 -0.074546896
-0.031981267 0.070199765 0.06937736 -0.055088546 -0.021949377 -0.005684478 0.06868549 -0.038260534
-0.028824259 -0.017268794 0.010612166 0.09857984 -0.044270184 0.09765912 -0.06647088 -0.11644953
0.060687374 -0.115515806 0.086080596 -0.04072433 -0.106675565 -0.0060419883 -0.0032574607 -0.07999648
-0.051560193 0.041534122 -0.10683926 0.11685271 -0.10228309 -0.014967624 -0.10743399 -0.031159924
0.11566438 0.032219153 -0.119370036 0.07813051 -0.06747975 0.09722399 -0.0016304868 0.031133803
-0.10981715 0.1470738 0.0981791 -0.075637594 -0.0931669 -0.026214259 -0.076803684 -0.014720218
0.14383647 0.105758704 -0.11534372 0.053221814 -0.102285914 0.09840299 0.11148233 -0.061243877
-0.089865305 -0.11842474 -0.053185858 -0.090868816 0.0898469 0.076791145 0.11352265 0.12617664
-0.012967889 0.14034668 0.12684843 0.05889856 -0.0577352 -0.07376722 0.096975 0.047387123
0.141172 -0.11868003 -0.11506164 -0.02916325 0.017880326 -0.10355266 -0.07154651 -0.11580574
0.118427716 0.1360852 0.11634278 -0.068295635 -0.06796639 -0.02639809 -0.040466145 -0.045257915
0.09003443 -0.07163258 0.16858768 -0.051706295 -0.06287587 -0.009725288 0.021102663 0.012967857
-0.038032502 0.021083793 0.12695412 0.101575896 -0.08583953 -0.1145115 0.04747954 0.112984315
0.008995004 -0.043735303 0.06273213 0.0014596743 -0.11404039 0.013843832 -0.006216329 -0.052693278
0.054442514 0.07321474 0.08737746 0.095524296 -0.105543226 -0.07214145 -0.03329244 -0.07759487
0.04079938 0.0071482887 0.109085865 0.013167047 -0.008258801 -0.021866623 -0.085743554 0.07608728
0.04254951 -0.07172531 -0.111831754 -0.06436231 0.13702811 0.07002924 0.039637785 -0.009374847
0.078591056 -0.009407708 0.08779931 -0.063021794 0.028078508 0.11304001 -0.017050294 -0.056906532
-0.103659235 0.007089895 0.0692963 -0.060270622 -0.0598469 -0.01675962 -1.3364984e-05 0.15854998
-0.10771454 0.010679552 0.18338926 -0.04184298 0.0028461239 0.052586682 -0.06664294 0.032032184
-0.05715766 0.10225223 -0.09336132 0.11533769 0.09024655 -0.060694113 0.057796568 -0.066746034
00000000: 6765 6b3d df09 163e bd0f 14bb b71e c9bd
00000010: 56a1 a73d e8fe 813d d853 e13d 66bc e83d
00000020: 392b 1b3d d250 99bd 8ac2 c1bd e6eb aa3d
00000030: a2e7 a33d a758 d43d 6674 f23b ae5b ec3c
00000040: eb07 5cbd 0ff6 363d 28d3 5fbb a60b 2bbd
00000050: 07ad debd 898e 5d3d c26d 9fbd 1508 663d
00000060: cc88 a43d d97d 1f3d 1649 97bd 4714 ebbd
00000070: cb09 9e3d 394f 4bbd ae3a d53d 0d85 f93d
00000080: 292b 833d 8242 a73d 0040 ebbd 0050 edbd
00000090: 75d0 d8bd 8542 64bd db41 24bd 2dce f7bc
000000a0: 24f0 6c3a 5074 2d3b 548a e63d be6e cc3c
000000b0: e2d2 fabd 8c8e 873d 9c35 b5bd 7368 e3bd
000000c0: b4ea 07bc 109c bfbd a51c 89bc 91fa c03c
000000d0: a6e9 8abd b402 49bd 63b2 8cbc 9bd4 28bd
000000e0: 231a 9a3d 365c 4ebd 57a5 7fbd a6a1 63bd
000000f0: c60e 583d 4e13 013e b0d3 c8bd e802 433d
00000100: 3163 fb3d eaa1 153c 2aed ad3d 1624 be3b
00000110: 1812 a1bd 8f08 923d 441a a03c e82d 93bd
00000120: 5397 c93b 03cb a2bd 35e6 d3bd b198 ff3d
00000130: ab1f 5b3c 317c 09bd 83b9 53bb 169c 033c
00000140: 889e 1f3c 14ac bebd 5be5 88bd 5c82 afbd
00000150: a455 733d 9c2c 2fbc 573f 8fbd 0bac 98bd
00000160: cafe 02bd e5c4 8f3d b815 8e3d 87a4 61bd
00000170: 2ecf b3bc dc44 babb faaa 8c3d 14b7 1cbd
00000180: da20 ecbc 4977 8dbc a6de 2d3c 3ae4 c93d
00000190: a754 35bd 8101 c83d e221 88bd 177d eebd
000001a0: 5393 783d 8d93 ecbd 064b b03d 8ece 26bd
000001b0: b878 dabd dffb c5bb 1f7b 55bb 32d5 a3bd
000001c0: c830 53bd af1f 2a3d 8bce dabd 7950 ef3d
000001d0: cc79 d1bd c43a 75bc 5a06 dcbd 1943 ffbc
000001e0: 72e1 ec3d 3bf8 033d 4778 f4bd e402 a03d
000001f0: d332 8abd 5f1d c73d 0fb6 d5ba 510c ff3c
00000200: d0e7 e0bd 849a 163e 2012 c93d e2e7 9abd
00000210: 4ace bebd 49bf d6bc 404b 9dbd 122d 71bc
00000220: de49 133e 0598 d83d 5439 ecbd 1eff 593d
00000230: 477b d1bd 8287 c93d d950 e43d dcda 7abd
00000240: 4d0b b8bd ac88 f2bd 6ad9 59bd 6e19 babd
00000250: a701 b83d ad44 9d3d 907e e83d 7334 013e
00000260: 4577 54bc 0ab7 0f3e 8ee4 013e 9e3f 713d
00000270: bf7b 6cbd 4513 97bd d49a c63d 0019 423d
00000280: 658f 103e 840e f3bd 70a5 ebbd c5e7 eebc
00000290: c379 923c 6b13 d4bd fa86 92bd 8f2b edbd
000002a0: 3b8a f23d eb59 0b3e 2045 ee3d 95de 8bbd
000002b0: f631 8bbd cf40 d8bc d4bf 25bd 5d60 39bd
000002c0: f963 b83d 1ab4 92bd 40a2 2c3e fbc9 53bd
000002d0: 10c5 80bd d056 1fbc 7edf ac3c 2277 543c
000002e0: f8c7 1bbd ebb7 ac3c 4300 023e 0607 d03d
000002f0: a3cc afbd 0185 eabd e879 423d 5264 e73d
00000300: c85f 133c ca23 33bd b479 803d 8b52 bf3a
00000310: 028e e9bd 3dd1 623c 59b2 cbbb e8d4 57bd
00000320: 1dff 5e3d 9cf1 953d f4f2 b23d 3ea2 c33d
00000330: 0c27 d8bd e6be 93bd a75d 08bd 0fea 9ebd
00000340: 401d 273d 313c ea3b 6968 df3d 99ba 573c
00000350: ec4f 07bc a221 b3bc 519a afbd a6d3 9b3d
00000360: 6548 2e3d b8e4 92bd 0c08 e5bd 63d0 83bd
00000370: 1951 0c3e 7d6b 8f3d 3b5b 223d f598 19bc
00000380: 59f4 a03d ca22 1abc 20d0 b33d 9211 81bd
00000390: e604 e63c 8581 e73d 0fad 8bbc d316 69bd
000003a0: 4b4b d4bd 5a52 e83b 38eb 8d3d 54de 76bd
000003b0: 0622 75bd 784b 89bc 2b3a 60b7 ed5a 223e
000003c0: 7199 dcbd 4af9 2e3c 65ca 3b3e 8b63 2bbd
000003d0: 0986 3a3b 2265 573d 187c 88bd 2e34 033d
000003e0: 271e 6abd 9e69 d13d 3834 bfbd 2b36 ec3d
000003f0: 2fd3 b83d 649a 78bd 18bc 6c3d 25b2 88bd

l2.bias f4 [64]
-0.0028177695 0.028001945 -0.03540775 -0.02119864 0.015784552 -0.010934212 0.0829908 -0.065355286
0.0988182 0.055544816 0.14483516 0.06640984 0.12769987 0.065843865 -0.04588867 -0.033536114
-0.036627226 0.08774423 0.14583851 0.0037474597 -0.12447648 0.025508711 -0.088583075 0.08367575
-0.08880859 -0.092031576 -0.08074386 0.13498564 -0.010431764 -0.008914578 0.052422877 0.13178259
-0.070809945 0.09711645 0.1342874 -0.027096959 0.090764865 0.11567429 -0.10267573 -0.10861132
0.016174337 -0.07538766 0.09760023 -0.09946532 -0.08231228 -0.07813683 0.042442698 -0.01210485
0.006007822 -0.11599786 -0.0040771537 0.12099555 -0.014627549 -0.0476366 -0.069317475 -0.027321698
-0.09919298 -0.016869022 -0.11533784 0.14261667 -0.0357914 0.044402387 -0.026141025 -0.056399662
00000000: 54aa 38bb 5664 e53c b807 11bd c5a8 adbc
00000010: 9b4e 813c 6925 33bc 15f7 a93d fed8 85bd
00000020: 3261 ca3d f682 633d ab4f 143e e201 883d
00000030: c1c3 023e 26d9 863d c2f5 3bbd 2a5d 09bd
00000040: 6e06 16bd 3fb3 b33d b156 153e f197 753b
00000050: 86ed febd a5f7 d03c 0b6b b5bd 315e ab3d
00000060: 47e1 b5bd 0d7b bcbd 095d a5bd ad39 0a3e
00000070: fde9 2abc 730e 12bc 5fb9 563d 04f2 063e
00000080: ce04 91bd fde4 c63d a382 093e 71fa ddbc
00000090: eee2 b93d a4e6 ec3d a747 d2bd 9d6f debd
000000a0: 0b80 843c d864 9abd a1e2 c73d 79b4 cbbd
000000b0: 5793 a8bd 3406 a0bd 65d8 2d3d 6c53 46bc
000000c0: 44dd c43b 4990 edbd a599 85bb 84cc f73d
000000d0: 63a8 6fbc 981e 43bd 52f6 8dbd c1d1 dfbc
000000e0: b025 cbbd e730 8abc 3f36 ecbd 1b0a 123e
000000f0: 019a 12bd 47df 353d b425 d6bc 5503 67bd

l3.weight f4 [10, 64]
0.10217672 0.20602542 -0.043831483 0.10018868 -0.23600695 -0.061661627 -0.012348467 0.041701693
-0.08110725 0.18178914 0.045638863 0.17287223 0.10728537 -0.06717456 0.21219444 0.124634
-0.23804082 -0.049748432 -0.35528943 0.05537326 0.08416684 -0.27858803 -0.025954966 -0.33301565
-0.05573396 0.2372478 -0.17118701 0.13651764 0.20619278 0.2660062 -0.2866264 -0.06821328
-0.16804887 0.18729337 -0.03494398 -0.0047692307 0.20222688 0.19492897 0.06839618 0.06708736
-0.17417626 0.112825416 0.13590454 0.06320361 -0.10633782 -0.13035141 -0.26869863 0.011425045
0.06049378 -0.060993478 0.15163668 -0.25708035 0.057659417 0.02563384 -0.17837593 -0.222796
-0.03385528 0.1598588 0.018360889 -0.09823767 0.18866383 -0.10616409 0.12929453 -0.04029456
0.034803897 -0.26848552 -0.21437944 -0.12812346 -0.1645462 -0.067168 -0.08477294 0.20763311
0.1495777 -0.22115517 0.096162595 -0.21303993 -0.12546563 0.21312161 0.26250634 -0.08293767
0.059381746 -0.03930691 0.18964295 -0.0794913 -0.0745352 0.3116917 0.087863326 0.250554
-0.035978336 -0.22195648 -0.24565317 0.118818924 -0.19813044 -0.23418367 -0.035995826 0.15396869
0.077837184 0.12401401 -0.0841634 -0.03294578 0.17058761 0.0008678216 -0.24833739 -0.04491382
-0.086250246 -0.10404986 -0.05834604 0.10585506 0.30950892 -0.12903382 0.086137764 -0.2797506
0.048891734 0.22419995 -0.25752613 -0.10410751 0.050936796 -0.18781377 0.15394548 0.22697689
0.18055426 0.163124 -0.066654675 -0.2260562 -0.26252776 -0.08687027 -0.254388 -0.16626945
0.20242098 0.0026763196 -0.013825921 -0.1564872 -0.03729787 0.0035758666 0.060964894 0.12196688
-0.18244182 -0.14974312 0.14855309 -0.0006030655 0.25099862 0.15504825 0.13190077 -0.09706499
0.17547496 -0.095396 -0.06896399 0.18401024 -0.057560313 0.1968367 -0.2572127 0.074391
0.041923918 -0.058248233 0.19212823 -0.038616486 0.16481607 -0.09332191 -0.0055236025 0.15846835
0.20368981 0.19553928 -0.04473892 -0.06740609 -0.15859601 -0.018010387 0.21277466 -0.073647685
-0.0026184462 0.21303023 0.19703482 0.18844742 -0.1584896 -0.13094719 -0.19496085 -0.24576536
0.06170998 -0.01086152 -0.102674335 -0.25316274 -0.16637412 -0.078263864 0.06191849 -0.05655598
0.121540345 0.3083229 -0.036973145 -0.12783025 -0.12498828 0.17731091 0.14863914 0.019375196
-0.13893856 -0.17524897 -0.2754947 0.10805516 -0.2830813 0.049252193 -0.107568696 -0.23722985
-0.15592207 -0.12386368 -0.13552395 0.11964123 0.16060565 -0.062313486 -0.18926337 -0.12860546
0.21654473 -0.13467771 -0.15358701 -0.041380536 -0.046890847 0.016695598 -0.12965289 0.17096621
-0.035498407 -0.049817972 -0.11232705 -0.17615092 0.14599693 -0.20676054 0.09578336 0.0042221327
-0.19537614 0.15004808 0.107223414 -0.06998704 -0.13556775 0.0930921 0.14361157 -0.0010042652
0.15112631 0.09884753 -0.1477594 0.22074997 0.116866484 0.1307806 0.12712212 0.18627761
0.08215363 0.09964858 0.14754334 -0.020954166 -0.069191374 -0.2033849 0.28459582 0.17427394
-0.0077487687 0.29662547 0.011915631 -0.21962391 0.10256206 0.15072538 -0.15673177 0.25449437
00000000: 0742 d13d 54f8 523e a488 33bd b92f cd3d
00000010: ceab 71be e790 7cbd 3951 4abc 65cf 2a3d
00000020: 8f1b a6bd ef26 3a3e d1ef 3a3d 6b05 313e
00000030: 6fb8 db3d d192 89bd 8049 593e 1c40 ff3d
00000040: f9c0 73be 03c5 4bbd 7fe8 b5be 12cf 623d
00000050: aa5f ac3d 17a3 8ebe 829f d4bc 0781 aabe
00000060: 4b49 64bd 16f1 723e a64b 2fbe 48cb 0b3e
00000070: 3324 533e f731 883e b2c0 92be 67b3 8bbd
00000080: 0115 2cbe d5c9 3f3e 6b21 0fbd 3547 9cbb
00000090: 9014 4f3e 769b 473e 4c13 8c3d 1965 893d
000000a0: 435b 32be 0311 e73d 8f2a 0b3e e570 813d
000000b0: a5c7 d9bd d77a 05be de92 89be 1d30 3b3c
000000c0: 53c8 773d 4cd4 79bd a546 1b3e 09a0 83be
000000d0: 482c 6c3d 0ffe d13c 2ea8 36be a224 64be
000000e0: d6ab 0abd 06b2 233e 9369 963c d530 c9bd
000000f0: 1731 413e 8f6c d9bd c965 043e e90b 25bd
00000100: 888e 0e3d ef76 89be 4986 5bbe cc32 03be
00000110: cd7e 28be 608f 89bd 6f9d adbd c69d 543e
00000120: e62a 193e 8076 62be e5f0 c43d 2427 5abe
00000130: 107a 00be 8d3c 5a3e 3b67 863e 3adb a9bd
00000140: 463a 733d 4800 21bd c331 423e 56cc a2bd
00000150: e9a5 98bd 0e96 9f3e b0f1 b33d 9d48 803e
00000160: 055e 13bd 8f48 63be 818c 7bbe 5657 f33d
00000170: b5e2 4abe d8cd 6fbe 5c70 13bd f8a9 1d3e
00000180: 1a69 9f3d 0ffb fd3d dc5d acbd 27f2 06bd
00000190: 85ae 2e3e 867e 633a 284c 7ebe 8ef7 37bd
000001a0: f8a3 b0bd 1818 d5bd 42fc 6ebd 8aca d83d
000001b0: f477 9e3e 7121 04be ff68 b03d 783b 8fbe
000001c0: b342 483d ac94 653e 77da 83be 5136 d5bd
000001d0: 1aa3 503d 4152 40be e2a3 1d3e a16c 683e
000001e0: 37e3 383e fa09 273e 3f82 88bd 477b 67be
000001f0: 0a6a 86be 0ae9 b1bd 253f 82be 8a42 2abe
00000200: 7247 4f3e 3165 2f3b 1e86 62bc 2e3e 20be
00000210: a7c5 18bd 1659 6a3b 53b6 793d c6c9 f93d
00000220: 07d2 3abe 4356 19be 4d1e 183e 0a17 1eba
00000230: e482 803e f8c4 1e3e ff10 073e 02ca c6bd
00000240: b5af 333e fa5e c3bd fe3c 8dbd 2e6d 3c3e
00000250: 5dc4 6bbd 8f8f 493e 62b1 83be 4f5a 983d
00000260: 6ab8 2b3d b395 6ebd 43bd 443e 522c 1ebd
00000270: 8bc5 283e 8f1f bfbd 56ff b4bb 8745 223e
00000280: 1094 503e 733b 483e 2840 37bd 340c 8abd
00000290: fe66 22be 858a 93bc 9ae1 593e 99d4 96bd
000002a0: 3d9a 2bbb 9924 5a3e 7fc3 493e 5cf8 403e
000002b0: 194b 22be 0517 06be d1a3 47be eaa9 7bbe
000002c0: 9bc3 7c3d 84f4 31bc ec46 d2bd 8c9e 81be
000002d0: fa5d 2abe ce48 a0bd 3e9e 7d3d 3ea7 67bd
000002e0: 25ea f83d 80dc 9d3e 2771 17bd efe5 02be
000002f0: dbf9 ffbd fe90 353e dc34 183e bbb8 9e3c
00000300: e945 0ebe 7774 33be a40d 8dbe 064c dd3d
00000310: 08f0 90be abbc 493d fa4c dcbd 62ec 72be
00000320: 09aa 1fbe 3eac fdbd cac6 0abe 7606 f53d
00000330: cf75 243e 6d3c 7fbd 42ce 41be 26b1 03be
00000340: e7bd 5d3e f4e8 09be ea45 1dbe a37e 29bd
00000350: 9e10 40bd 35c5 883c bac3 04be c411 2f3e
00000360: c766 11bd ee0d 4cbd b90b e6bd e860 34be
00000370: 3880 153e 09b9 53be 112a c43d d159 8a3b
00000380: af10 48be 34a6 193e f397 db3d 5d55 8fbd
00000390: 46d2 0abe 12a7 be3d e90e 133e 8ca1 83ba
000003a0: dbc0 1a3e 9370 ca3d 3d4e 17be 480c 623e
000003b0: b257 ef3d 59eb 053e 4d2c 023e 8fbf 3e3e
000003c0: 2a40 a83d 8e14 cc3d 9a15 173e 12a8 abbc
000003d0: 35b4 8dbd 2244 50be 8bb6 913e de74 323e
000003e0: 62e9 fdbb 4bdf 973e c739 433c 17e5 60be
000003f0: 0f0c d23d c157 1a3e 4b7e 20be 164d 823e

l3.bias f4 [10]
0.037298217 0.25999162 -0.18082304 -0.07128978 0.00066435686 0.1053523 -0.08340375 0.11011257
-0.072911285 0.07352137
00000000: 04c6 183d 9f1d 853e ad29 39be 6000 92bd
00000010: 3c28 2e3a f2c2 d73d 96cf aabd b382 e13d
00000020: 8352 95bd 5f92 963d
